models/baseline_vol_model.pth (torch, 565853 bytes, 18 tensors)

lstm.weight_ih_l0 f8 [256, 13]
0	0xbfaf2828aa586596	-0.06085326270494844
1	0x3f97163ddcf8df23	0.022545782672948832
2	0x3fbccba17e832a43	0.11248215998345139
3	0xbfb20eac95677437	-0.0705364098316331
4	0xbfa1bc6398d91b98	-0.03464041939564949
5	0xbf71c9b957786341	-0.004342769614162746
6	0xbfaf41626751896e	-0.06104571829998205
7	0xbfa75a8b0c1397dd	-0.045612664436518215
8	0x3fb03dce2fbfd475	0.06344307580714477
9	0xbfbcb8fb171db25c	-0.11219758333545243
10	0x3fb7cf752da352b3	0.09300930370529663
11	0x3fa7a2a32bf5ae1f	0.046162699810192935
12	0xbfb2ff02b5b76288	-0.07420365272936114
13	0x3f675c9061a5fd69	0.0028517551374417816
14	0x3fa2eda865609827	0.03696943509594091
15	0x3fb89b069540638e	0.09611550468288341
16	0xbfa233f5c7b493ca	-0.03555267393884483
17	0x3fbef324a63fcdba	0.12089757021731531
18	0xbfbe2ff855a5ebd5	-0.11791946497935098
19	0x3fb3e4f2afceadb0	0.07771221916362125
20	0xbf99134623ae4252	-0.0244875869062205
21	0xbfbaf195b9373b79	-0.10524879238003661
22	0x3fa09c81bdd61001	0.0324440521463032
23	0x3fb88bb532b3a733	0.09588177192531759
24	0xbfafc2aff673c822	-0.06203222163630097
25	0xbf9d4210bd1600aa	-0.028572331944361075
26	0xbfb8bce587476653	-0.09663233330447811
27	0xbf75a01d3c618e7d	-0.0052796499277040195
28	0x3fbb268357c1edc2	0.10605641262548374
29	0x3fb86cc80ae2c95f	0.09540987268227273
30	0x3f999315f000f531	0.02497514989248834
31	0xbfb800dff55d5996	-0.09376334896419389
32	0x3f79f2dd722ac8f8	0.006335129760076656
33	0x3fbedac034465d3d	0.12052537227861122
34	0xbfa063295dda5f11	-0.03200654287974037
35	0x3f9e84dc0c69dacb	0.02980369401708564
36	0xbfb98a2f187878ef	-0.0997647700064339
37	0xbfb8b57cccbb6fa0	-0.09651927946418803
38	0x3fb5d0302bfa980a	0.08520794938758072
39	0x3fc0d5aa8ba51431	0.1315205747470443
40	0x3fb9c98373f64ea0	0.10073110180956713
41	0xbfb7fae259448f12	-0.09367193869962545
42	0x3fb0bc7c7c051e2d	0.06537607219535664
43	0xbf7ca7620b9065d9	-0.006995566357568228
44	0xbfbe8276e16fd975	-0.11917822841482979
45	0xbfaded5aefa0e4bf	-0.05845150160934897
46	0xbfa5ca02b515b374	-0.04255684338099899
47	0xbfb49b5cde57aca5	-0.08049564770014912
48	0xbf97ece819956505	-0.023364664613244397
49	0xbfb3e1e54d85a7d8	-0.07766564505223472
50	0x3fbb503f96b6752a	0.10669324330816168
51	0xbf8a1d59f7b2613b	-0.012751295920950248
52	0x3fb838e4c79436cb	0.09461812851460676
53	0x3fbde58507d11b68	0.11678344193306389
54	0x3fa747bac62dd4b4	0.04546912831475805
55	0x3fa00be4a96b5277	0.03134073799234199
56	0x3fc2c180b2ba66c8	0.14653023459395897
57	0xbfa0ff17b35f8b40	-0.03319620194067463
58	0xbfa7092a3825db25	-0.044991797784794486
59	0xbf77908f78000f6d	-0.005753097939308433
60	0xbf9b9450c8847276	-0.026932966459855177
61	0xbfb4734e31997b41	-0.0798844214527721
62	0xbfb6c7dad888bf03	-0.08898704325178745
63	0x3fb71c64fe2c90da	0.09027701573774341
64	0x3fb02f41f2996e42	0.06322109387240807
65	0x3f976b9e8b3d8a85	0.022871472595748194
66	0x3fae3065e769f027	0.05896299791217557
67	0xbfb523dd54648fbd	-0.08257849989291706
68	0xbfb946cd412d144c	-0.09873659936154516
69	0x3fb34e8138351823	0.07541663763285604
70	0x3f9d341fefba9266	0.028519152647862
71	0x3f9274185d3cff12	0.018020992937862586
72	0xbf980cb144778a5b	-0.023485917858020105
73	0x3f91ae9939dfdf99	0.017267603070621005
74	0xbfb50fc64d6ca809	-0.082271951582385
75	0x3fae85a7a23fa693	0.05961345534872211
76	0xbfb46e0e53e40199	-0.07980432079421575
77	0xbf882066e6ba977e	-0.01178055183056492
78	0x3fc0ecd9e53fd80b	0.13222812360589872
79	0xbf7a17ae355485e0	-0.006370239735845357
80	0xbfa4d6fcb3e8bcee	-0.0407027215591088
81	0x3f9eabac33d00ed6	0.029951754248044825
82	0xbfbd360977291459	-0.11410578879538615
83	0x3fc0698b17d3f000	0.12822092689009423
84	0xbfa4992a79ffa5b9	-0.04023106326333043
85	0x3fc01a32f34ee3b7	0.12579953079491954
86	0xbfa5aa6062dfa24a	-0.0423154946036602
87	0x3fa3d23a2f509a2c	0.038713281894434765
88	0x3fba973493b02f6f	0.10386971097631002
89	0x3f6d8f30e2b9cd1c	0.0036083178327374187
90	0xbf9720e8b5511731	-0.022586475435921464
91	0xbfb08bd3195ec814	-0.06463355416670452
92	0xbfc0a93dc5deb001	-0.13016483461012743
93	0xbfb0a8ca4eda2413	-0.06507553505993284
94	0xbfab22f435364b45	-0.05300105237542722
95	0x3fa1361d4f1555f5	0.03361598577854955
96	0xbfb9d1484863c107	-0.10084964530301842
97	0x3fb765e79168f2be	0.09139869022414879
98	0xbfbdf2d884926a57	-0.11698678242320547
99	0xbfa0d0403f695b19	-0.03283882879320838
100	0x3fb4f6b322818070	0.0818893393748128
101	0xbfc2cc3ca92b3e5f	-0.14685781727029032
102	0x3f8a95923a3f40e9	0.012980596926269477
103	0x3fadb7c14fec5f1c	0.05804256535173932
104	0x3faaff743599ee0b	0.05273020891487697
105	0xbfb04bfdd7b26908	-0.06365953937566726
106	0xbfba93130f93fdbd	-0.10380667810749507
107	0x3fc3bcb464b18fc7	0.1541963092487306
108	0x3fb2877cfe87c8eb	0.07237988676186873
109	0x3f94b02c7986da1c	0.020203299443631292
110	0x3fb521b0be8afbe2	0.0825453248207704
111	0xbface5f21718ce92	-0.05644184619850735
112	0x3f9441fd375e6657	0.01978297853893304
113	0xbfa145840fb2f7a3	-0.03373348895682617
114	0xbf93b121dec1fe97	-0.019230393620544985
115	0xbfaefbd1ae6177d0	-0.0605149770133121
116	0x3facc646f3593ebb	0.05620023460926179
117	0xbf783e8b15657a33	-0.0059190209343272125
118	0xbf9aa20a5dbbc648	-0.02600876042465064
119	0xbfae9f50e4ba40b1	-0.059809234543651064
120	0x3f7623102df0b383	0.0054045326242374596
121	0xbfb1cd3574dc4899	-0.06953748801268701
122	0xbfbafac745ff848b	-0.10538907488764175
123	0x3f8fc2303bf49ed0	0.01550710375757039
124	0xbf9afa202f5ddfb6	-0.026344778910668963
125	0x3f9cda72d4ef7a8b	0.02817706513075761
126	0xbfb3eb9fd19c6362	-0.07781409137204556
127	0x3fa78b84e764b5fd	0.04598632168413628
128	0xbfbe5abeb418f2b3	-0.1185721578303383
129	0xbfbbb8a1fb71da69	-0.10828602207934925
130	0x3f82e4586b187cf2	0.00922459675626761
131	0x3f99567aa65a0491	0.024743954089448798
132	0xbfa9e83bfecf7335	-0.05059993253209997
133	0xbfb609633f810367	-0.08608074474706272
134	0x3fa7ec7d858b6b73	0.046726152946312015
135	0xbfa4aaae46cc1c56	-0.04036469091629928
136	0xbfb90073e9dc2943	-0.09766315898392457
137	0xbfbb7f4fd0097a77	-0.10741137341526917
138	0x3fbd092ca785fe2a	0.11342124071051587
139	0x3fc391016514e55d	0.15286271510721408
140	0x3f9b49a4b7e77712	0.026648114895457438
141	0xbfb807c7f9f0d15a	-0.09386873104160057
142	0x3fb9392893abd338	0.09852841954473213
143	0xbf8e73a35ec25482	-0.014868999795263575
144	0xbfac97dd4d6b17d5	-0.05584613390014651
145	0xbfb1ff20e4666f09	-0.07029920173812
146	0xbfb2c000c1f24561	-0.07324223265665843
147	0x3f64b70e5d3d1d38	0.0025286942053842874
148	0xbf85496338224fcb	-0.010393881941389701
149	0xbf79cb405f98e8b2	-0.006297351320933385
150	0x3fb158a87c7b1c8d	0.06775906600079136
151	0xbfb7d1bead9630db	-0.09304420221286895
152	0xbfabc0f6a0111866	-0.05420656875553291
153	0x3fa6876bf152de71	0.04400193520399121
154	0x3f98b11c409df2cd	0.02411312240973267
155	0xbfbc4ddd21a2e929	-0.1105631072158856
156	0xbf91bfd65bfae2cf	-0.017333363880171867
157	0x3fa166236513f1dc	0.0339823780904884
158	0xbf9bda292fdf229b	-0.027199405238010326
159	0x3fb9bb8d0c842efc	0.10051805072378878
160	0xbfa423cd8ba9fa05	-0.03933565454370939
161	0xbfb87ec6ba0c14b2	-0.09568445245902771
162	0x3fbd02749c70e607	0.11331871814117998
163	0x3fb7a70569ea0a87	0.09239229045673812
164	0x3fc187f83c3b2e0c	0.1369619649980084
165	0xbfaab19bf398c75e	-0.05213630055040029
166	0xbfbf4a130401f02d	-0.12222403381196108
167	0x3fba6d393a144e60	0.10322911899521037
168	0xbfa1a8d4becd49f5	-0.03449120358586192
169	0x3fb445dfafec29ea	0.07919118924124971
170	0x3fa931ce07540de3	0.04920810546357381
171	0xbfc0c94efc115db9	-0.13114344890594312
172	0x3fb633a871712b23	0.08672573823529865
173	0xbf9cb3a25915b87c	-0.028028999984080802
174	0x3fb2ef8d599441d4	0.0739677756976172
175	0x3fb9d7d7239509c7	0.10094971293168618
176	0x3fb9823dee89f2ba	0.0996435840006126
177	0xbfbb1eaf27ffe9c5	-0.10593695379785746
178	0x3f9b2ce646281c25	0.026538465530418293
179	0xbfaceb1f97e856e6	-0.05648134927120711
180	0x3f8dd7f5270a8ae0	0.014572062734548863
181	0x3fb8bf3eb6b3047c	0.0966681667369062
182	0xbfb59faa02135b4f	-0.0844675307338154
183	0xbfa5715955aadd9a	-0.0418804089617268
184	0x3fa4f45e87369c71	0.04092688942483214
185	0xbfb2e31c0eee564e	-0.07377791752363658
186	0x3fb5d040188d88b8	0.08520889853892555
187	0x3fa4de6a89743d2c	0.04075940063386904
188	0x3f9fc1d7ae4bf80e	0.031012887967328644
189	0x3fb4e4934bcf5ceb	0.08161278343992577
190	0xbf90bb226a4390f5	-0.016338861213527307
191	0xbfa758ac6184761a	-0.04559839907072334
192	0x3fc000248093dc50	0.12500435140802546
193	0x3fbc480872e79961	0.11047413640298977
194	0x3fb9a32f23611bc5	0.10014624227288411
195	0x3faee9bb5ab7a3b1	0.06037698252095625
196	0xbfa47ec418ae1152	-0.04002964783925002
197	0xbf936e8baf994db8	-0.018976385681822555
198	0x3fadad5a2c40f5e0	0.057963197614735895
199	0xbfb4dd5b06a5ef62	-0.081502617953388
200	0xbfb0eeb9f680ec6e	-0.06614267604975207
201	0x3f92671f46bde862	0.01797150487207267
202	0x3fa1584ecf948398	0.033876860465404224
203	0xbfac22fab679b73c	-0.054954371237597915
204	0x3fb9af026e09a7cd	0.10032668291537945
205	0xbf7b98ef0e45444c	-0.0067376459231392564
206	0xbf9dadc3e824428a	-0.028983174365807808
207	0xbfb360e2765c808b	-0.07569709195786538
208	0xbfb718064b56ae91	-0.09021033610650366
209	0x3fb0b7de82aa6dd4	0.0653056210525656
210	0x3fbb1f8272692a0d	0.10594954770309802
211	0xbfc3bf01a9436a94	-0.15426655545055168
212	0x3f85a09c5aa47a46	0.010560246959866803
213	0xbfb14223fafcfd7a	-0.06741547467844625
214	0x3fbdaa2c68136ddf	0.1158778909770528
215	0x3fb024e787957cac	0.06306311664728764
216	0x3fc1f6b1f1cf4a35	0.1403410368644288
217	0x3f735e8e983a9903	0.0047288484671865775
218	0x3f8cb5e42651ba70	0.014018804950152147
219	0x3fb5d837dfbf898a	0.0853304787883983
220	0x3fa00e92e417e230	0.03136118921606046
221	0x3fc2e394fa8a60da	0.14757024987625905
222	0x3fb8a41f22b2a956	0.09625429722897158
223	0x3fba5b0f3b5629de	0.10295195768973239
224	0x3fbafb7d91bab158	0.10539994056552382
225	0x3fa0adb089dd5a5a	0.032575146512205236
226	0x3fb3695e1246a483	0.07582652994337206
227	0xbfbfe0135e6ac80a	-0.12451287322144836
228	0x3fb0b288b33f1dac	0.06522421241890325
229	0x3fa2a0f2de3b2af5	0.03638419115812567
230	0xbfc173cd693d6b6b	-0.13634650839488968
231	0xbfbf9b8a19e5ec1a	-0.12346709377554568
232	0xbfb4ef5273c0e9b3	-0.08177676511778635
233	0xbfa3db48971107ac	-0.03878237575601359
234	0xbfbdfa6bda95d05f	-0.11710237585595128
235	0x3fab874eaf77bb52	0.05376668826999399
236	0x3f9c3a753aaaa8e8	0.027566749292113807
237	0x3fb23d326b796675	0.071246291388343
238	0xbf9963734773e1b4	-0.02479343532192653
239	0x3f71aba940a9ba1d	0.004314099448136347
240	0xbfc2a7baca1ae87b	-0.14574370258725708
241	0xbfc2d573e32b90ed	-0.14713905899328186
242	0xbf74aec1790f75a8	-0.0050494725737428095
243	0xbfae2a972f889e1b	-0.05891869025463966
244	0xbfa00722be9bc9e7	-0.03130444123043557
245	0xbf7e52b2c1010e10	-0.007403085954198044
246	0x3faa0d178c787039	0.05088113393523525
247	0xbfb401d3bc6047d3	-0.07815287922883778
248	0xbfb5d4645c2c82a1	-0.08527209520662861
249	0x3fbae01cff49bf29	0.1049821971189401
250	0x3f92cb38a58dd7c5	0.01835335264646411
251	0x3fb68e9329c69753	0.08811301965633093
252	0x3fb40c690c347bc6	0.0783143667981526
253	0xbf9a22ae383ef582	-0.025522920783023213
254	0x3fb845c4ee9dbbce	0.09481459451283955
255	0x3fa1a4202ddedae3	0.03445530471747362

lstm.weight_hh_l0 f8 [256, 64]
0	0xbfa51a7144902e26	-0.04121736490204979
1	0xbfb197215ea608b9	-0.0687123161388027
2	0x3fc58c26ecd6c100	0.16833960117720181
3	0xbf9a95811ab0b7dd	-0.025960938695952385
4	0x3fb2747d52dc888b	0.07208998940453364
5	0xbfb341212b132576	-0.07521254827147125
6	0x3fb17dce86d36be3	0.06832590858122915
7	0x3fb575d6fc6f1c6d	0.08382934248867153
8	0x3f8620168cde8745	0.010803390668857946
9	0x3fbb6da639899cd5	0.10714186577534986
10	0x3fb5b1abb4ab2f34	0.08474229012352624
11	0x3fb400fdf26aeb41	0.07814013641738617
12	0x3fbbc3dfd616cd8c	0.10845755554946929
13	0xbfa217be27e187cd	-0.03533739315822935
14	0x3fb1e313450d48d1	0.06987114368283477
15	0x3fa5463c1311cf89	0.04155147297652124
16	0xbfc33f5696f74a28	-0.15037042971978676
17	0xbf9bb07d1d412f0e	-0.02704043856674248
18	0xbf9f1722a45e66a1	-0.030361691744110634
19	0x3f99dcdea88a9613	0.025256613766620428
20	0x3fb1b8b3a43cc894	0.06922457465842263
21	0x3faa09d391549de1	0.050856219759505945
22	0xbfba688dc3a42423	-0.10315786386867436
23	0xbfc0e04f777044b7	-0.13184541065178276
24	0x3f91696a23dc2282	0.017003687323298163
25	0x3f9135c89433b706	0.016806730313809325
26	0xbfb2199ccd3fa84d	-0.0707033158393255
27	0x3fc051239621668f	0.12747616606320775
28	0xbf61b2050ebb7df2	-0.0021600817470781514
29	0xbfad8b904ed85d67	-0.057705411553054024
30	0xbfb5e92ab95ce299	-0.08558909440479069
31	0x3fb9d9bced773418	0.10097866818905776
32	0x3fab4bab4bd4ceda	0.053311684614895063
33	0x3fad7947ab589c69	0.057565917650486416
34	0x3fbcf7fac37b9ddd	0.11315886757403555
35	0xbfc26533c8ae6bcb	-0.14371344851391962
36	0xbfb046da637d932a	-0.06358113221137943
37	0xbfc23bfffe811339	-0.14245605399096364
38	0x3fa3226830f7df08	0.03737187955624505
39	0x3fb42a48c13bee45	0.07877020566586974
40	0x3f9ff2c37da3f97c	0.03119950727795516
41	0x3fc44df076d40938	0.15862851907884035
42	0x3fb78f01df32d717	0.0920258684080547
43	0xbf8c21a3d6d37a5f	-0.013736038201782095
44	0x3fb66827cebbb4f3	0.0875267867774772
45	0xbf9d1209b2e5e55a	-0.028389121574467914
46	0xbfb03f522aeba4a1	-0.06346620128501225
47	0x3fb3a8fb657de502	0.07679721095873407
48	0x3fa765e65cd1c0ce	0.045699309187399714
49	0xbfb70ae240f99415	-0.0900098236684957
50	0x3fb7599b40898a30	0.0912110359727556
51	0xbfa75c996a6fa7b1	-0.04562835144299927
52	0xbfbf06932f802a83	-0.12119407567676359
53	0xbf9085f4dab256df	-0.016136003349479174
54	0x3fb2e7c73b569612	0.07384915541350548
55	0x3f9ba8dc492ac620	0.027011339154972558
56	0x3fbb5e47f4b3235e	0.1069073650752563
57	0xbf6f669284484f9f	-0.0038330899863101143
58	0xbfa214bf20e0fb0e	-0.03531453396180072
59	0xbfb9c514e9614e9c	-0.10066347787624824
60	0xbf6f491478704c79	-0.003819026929258448
61	0x3fa78cbc4fb8beb5	0.04599560235180659
62	0xbfb5ebac8332321e	-0.08562734797505597
63	0x3fb6020efd4eb728	0.08596891102089599
64	0x3fb47b14a3abcf41	0.08000306125523783
65	0xbfb4b835cc1ca9fb	-0.08093582375719414
66	0x3fa7c18d328264f3	0.046398556152050484
67	0x3fbae665d584070a	0.10507809126650272
68	0xbfa7b89c5315fe50	-0.046330342428515636
69	0x3fa4cbfa6ad60540	0.040618730107790046
70	0xbfb3a18f921c2684	-0.07668397252214204
71	0x3fc0c58fcdec0623	0.13102910570891976
72	0xbf9028d0b7fa865b	-0.015780698041118018
73	0x3fc323c07e634359	0.14952856227184944
74	0x3fa05087c0990ea9	0.031864397297366516
75	0xbf663a1abc8fed36	-0.002713253230920333
76	0xbf7200bfbe993ac4	-0.004395245554020991
77	0x3fc2d42c3f8ed735	0.14710000136772697
78	0xbfa6df2daba5d1ba	-0.04467146606740209
79	0xbfb3b5645eafcdc1	-0.0769865733307631
80	0xbf90cc863d3f67b6	-0.016405198562871447
81	0xbfb5f816fe8cff53	-0.0858168002569049
82	0x3f9f2a0ca13b2cdb	0.03043384298397887
83	0xbfc2824201045c53	-0.1446001534429536
84	0x3f9adab2f047212d	0.02622489539661037
85	0xbfb7cd90e50662c1	-0.09298043815068537
86	0x3f94a1077a543656	0.020145527688376262
87	0xbfc640b698a174cb	-0.17384989216490107
88	0x3f574ec6a3d99413	0.0014225902408722165
89	0x3fb7296e24e21ba3	0.09047592545003495
90	0x3fb4096a1c17da37	0.07826865373486035
91	0x3fc3d9d292a97537	0.15508491669872068
92	0x3f795c67607c5895	0.006191638771062232
93	0x3fbe723065db5688	0.11892988669145599
94	0xbf854a8c3718ac36	-0.01039609473362733
95	0xbfbbdfab83bbab10	-0.10888168302669166
96	0xbfb34c4b299ffc04	-0.07538289800866954
97	0xbfbba385cc277713	-0.10796390756828726
98	0x3fac0fac4e743df2	0.054807076050675266
99	0xbfaa0a839edd89a6	-0.050861466543909814
100	0x3fb2f0c6f40c72ad	0.07398646791666393
101	0xbfb75e1611871ceb	-0.09127939155506552
102	0x3f85927ce6e2a9b4	0.010533309742034237
103	0xbfb80c71af47230a	-0.09393988160367087
104	0xbfb814e360595d1d	-0.09406872846863164
105	0xbf8012d4d037da0d	-0.007848417858423518
106	0x3fa0be9f674c18e4	0.032704335555580305
107	0x3f9c729972db5dcb	0.027780912051495393
108	0xbfc2c0cf1d952f2f	-0.14650906509847902
109	0xbfab4b5c1d039b0e	-0.053309324781187425
110	0x3f94f120aa3f3c0b	0.020451078787854054
111	0x3fb9e44601c36d9d	0.10113942664195581
112	0xbfbf111a5cd5b9a6	-0.1213547207496278
113	0xbfa8c37f7f3acc4d	-0.04836653164002112
114	0xbfabd09042945f59	-0.05432558834780705
115	0xbf958c1bcc96d1bf	-0.021042284357194904
116	0xbfac9c87ea2cb102	-0.05588173612190596
117	0xbf816308e88e6619	-0.00848967513757075
118	0x3fb5688e3e8643c5	0.08362664247967107
119	0xbfc04f397adcf1c0	-0.12741774081395185
120	0x3fb1a22740c0b360	0.06888051348569268
121	0xbf9b81c92ac06a7e	-0.026862281069137676
122	0xbfa67eb377d99eff	-0.043935402279030804
123	0xbfbbb69393d2339f	-0.10825464590943888
124	0xbfc209a16bc5ea9a	-0.14091890108450827
125	0x3fb098186066b3ba	0.06482078889412338
126	0xbfb83cfea5504457	-0.09468070541358152
127	0x3fb7b314397fc349	0.09257627872262932
128	0xbfa2aa482b7aea80	-0.036455397899278985
129	0x3fb9f364f96b4ad3	0.10137015427907707
130	0x3fa0d0a44997994f	0.032841810210629256
131	0x3f9ae870effb1a3c	0.026277317664403763
132	0x3fa8190f82447050	0.04706619706323123
133	0x3fb38112fb78b1f9	0.07618826522293166
134	0x3fb55d4422e8f523	0.08345437862677278
135	0x3fbb635ba932ceb3	0.10698483353444992
136	0x3fbea59127e2ba1c	0.11971385215540703
137	0x3fb17a67ac06d7ff	0.06827400159713191
138	0x3fa58d36804148ef	0.04209299388516451
139	0x3fa48bdfe9f97529	0.0401296589959464
140	0xbf9c8d8d19e6a106	-0.027883724885811943
141	0x3fb732929b0f605d	0.09061542783399675
142	0xbfbc65e7a7b692b3	-0.11092994541702232
143	0xbfc2f4f9bbfc35ee	-0.1481010597130274
144	0x3fb540ba608053e9	0.08301892143238344
145	0x3f7cd0f6268fb779	0.007035218740368048
146	0xbf8f9118025077ba	-0.015413463183047916
147	0xbfb96038926b73a5	-0.09912446570110818
148	0x3fa591f923ff1764	0.042129312175844175
149	0xbfaaebb5771095ea	-0.05257956579616148
150	0x3fa64af3695bcebd	0.04354057942501075
151	0xbfc3dfcc3d29a3cf	-0.15526726709802438
152	0x3fb8d930bb9ca0e7	0.0970640619312949
153	0x3fbc4befe528a7b4	0.1105337080449818
154	0x3fadc11acce604eb	0.05811389685823961
155	0xbfb50bb0a166d2a6	-0.08220962467641843
156	0xbfc36a8189a51fc1	-0.1516878053755573
157	0x3fb6b60ecb98ed1c	0.0887154814781081
158	0xbfb558fd9dffffb3	-0.0833891401998688
159	0x3fb0a16eb47748dc	0.06496326356799237
160	0x3fc522cd2bb80943	0.16512455591880312
161	0xbf9d1a95b6ce62de	-0.02842172554264521
162	0x3fbd80824d04670f	0.11524214153578448
163	0xbfa63a416b7769a3	-0.04341320454450972
164	0x3f689e8bf143fbe2	0.003005288434109841
165	0xbfc3c2e8a89079ee	-0.15438564520532289
166	0x3fc8670b392445f7	0.19064464845773418
167	0xbfadd7d95cae29a1	-0.058287422717586475
168	0xbfb3d0839d893e79	-0.07740042301269935
169	0x3fc5e84e038d58e0	0.17115187810367782
170	0x3fa71acb73fed76c	0.045126302632907705
171	0xbfabf72596fc1df3	-0.0546199557120949
172	0xbfa411645e21f6d5	-0.039195190897755396
173	0x3fbd1b6e56c79b7f	0.11369981402059003
174	0xbfc2e14657e2e03e	-0.1474998406536105
175	0xbfbb080a58a56c2a	-0.1055914369984953
176	0xbf6f19f0c02d5213	-0.0037965490495628445
177	0x3f75ec7f52264063	0.005352494570971175
178	0xbfb74b94b89aab50	-0.0909970236486235
179	0xbf9fde9e4233b66e	-0.031122658529901086
180	0xbfaf2726636dae1e	-0.0608455654499631
181	0x3f9a871df147d089	0.025906055308909024
182	0xbfc0ec2a3c796bcf	-0.13220718338820212
183	0x3fb0bad05f83564d	0.06535055477009984
184	0x3fa894eb660cec65	0.048011165816625824
185	0xbfbdbfba5ae60f22	-0.1162067863388612
186	0x3faea307c1669ac3	0.05983757243966672
187	0xbfc0e91bc3b3443e	-0.1321139054839779
188	0xbf5667e7f0fd7da6	-0.001367546563379432
189	0xbfb66453e1466456	-0.08746837854268227
190	0x3fc28e7dd1200f7a	0.14497349463647052
191	0xbf72569df0e10f1c	-0.004477135617040575
192	0xbfacb9d28524e356	-0.0561052119759952
193	0x3faa72592e5a0957	0.05165365877930366
194	0xbf86d21a1fcc6cc9	-0.011142925353445314
195	0xbfb17a48b63fd4cf	-0.06827215623328019
196	0xbf7d799768bec1d7	-0.007196036760362698
197	0xbfbc3a2c52f6a20d	-0.11026265168641931
198	0xbfafc2c0a8d8efae	-0.06203271924138619
199	0xbfb1d02ec74d7888	-0.06958286634241706
200	0x3f9233f7c3e38019	0.01777636654958323
201	0x3fc003a99909104d	0.12511177036697277
202	0xbfa092a2d8932988	-0.032368744790420456
203	0xbfbbd9b1294f490d	-0.10879046686685374
204	0x3fb845ce00803c83	0.09481513511876653
205	0xbf9cdb37a2bbaea5	-0.028179997737352597
206	0x3fa59753573259cb	0.0421701473180068
207	0xbfc443c4c5e4e29c	-0.1583181349067403
208	0xbf93a10bfcf0a499	-0.01916903239558518
209	0x3fc0e1b60d5ec55f	0.1318881573948074
210	0x3fbc80150d56b4df	0.11132937980319778
211	0x3fb09593b4ebd0be	0.0647823635770832
212	0x3fa95ea30cb53223	0.04955014734386889
213	0x3f859b53987a8fee	0.010550168123991423
214	0x3fadd2e20c37de35	0.058249534598811804
215	0xbfa8f554fcae8585	-0.048746734471261134
216	0xbfc0112f8243ab49	-0.12552446232379058
217	0x3f68ae699ca952f4	0.0030128538831298794
218	0xbfac36dfbd33d978	-0.0551061552486542
219	0xbfb31faa35d98183	-0.0747019177883939
220	0xbfb274b006cb4b97	-0.0720930115306103
221	0xbfb505b3989765b2	-0.08211824870468012
222	0xbf96e886353608a8	-0.02237138461851687
223	0x3fbb3d4413eb2226	0.10640359388629203
224	0xbfa3355a340670c7	-0.037516421175696694
225	0xbfae1e1f16ed6f8a	-0.058823558377041854
226	0xbfc00fe6e775e7aa	-0.12548528959069688
227	0xbfba529f9e144af8	-0.10282323464734222
228	0x3fb4141f8009b660	0.0784320533363938
229	0xbfafc674eb572fa6	-0.06206097958383276
230	0x3fb2c2d55aecab82	0.07328542203747015
231	0xbfb921f3aa6e3ffa	-0.09817431364922405
232	0x3fb4b2a201ae4432	0.08085072079690361
233	0x3fbdc41621410515	0.11627329170098151
234	0xbfc3ce921c86a5b9	-0.15474153893346257
235	0xbf9a67a88ace9365	-0.025786050293067037
236	0xbf97078b9f552bd1	-0.022489720916649084
237	0x3fb025f97e497622	0.06307944615533548
238	0xbf7e176110fa4f2b	-0.007346514859495372
239	0x3faae237af8f8942	0.05250715272974783
240	0x3f97cca82d15130b	0.023241641761404568
241	0xbfc23f656e1d200c	-0.14255969883583963
242	0xbf6a48cea2c8398b	-0.0032085452896872305
243	0xbfa30a455ad9794e	-0.03718773588183187
244	0x3fc247831bb7f888	0.1428073773713019
245	0x3fb30bd76bb0bd8a	0.07439943675193753
246	0xbfbfdfab47c6897d	-0.1245066690667382
247	0xbfc2f41a85c873dd	-0.14807445080160067
248	0xbfa963636ddd641c	-0.049586398278457205
249	0xbfb2c44e4d5c2624	-0.07330788983031106
250	0xbfb33fb064168e79	-0.07519056743199738
251	0xbfbb2e49f763abac	-0.10617506303576246
252	0xbfb82b7c7accf306	-0.09441354749737849
253	0x3f8e804f22f4700a	0.014893167738186736
254	0x3fb5cd4bdf928a34	0.08516382416068141
255	0xbfa59fc12f1340b9	-0.04223445605896487

lstm.bias_ih_l0 f8 [256]
0	0x3fb1ac644d5b592f	0.06903674019426796
1	0xbfa314702857a5ad	-0.037265305447202614
2	0x3fc22a1a39b69299	0.1419098645975694
3	0xbfb300f45c0b9a39	-0.07423331496429676
4	0xbfb39f39c22d6f8a	-0.0766483401361581
5	0x3fbdc2f02b7f1761	0.11625577032017766
6	0x3fb822b5c4043499	0.09427963290746035
7	0xbfb357858ccb604a	-0.07555422484745225
8	0x3fc3d23eb63f9554	0.1548536672482138
9	0xbf80d6eb104a1a2d	-0.00822242396794789
10	0xbfaef9ea797bd6c8	-0.060500457124289364
11	0xbf9d45a31953e69f	-0.028585956974871093
12	0x3f8e280a3abc472d	0.01472480766054537
13	0xbf85a673c457dd7e	-0.010571388654155408
14	0x3f960e1916245db8	0.021538154579585828
15	0xbf9748cbed104d5e	-0.022738634437769682
16	0xbfb4b31ef54f80b5	-0.0808581684973458
17	0x3faf2778744e68a2	0.060848011205238764
18	0x3f85e0e3943557ef	0.010682847938976862
19	0xbfb489f6c9edaf68	-0.08023016385931003
20	0xbfb67973f113969c	-0.08779072414071226
21	0xbfa2fe41977ec3ec	-0.03709607099825249
22	0xbf72393db33320c6	-0.00444912053644248
23	0xbfa7c0de7bcb20f6	-0.046393349277026916
24	0xbfc10382615ca706	-0.13291959527969527
25	0x3fb28140f80035d3	0.07228475622851897
26	0xbf882f596aa5e8c1	-0.011809061591283034
27	0x3fbf4a8f80ba1338	0.12223145382638456
28	0xbfb6c2597cb80103	-0.08890303892986044
29	0xbfbce702338a5be3	-0.1128999114829266
30	0x3f770774dd2d3ff8	0.0056223454474348886
31	0x3fc0c7ee48cd164f	0.1311014037584521
32	0x3fa6f873a6eb9b22	0.04486428654290921
33	0x3fb2b4e80c128819	0.07307291311966004
34	0xbfb82a05efd7d6f1	-0.0943912230066777
35	0x3fab654ea0fb21e7	0.05350728716945579
36	0xbfb418c6dddb7b0b	-0.07850306431235425
37	0xbf956644496fd6ed	-0.02089792917464355
38	0x3fa71dfaa6e88e65	0.045150597452700926
39	0xbfb0088ab8cffc88	-0.06263033878348001
40	0x3f74325f08e9040c	0.004930850248059403
41	0xbfa296ef2c2f7a82	-0.03630778707860306
42	0xbfb723c5161782eb	-0.0903895548758659
43	0xbfa778413785390d	-0.04583934595813064
44	0xbfac64fd5f61a400	-0.055457990544546476
45	0xbf77645092354f77	-0.005710901957474471
46	0x3f5bfcacb008c0be	0.0017081915285750838
47	0x3fb4f87775195f88	0.08191629990449034
48	0xbf7ee079fbba6512	-0.007538296220127154
49	0x3fb29a138844bd03	0.07266351773136041
50	0xbfb9eeef63356be4	-0.10130211040579656
51	0xbfa2306c3ebd67bb	-0.035525686892199336
52	0xbfb0109acf4bc7c8	-0.06275336800516051
53	0x3f943dd518d7a692	0.01976712192655456
54	0xbf81ca0726099e20	-0.008686118934931264
55	0x3fae0028c9fc9855	0.058594965607242123
56	0x3f95a862feccf028	0.0211501567857654
57	0x3fb92a1424d78793	0.0982983198114467
58	0x3fbc2fcec53ca312	0.11010448756554705
59	0x3fb98e0ff50a6391	0.099823949169503
60	0x3f8be39b75279bfd	0.013617720139292184
61	0x3fb9985aae1d48d1	0.09998099089469582
62	0xbfaf3a54984011e6	-0.06099190100215761
63	0x3fa4a5edbe12fc83	0.040328435375607284
64	0xbfb64b75731d7a68	-0.08708890972546046
65	0x3faaccde6a9c1dff	0.05234427501096305
66	0x3f96ffd50d75e219	0.02246029753357179
67	0xbfa99f64357a8d3a	-0.05004418518844962
68	0x3faa882369dffe97	0.05181990306300326
69	0xbfbdd930b7dc5ba4	-0.11659531105793391
70	0x3fc1f0e6a0ef3866	0.14016421182754185
71	0x3fba4e5c77a53cc5	0.10275819703132345
72	0x3fbc4ecda62df32b	0.11057744319073197
73	0x3fa3304bc9f9604e	0.037477844624561926
74	0xbf998622c52122af	-0.024925750047517677
75	0xbfb3bc4428c3cb46	-0.07709146495089411
76	0x3fbd6143c5641f5e	0.11476539200896016
77	0xbf9118364193e21f	-0.016693923714202193
78	0xbfb8725342aeba97	-0.09549446466437882
79	0x3faf21716f4db8c1	0.06080202563940552
80	0xbfb3db91141e9af2	-0.07756907216262812
81	0xbfb4c5dbf54f05e4	-0.08114409197789701
82	0x3fac6e266afb9f20	0.055527878341136594
83	0xbfaeca5b3f796076	-0.060137607096010834
84	0x3f9dc3c1789e4884	0.029067061411816045
85	0xbf9e8b0edc93c449	-0.029827339375462256
86	0x3fabdd0b2e055623	0.054420804374484065
87	0x3fc12bc54b1a8def	0.13414827506231528
88	0xbfa448a377dc45b2	-0.03961668813839071
89	0xbfb361e010c036c3	-0.07571220787960002
90	0x3fb52243537d1c04	0.08255406177805474
91	0xbfa246eae42c0e95	-0.035697307923354384
92	0x3f9c6186016ef243	0.027715772473799537
93	0xbfb721e0c8099deb	-0.09036068805436741
94	0x3fa1b2f099574918	0.034568327635172647
95	0xbfb33f85961abfc6	-0.07518801607761735
96	0x3fb160c0edfef374	0.067882593254536
97	0x3fad6359149e751a	0.05739858986565079
98	0xbfc01a72ccbbcfdd	-0.12580714222678938
99	0x3fa792589697dba5	0.04603840673728791
100	0xbfbf407c67344882	-0.12207772750505977
101	0x3fb8de62e262fe5e	0.09714334513682263
102	0x3fb7b92359b070a6	0.0926687330215282
103	0x3fbb431b0966d0fa	0.10649270038158312
104	0x3f81bb6210f10697	0.008658186094297178
105	0x3fa6c5ddd5269c7b	0.044478351849925844
106	0xbfb7c540f8e6ff56	-0.09285360409466867
107	0xbf64cd9c1e98dabf	-0.0025394486626980346
108	0x3fb764832851f538	0.09137744650248159
109	0x3fb371680e85a565	0.07594919542829855
110	0x3f62bd5fde7128f5	0.0022875664176683582
111	0x3fb9e643b917ae7a	0.10116980809078227
112	0x3fc2843c05699d9c	0.14466047539029325
113	0xbf9b1c5069dcf736	-0.02647519727837918
114	0xbfb752ab1464bf8d	-0.09110516784562446
115	0x3fbf4835028a6b38	0.12219554245022557
116	0xbfa93e011dddf887	-0.04930118074024486
117	0xbf827728ee4422ce	-0.009016341944986375
118	0xbfa1abd884ef692d	-0.03451420424217342
119	0xbfb2e761e34d84c4	-0.07384311484703959
120	0xbfa99fa8cf4da6b5	-0.05004622965391318
121	0xbfa956d6c4cba93e	-0.04949065353669589
122	0xbfa3d27d95ce92ac	-0.03871529058168241
123	0x3f7b473680767fdb	0.006659710786522023
124	0xbfbb8c869bfe5115	-0.10761300381119938
125	0x3fbe3dc78e653308	0.11813018061111447
126	0xbfb195c46b3bca15	-0.06869151704794547
127	0x3fb44d9318d0c460	0.07930869441840249
128	0x3f85df2d43d78982	0.010679582245704426
129	0x3fc3374cbdc9015a	0.15012511507849063
130	0xbf88e4d6438ab72c	-0.01215522187825576
131	0x3fadef646587c4f8	0.0584670423448958
132	0xbfc1701824b33a63	-0.13623334686276953
133	0xbf9067a31bc92d14	-0.016020344324982963
134	0x3fb4f220ccb967a2	0.08181958196783382
135	0x3fc05106602aa2ea	0.12747268386490102
136	0x3fb871c05aa92813	0.09548570836446428
137	0x3faca54a7470aca2	0.05594856902492863
138	0xbfb650d26146349c	-0.0871707427488268
139	0x3f58fce0132981c3	0.0015251339179017532
140	0x3fb8fff28c64f73d	0.0976554482230911
141	0x3fad1854b488a3b1	0.05682625488072491
142	0xbfad5d594b9c3ba2	-0.05735281990029441
143	0xbfb17285373e40d7	-0.06815369223318456
144	0xbfa595b52c918e70	-0.04215780419397397
145	0xbf92361afd66e7d8	-0.017784520832471035
146	0xbf95f87f06feff3e	-0.0214557502765722
147	0xbfbc9e20c37749e4	-0.1117878415309757
148	0xbfbf45b1e694bbc6	-0.1221572101537581
149	0xbfb25b82a8e41821	-0.07170883773150695
150	0xbf6133cf10675d74	-0.0020998996944673835
151	0xbf8edde3065d738f	-0.015071653014894241
152	0x3f61f63271f4ecad	0.002192591214819814
153	0x3fc02a5365dacdd9	0.12629168008207506
154	0x3fb8aedaeb88c543	0.09641807794902939
155	0xbf94431e610ebf89	-0.019787287401129148
156	0x3f9f1b52c83ed99b	0.030377667877212394
157	0x3fb2965cd4214f9e	0.07260685137708697
158	0xbfb8cd18829147da	-0.09687951266940278
159	0xbf931967b0224dd9	-0.01865160000359176
160	0x3fa7c91257a33cf8	0.04645592994494935
161	0xbf95cb99d77359b1	-0.021284488463459265
162	0xbf9986dcc157682b	-0.024928521443008982
163	0xbfb943007e6ae02a	-0.09867861830105143
164	0x3facdd214350db9f	0.05637458750464152
165	0xbfc1b98e1cf69756	-0.13847519315930396
166	0x3fb9fdfebb3bedba	0.10153190680642057
167	0x3fbe4d80b324673e	0.11837009786213756
168	0x3f6dfe6ea069c0b0	0.0036613617588088995
169	0x3fb5da83d504debb	0.08536552382144695
170	0xbfb1282ccb4ea03a	-0.0670192715030006
171	0xbf9a53f7978f0bba	-0.025710934281743404
172	0xbfc33e62ac244ad4	-0.1503413525138827
173	0xbf7e30323f305c27	-0.0073701823012220285
174	0xbfc0285a0deb31ad	-0.12623143844247178
175	0xbfb3f4df6e7fe71e	-0.07795521209473263
176	0xbfc403110e95d554	-0.1563435860841006
177	0xbf914ae633125b04	-0.016887280337495106
178	0xbfb7eb7d590d9d1a	-0.09343703674459328
179	0x3faa43ebcf378d8e	0.05129944710258903
180	0x3fb91da7cbbd6157	0.09810875629535097
181	0xbf8daca39b5bb919	-0.014489439181002471
182	0x3f819f18de2d8420	0.008604234962776458
183	0xbfbf4ad7d70a69fe	-0.1222357654573116
184	0x3fb126cc3edf4612	0.06699825797047534
185	0x3f9b32da16813330	0.026561172126366717
186	0xbf9dd8918ce1bd81	-0.029146455978148026
187	0xbf94ca250c723f59	-0.020302370915089216
188	0xbfb091876b075c1b	-0.06472059596067974
189	0x3fa69c2520b6543e	0.044160042041007305
190	0x3fc24787f53da0f6	0.1428079555000818
191	0x3fb93425c7e32c87	0.09845195894301827
192	0x3f91fe3959279e01	0.01757135016114653
193	0xbfa4e63c114fb5d0	-0.04081905089683924
194	0xbfa38829e2091a43	-0.038148220865470005
195	0xbf91354d5f7c37e7	-0.016804894402461825
196	0xbfa9ab241bf195a2	-0.05013382760152331
197	0x3fba3fcb4926f4c9	0.10253592048589434
198	0x3fbaa0644bfaf2d3	0.10400988440501217
199	0xbfa23967ecc1a356	-0.035594222689559515
200	0x3fa500f25f25728e	0.04102284823850254
201	0xbf4afcbee13b8013	-0.0008235866575567761
202	0x3fa405cbbd9c7a20	0.0391067189177543
203	0x3fbdcc9cead038a9	0.11640339596508177
204	0xbfb7be55595275cd	-0.09274800711360527
205	0x3fadf9002d23cf54	0.05854034949325518
206	0xbf92d57f202ba184	-0.018392549837615416
207	0x3fb80f9799c6da51	0.09398791794124263
208	0x3fb2dc873229509f	0.07367749189990257
209	0x3fba2f1c79b020a0	0.10228136034868607
210	0xbf7c21692f1df9cc	-0.006867800593566686
211	0xbfa6eab4965264ea	-0.0447594102381091
212	0xbfb9421c9c63f1c8	-0.09866503542065808
213	0xbf966f4c2089e215	-0.02190894077873125
214	0xbfb484b1ade27461	-0.08014975066403586
215	0xbf92bb98543eca22	-0.018293743268893554
216	0x3fb185f9965d1a8b	0.06845054551113543
217	0x3fbda636b4900bc3	0.11581746967571775
218	0x3fbffb99c6c23116	0.12493287184242194
219	0x3f9e8558e3c609a5	0.029805554296680765
220	0xbfa91c7728805c12	-0.04904529923822322
221	0xbfb01bc405d811e0	-0.06292367117573106
222	0xbf9e3b09395f22bf	-0.02952207958859065
223	0xbfb0451abe2d183c	-0.06355445044491231
224	0xbfa82d41484f7753	-0.047220268322901625
225	0x3fa0068aaddf78e5	0.03129990932915109
226	0x3f9f3e93c5bf9802	0.030512150711636828
227	0xbfb083b4d0ff01f6	-0.06450967886394907
228	0x3f8cc23f49ee5b1a	0.01404237217302078
229	0xbfb5db9f7da50372	-0.08538243119711611
230	0xbf9a0bda103036f2	-0.025435836065347446
231	0x3fa2b9963eea808d	0.03657216566102859
232	0x3fb2c4b6eab2c036	0.07331412534654266
233	0xbfa3edbac5f92e2a	-0.038923107783002855
234	0x3fa50deebb2b81b8	0.041121921871084266
235	0x3fa358f8cea41503	0.037788176750874335
236	0x3fa88dfedeef33f7	0.047958340371771095
237	0x3fbc682ec2b37800	0.11096470120853041
238	0xbf73df1b4702eac6	-0.0048514428637484504
239	0x3fb6c419bfa68d02	0.0889297573944994
240	0x3fb42f3d95f1183f	0.07884583388030907
241	0xbf9ed55e832bbf96	-0.030110813861881157
242	0x3fa21210f4f0abda	0.03529408445350386
243	0x3fbe4c2ba5a78418	0.11834976953788645
244	0xbfa7055dfb05f23a	-0.0449628228115881
245	0xbf93afb7072cdaa9	-0.019224986851635126
246	0x3fa8483edb17f41c	0.04742618965608633
247	0xbf9af93f021b108a	-0.026341423514864938
248	0x3fc3004ab4f01628	0.14844640574317336
249	0xbf923ba66f8a14ba	-0.01780567222387639
250	0x3fba79c6d51138f4	0.10342066480481887
251	0x3f469b9376d8d4cd	0.0006899328270210337
252	0x3fbef52c85d75f2a	0.12092855708703767
253	0x3fb7b366de17db9b	0.09258120462605605
254	0x3f9ce919b8418709	0.028232957717029303
255	0x3fa726fd6b4c26bf	0.04521934447082065

lstm.bias_hh_l0 f8 [256]
0	0x3fb3d4f48d5b5930	0.07746818972677683
1	0xbfb89115142bd2d1	-0.0959637808080729
2	0xbfb2998f0c92dac8	-0.0726556211182966
3	0xbfb4c8455c0b9a39	-0.08118089196396107
4	0x3fb4a74e7dd29079	0.0806778962310676
5	0x3fb78176eb7f1761	0.09181922196793614
6	0x3fbe98f4c4043499	0.1195214251094562
7	0xbfa33fce1996c0d6	-0.03759616911281831
8	0xbfaaa5722701aa8e	-0.05204350210336371
9	0xbfad68774412867b	-0.05743763643228036
10	0x3fc0dfeca1a10a56	0.13183362857860698
11	0x3fa7b0adf3560cdf	0.04626983256732741
12	0xbfb766f6b8a87722	-0.09141485222104653
13	0x3faabeec8eea08a0	0.0522378849464229
14	0x3f90038216245d92	0.015638382531589175
15	0x3fc235fae25df64c	0.14227233937337969
16	0x3fb09bedcab07f4c	0.0648792857978126
17	0x3fae65bc744e68a2	0.05936993522409863
18	0x3fa1e69c650d55f4	0.034962546668491884
19	0x3f86f203b0928477	0.01120379335981368
20	0x3fa0235c1dd8d2fc	0.03151977409689796
21	0xbfb9270c4bbf61ee	-0.09825207566553448
22	0x3fa18f9949999bd7	0.03429869674146573
23	0x3f56a6e0869be1c2	0.001382560027591948
24	0x3fb72d82fd46b24c	0.09053820308208421
25	0xbfa6fc8c0fff9442	-0.04489553160946304
26	0xbfb2b23d6d54bd0b	-0.07303222579206563
27	0xbfa6f0a2fe8bd985	-0.044804662296814825
28	0x3fb33aef8347fefd	0.07511803584202066
29	0x3f946c6831d69093	0.01994478992641342
30	0xbfa938fa645a581a	-0.04926283335696287
31	0xbfa70bb5dccba685	-0.045011218264176235
32	0xbfb5ace1ec8a323f	-0.08466922783754514
33	0xbfb2502a73ed77ea	-0.07153573351158085
34	0xbfc1637d77ebeb7c	-0.13584869723839776
35	0x3fb0c828107d90e3	0.06555414583778289
36	0x3fb1c033a22484f4	0.06933901508866197
37	0xbfb30555925bf58b	-0.07430014441702874
38	0x3fb08bfe5374473b	0.06463613069015832
39	0xbfa36bb4f19ff92c	-0.03793111276171354
40	0x3f9d27fdc23a4122	0.02847286699267316
41	0xbfb92fb5d617bd40	-0.09838425137399032
42	0x3fa4a6b553d0f9ff	0.040334383470042916
43	0x3fa0bdf6487ac6f1	0.03269929537544936
44	0xbfb18cb7efb0d209	-0.06855344392608499
45	0x3fbf17cab6dcaafa	0.12145678486255554
46	0xbfb67a868d3fdcfe	-0.08780709217522895
47	0x3fb5c1d775195f88	0.08498903855195128
48	0xbfa1d0713f774cc5	-0.03479341411334639
49	0x3fc10ac9a4225e70	0.13314171327941748
50	0x3f9db4e5732a506c	0.02901037707722802
51	0xbf7c6491f5eb3d76	-0.006931848677324983
52	0x3fc3ac91985a1c17	0.15370387972890917
53	0x3fb06d390635e9b4	0.06416660691858206
54	0xbfb5cc6ae4c133ef	-0.08515041432219993
55	0x3fa6989449fc9855	0.0441328373256488
56	0x3f8ff705fd99e063	0.015607878495970512
57	0x3fc05453d26bc3bd	0.12757346891842572
58	0x3fc3b814029e5172	0.15405511978009262
59	0x3fc1f2321a8531c2	0.14020372672020015
60	0xbf93bf6e456c31fd	-0.019284937846395057
61	0xbf9a2db3478adce2	-0.0255649578491245
62	0x3fb5539a33dff6f4	0.08330692068554041
63	0x3fae7a38be12fc82	0.059526227190411354
64	0xbfb53a30f31d7a68	-0.08291917739323085
65	0x3fb87b66b54e0ee7	0.09563295294179462
66	0xbf8b2febe5143bc6	-0.01327499668925992
67	0x3fb6ea45a542b944	0.08951220783885555
68	0xbfa60f909620016b	-0.043087499929245286
69	0xbf906ededf716e91	-0.016047937763103596
70	0x3fc1a2e6c0ef3867	0.13778385563495307
71	0x3fbcb13337a53cc5	0.11207885845691397
72	0x3fa155904c5be65c	0.033855923958935746
73	0xbf8069ced81a7e73	-0.00801431271548767
74	0x3fb4bea4ceb7b761	0.08103399321381978
75	0xbfa905c5518796d4	-0.04887215252146651
76	0x3fa092820ac83eb1	0.03236776715868695
77	0x3fbf37ae6f9b077c	0.12194338059182813
78	0x3fa4807c7aa28ae7	0.04004277226456115
79	0xbfb455a2085923aa	-0.079431654966483
80	0xbfa40b9c283d35d1	-0.03915107718658429
81	0xbf91cdc3d53c178c	-0.017386493577781034
82	0x3f8124b1abee7c13	0.008370769557414481
83	0x3f9315ef810d3eeb	0.018638365031903453
84	0xbf84b24f0ec36f16	-0.010105722082179674
85	0x3fb4966708db0ee9	0.08041995969966433
86	0x3fb4f2cb9702ab1f	0.08182976185586853
87	0x3fb99e4396351bef	0.10007116715597396
88	0xbfc175d39df71172	-0.13640828335895666
89	0x3fb08eb32f3fc93d	0.06467742827934315
90	0x3fbdd047937d1c04	0.11645934439467004
91	0x3fb707c50de9f8c2	0.08996230687805265
92	0x3fa0673180b77930	0.03203730293511098
93	0xbfa19c6610133be6	-0.034396352255150295
94	0x3fb139d18caba47e	0.06728849109971866
95	0xbfaeb4caac357f83	-0.059973081132510785
96	0xbfabeadb24021932	-0.05452618422082124
97	0xbfacd0bfeb618ad5	-0.05628013370803379
98	0x3fac6ae6cd10c11d	0.05550309422722164
99	0x3fb1462c0b4bedd9	0.0674769904689393
100	0x3fb42e2658cbb77e	0.07882918994775243
101	0x3fbebbf6e262fe5e	0.12005560900706189
102	0x3f8fb484cd838526	0.015481030961782393
103	0x3fabdb4c12cda1c9	0.0544074795678316
104	0xbf9a322cf7877cbf	-0.025582029922472268
105	0x3fb6d897ea934e26	0.08924245335520506
106	0x3faca2718e32013d	0.055926846130207576
107	0x3fb256479f0b392b	0.07162902481943394
108	0x3fb964dde851f538	0.09919535562399495
109	0x3fb309cc0e85a56b	0.07436824183027617
110	0xbfb2e361010c769c	-0.07378202701189668
111	0xbfbb5267c6e85186	-0.10672615629329671
112	0x3f93180e2b4cec56	0.01864645137105144
113	0xbf829eacd3b9ee4b	-0.00909171124589316
114	0x3f524d6ae6d01cd1	0.0011170906029763126
115	0xbfa40df0faeb2941	-0.03916886389704866
116	0x3fb3cb0ef11103b5	0.07731717477237406
117	0x3fb478f1e2377bc3	0.07997047207707823
118	0x3f7f84bfd884b70d	0.007694959065970297
119	0xbfbde559a34d84be	-0.11678085553059511
120	0xbfaff611cf4da6af	-0.062424236827451345
121	0x3fa65058bb3456be	0.043581745960336246
122	0x3fbb5f94b518b69b	0.10692719861318738
123	0xbfb0df8497f89814	-0.06591061315757002
124	0x3fbabfdce401aeeb	0.10449009481970577
125	0xbfb8ca9bf19accf8	-0.09684157036354069
126	0x3fb1459694c435ed	0.06746808177941661
127	0x3fb9ff9718d0c45e	0.10155624729010657
128	0x3fc38541743d7889	0.15250414062296994
129	0xbfa978a608dbfb90	-0.04974860056062547
130	0x3fbdedbe778ea929	0.11690893572691564
131	0x3fc09fb31961f152	0.12987364520439343
132	0xbfbddb84096674fc	-0.11663079480645772
133	0x3f7ef04790db4b69	0.007553367189489937
134	0x3fb10eb24cb967a5	0.06663050053739868
135	0xbf9fcf96feaae95f	-0.031065329831770124
136	0xbf8accbd2ab6bf82	-0.013085821023963499
137	0x3fc40b1ffd1c2b1b	0.15658950671089475
138	0xbf749652146349c6	-0.005026169417947595
139	0xbfc086457fd9ace1	-0.12909764044466157
140	0x3fc0cf8ce6327b7a	0.13133393516633501
141	0x3fbcb7ae1a4451fd	0.11217773572236207
142	0xbfc03d93b2e70f00	-0.12687917933919124
143	0xbfb68427373e40d4	-0.08795399759970063
144	0xbfc43832cb2463af	-0.15796503943491078
145	0x3fb867f280a64605	0.09533610955102041
146	0x3fbff5817e404018	0.124839871714585
147	0xbf8bcdaa1bba4f07	-0.013575867625412309
148	0x3fb2dff9d96b443a	0.07373010213929457
149	0x3f7c0a8171be8048	0.006845956460807719
150	0xbfc0dfeb1c419d41	-0.13183344726278715
151	0xbfa73d5441975cfa	-0.045389779097314745
152	0x3f985dc64e3e9d96	0.02379522183005419
153	0x3f8eeafa5dacdebf	0.015096622451536644
154	0x3fb07bb22b88c542	0.06438745081756728
155	0x3fc210c2b3de280d	0.1411364916096435
156	0xbfc1f97cc6f824b0	-0.14042625155733424
157	0x3f94348c50853de8	0.019731705107288194
158	0xbf86f276148a3f6e	-0.011204645635444623
159	0x3fc1a10669fbb64c	0.1377265946861591
160	0x3fb4cb2c2bd19e91	0.08122516698642303
161	0xbfb02e8835dcd668	-0.06321002306943913
162	0x3f6057d9f544bf23	0.001995015811324567
163	0xbfabdb457cd5c008	-0.05440728329529071
164	0xbfbb57c45e579246	-0.10680796912453969
165	0xbfb90e4b39ed2e93	-0.09787435688229555
166	0xbfa1d8318988246c	-0.034852550543356425
167	0x3f95294ecc919ccc	0.020665389285935018
168	0xbfc140c4857e58eb	-0.13478905218352763
169	0x3fb9aba15504debb	0.10027511907253032
170	0xbfb46fa24b4ea037	-0.07982839907219917
171	0xbfc0f4ce52f1e18a	-0.13247088480035202
172	0xbfc0d4464c244ad2	-0.13147810666904164
173	0x3f9969f97033e8eb	0.024818322633088846
174	0x3fb42f0164299c98	0.07884224601149226
175	0xbf9a4b7eb9ff9c3a	-0.025678615667768613
176	0x3fa1184b45a8aada	0.03338847375228733
177	0xbfa565b919892d84	-0.04179171025006226
178	0xbfb4ad61990d9d1a	-0.08077058779382576
179	0x3fb289d6e79bc6c3	0.07241576342110094
180	0x3f9a8c462ef5857f	0.02592572843184859
181	0xbfb41fbf736b771a	-0.07860943382135269
182	0xbfbb0265a43a4f9e	-0.10550532588450642
183	0xbfa18efbae14d41a	-0.034293999672094524
184	0x3fb1b6e67edf4613	0.06919708821740071
185	0xbfc2d0af7d2fd98f	-0.14699357617037065
186	0xbfb8ff2fa3386f5f	-0.09764383063196423
187	0xbfb30fc7c31c8fce	-0.07445953858820006
188	0xbfb0f9b32b075c1c	-0.06631011772638867
189	0x3fbdc08dd05b2a2a	0.11621939026660102
190	0xbfb67c641584bded	-0.08783555531839911
191	0x3fbe0f0147e32c87	0.11741645817817147
192	0x3f92a0b559279e03	0.018191178862165824
193	0x3fbe35a9f7582509	0.11800634659461563
194	0x3fc008fe677db96c	0.12527446797634967
195	0x3fc1ab38b4107919	0.13803776542858584
196	0x3fafc07f640e6a5f	0.062015515293030836
197	0x3f81297a4937a4ef	0.008379893645683782
198	0x3fc1666365fd7963	0.13593714218127237
199	0x3fc1cfc3e4cf972b	0.13915299103171583
200	0x3f96873cbe4ae4ea	0.022000264277015548
201	0xbfb19afdbdc27715	-0.06877122767260986
202	0xbfb02e812131c2e2	-0.06320960102471987
203	0x3fbf6058aad038a9	0.12256387872932585
204	0xbf92295a6549d6de	-0.017735874588160942
205	0x3fbed1e71691e793	0.12039036084197922
206	0x3faed20a6fea2f2b	0.06019623390338177
207	0x3fc0f241ace36d0d	0.13239308301749766
208	0x3fb224683229509c	0.07086802696841449
209	0xbf9774b2193f7de6	-0.02290609625913289
210	0x3fb387e22d0e2069	0.07629216766338377
211	0xbfa574fc965264ea	-0.041908162450633515
212	0x3f91c2748e7038e4	0.017343350595233967
213	0xbfb031af48227872	-0.06325812827205526
214	0xbfb19d4aede27461	-0.06880634601334769
215	0x3fa2bdee55e09b0a	0.03660530851657569
216	0xbfb7c30aa9a2e575	-0.09281984941016737
217	0x3fa8370a69201770	0.04729492696064497
218	0x3fc24797c3611846	0.14280983963016264
219	0x3fb1449678f1826a	0.0674528165122951
220	0x3fa77cd5d77fa3f3	0.04587429290388192
221	0xbfaa4b448bb02375	-0.051355497409594365
222	0x3f8164078d41ba5c	0.008491572378457928
223	0xbfbaba15be2d183c	-0.10440193074200094
224	0xbfb45951a427bbae	-0.07948789842315193
225	0x3fb91def16efbc78	0.09811300573322679
226	0x3fa0db8b62dfcbeb	0.03292499143562807
227	0x3fa636515e01fc42	0.043383162236744
228	0xbfbcff2cd6c23495	-0.11326866381769414
229	0x3fb617a4825afc8e	0.08629825766091612
230	0x3fa920aef7e7e4a0	0.04907748008913271
231	0xbfc13de6d0455fd9	-0.13470158738596075
232	0x3fc0d5d85559600c	0.1315260330909499
233	0x3fbb7c401d0368d9	0.10736466129620527
234	0x3fa8c3323b2b81c5	0.048364228938001776
235	0x3fb5709e27520a8d	0.08374966106388566
236	0x3fb5805aaf779a17	0.08398978027216973
237	0x3fb6115a42b377f9	0.08620227936214055
238	0xbfbb58f8f4702e93	-0.10682636230211022
239	0xbf9fbc5f0165cc3b	-0.03099201627760471
240	0x3fb0a26c95f11834	0.06497839604080086
241	0x3f62cc7be6a2028c	0.002294771188701644
242	0x3fbb507b3a78561c	0.10669679810992999
243	0x3fb49a45e5a78418	0.0804790197066868
244	0x3f90cd5309f41b7e	0.016408250315204757
245	0x3fb35c043e34c93e	0.07562281149583769
246	0x3fbcadc7ed8bfa09	0.11202668714029342
247	0xbfa5469e810d883d	-0.041554406407854995
248	0x3fc2509e94f01628	0.14308531067233443
249	0xbfb6739f5be28547	-0.08770175927431466
250	0x3f97a8785444e432	0.023103599685075867
251	0x3f8042b1376d8d5a	0.007939705375696594
252	0x3f8edcac2ebaf911	0.015069337059113981
253	0xbfba835461e82465	-0.10356643095305314
254	0x3fa3fa725c20c373	0.03902013182267341
255	0xbf6296214b3d93a1	-0.002268853213467329
