models/baseline_mse_model.pth (torch, 565853 bytes, 18 tensors)

lstm.weight_ih_l0 f8 [256, 13]
00000000: 2460 18c7 52b7 b2bf 3242 770f f791 9bbf
00000010: 913c 13a2 81d7 c33f e8ba 8733 a19b a03f
00000020: fdd4 5696 8723 94bf d0d4 2677 3826 c0bf
00000030: 4ff1 e840 a5cd b2bf c3c2 a192 117a b7bf
00000040: f792 bccf cbac b9bf 0bb7 dfbf 1f5b a1bf
00000050: e044 33dc df15 be3f d431 8bcc 44a5 90bf
00000060: b621 2ca1 e42b a13f d0a2 62e7 5d3f c23f
00000070: ccf9 57a2 4cdc b53f cb75 1398 f321 b03f
00000080: 5d22 73f6 a82b af3f fdd4 595d fcda 8b3f
00000090: f70d f125 ec26 b4bf dd0d 0b19 79b4 bdbf
000000a0: c482 13eb 5168 893f 0516 73e1 1cec bebf
000000b0: 5155 5ca1 eba9 b53f 0718 c3b4 c7f9 aabf
000000c0: e785 7d76 0b94 b7bf dcea a4bc 536a 973f
000000d0: 244d b0b7 1da8 b5bf 4cb6 38cf aea9 b03f
000000e0: fc83 fd15 a14a 913f 1bca 0d30 6a95 a53f
000000f0: 29c3 5535 a742 45bf 52b4 1286 5420 b03f
00000100: 277a 8327 be6e 5c3f b2da e5fd 74a9 c43f
00000110: 466c 1c06 05eb b73f 1faf 5d86 5620 953f
00000120: ccfd 5e1f 426f 8cbf aba7 aafc f8bc a1bf
00000130: 435b 1995 bd38 c4bf d9b3 d82b 873f a93f
00000140: eba0 3435 b8f4 aa3f 622c d41d 778a a4bf
00000150: 9448 e257 00f1 a6bf f3eb a9f1 12c0 9d3f
00000160: 403f ce88 8be7 aabf 8ae7 2c18 2541 a03f
00000170: e3c3 53f0 e8a7 bf3f e7d6 d3f9 a3af c33f
00000180: 83c4 504d a78d c1bf 4d76 de23 db99 a0bf
00000190: 9661 3369 454e c0bf 5e28 7432 0024 8d3f
000001a0: 81e1 25a8 1b76 abbf 6661 3401 731a b2bf
000001b0: 4723 5f16 b4c6 9c3f b9ca eac6 d212 a23f
000001c0: b47d b345 c2d6 99bf d926 843e a038 b53f
000001d0: 195c e91e 7587 88bf 621d bda1 39b0 a8bf
000001e0: cc31 cbfc ffa1 abbf 3668 2a92 7991 c23f
000001f0: 3204 81e9 bdd7 bf3f 54aa 3e74 6c1a 793f
00000200: b208 c7fb 0de2 7d3f 7c91 0066 7a0b 7dbf
00000210: a622 9526 c9eb bcbf 3570 a12d cd40 8ebf
00000220: 902f 637f 36a3 a6bf c239 8a28 9ab4 b83f
00000230: a4db 7eb1 c496 9c3f 2df2 e3e4 d099 92bf
00000240: bed0 1151 d564 a33f 677b 0f9f 3bfe bf3f
00000250: 8457 422f 2355 99bf cda6 1882 c2a3 b83f
00000260: 741a 12a4 8106 b3bf 09ee 394d 0542 bb3f
00000270: 714e 88ae 022e 9b3f 4c56 8d43 8886 bc3f
00000280: d338 b4f0 f0ec 74bf c80a 9f4f 7b0e b7bf
00000290: 84fe 35d5 5547 c0bf f47a 4a82 a1ea ad3f
000002a0: f2bd b388 e291 b63f d372 e2ec 19d0 b6bf
000002b0: b496 a979 32e1 b73f 5ca7 f3ca fec2 bebf
000002c0: 4a94 5921 41db b63f 13cc 5fbe 2216 aebf
000002d0: 2d72 78de d3ea 9f3f 481e 0dfb efa2 9f3f
000002e0: 2d75 96dc 1413 b5bf 8ec6 5dd4 08f2 b1bf
000002f0: ba02 cdb4 0d4a b5bf 3e09 da96 6eb9 abbf
00000300: 1f30 077f cb6f aebf dc49 982b 8c5c b73f
00000310: 8798 cfc6 7787 b03f ec22 cb27 d31b b53f
00000320: de49 8dc6 0bb0 a83f a866 6a40 ab10 b43f
00000330: cb33 adb7 4a13 553f feaf 08c2 6e23 aabf
00000340: fd17 e737 b962 7abf 2a92 78be 5a00 a5bf
00000350: 4e6e b6a8 ad4a a93f c8f1 f795 0621 c03f
00000360: 4786 fa0c b148 b73f 08bf 5d27 3abd bdbf
00000370: 48c3 75b0 9658 b1bf eddd a1e2 6760 a03f
00000380: dd21 f54e 3d1d a9bf bfce eeff e7f8 a2bf
00000390: 3923 db20 a609 c0bf 1b6b 0785 04fb b53f
000003a0: df45 f5c1 7354 903f 29cc 7a7a ee87 b73f
000003b0: b6f6 d5fe ebe0 95bf bfdb a5b7 e190 ab3f
000003c0: 1f43 ebd8 adb3 b2bf 1102 3309 f67c c03f
000003d0: 7f11 5e57 5c9b b6bf 95ce 89ce 5320 9bbf
000003e0: 4088 6ff5 b8b5 adbf 752e f1d3 acca aabf
000003f0: 4457 b134 2f53 73bf 9ee2 6cac 6da3 563f
00000400: 1295 1de4 a92a aebf 91d5 6092 7c95 a73f
00000410: f613 1624 5cdd ab3f e123 3a0a c099 bfbf
00000420: 7f4b e6e2 478d babf 077d 584a c819 cb3f
00000430: 1f58 4578 cc49 b0bf 598b 0634 9653 9ebf
00000440: 1882 818f 4789 c1bf 9313 05d0 0cfb 4ebf
00000450: d3c5 6158 6005 b7bf 6011 9ab3 6da9 aa3f
00000460: 4c06 4c2f ebb0 a2bf 9af6 cfa9 830a a1bf
00000470: 9a24 4b43 0222 bb3f 10d7 ee52 ea42 a3bf
00000480: bc0e 4461 a2f9 be3f 91e2 3a70 4289 c13f
00000490: 96ce cc0c 2998 af3f 77e7 8606 9ac2 b73f
000004a0: 3bcf 254d 3c89 a93f 0a1c c50b b8bf 91bf
000004b0: 53fa 8728 dab4 b73f 7ab6 b756 3bc4 b73f
000004c0: a184 82a6 2411 a13f c331 dcbb b9ca 963f
000004d0: abda e667 45ad a93f 7a92 36ff 088e bc3f
000004e0: 678f bb9a 002c d13f 136f 8868 33bc ae3f
000004f0: b699 ab53 4b89 c33f 4991 c2dc 9076 b5bf
00000500: c464 e476 86fa a9bf 8108 c030 6ea5 b63f
00000510: db89 7779 acb6 b1bf 4ae9 ed1b 0861 b83f
00000520: d695 9dbc b7cd 64bf 1208 cce0 14ad 9a3f
00000530: e288 c885 8652 c73f 4631 59d9 761c b33f
00000540: 812b 879b 6c0c c3bf ad13 e20a 9ed4 a2bf
00000550: 6c86 c5a8 d6a4 993f 0ed7 61e8 a8b1 c4bf
00000560: f93e e087 2b5d c23f 153a a32c 43f4 b2bf
00000570: df0c 7f98 833b aebf e009 26c4 9653 b33f
00000580: 00f9 146d ce34 bebf b69b 33a8 10ac 973f
00000590: ed24 662a b79b 843f 31b6 5fc7 6c13 ba3f
000005a0: b2c0 79b1 8871 b7bf 1fdc b2ec 60c7 bd3f
000005b0: 5441 1871 efc3 c33f de31 2963 dd95 a63f
000005c0: 89ec 1cf5 e046 b93f e7de e140 67c6 b3bf
000005d0: 5cb1 949b 7dce 713f 34fc 4d99 1de7 a83f
000005e0: 861b 2203 d7af b73f 6e66 c52a e9e7 adbf
000005f0: f180 4889 e7bb bb3f a7d8 6667 d277 b03f
00000600: 66db aea2 786d a3bf 90dd b364 75b9 a6bf
00000610: f7bd 2da1 6b95 98bf 333c 2b84 86d2 b8bf
00000620: 8fcf 46c0 d17f b13f c497 1ab8 6537 be3f
00000630: 9bdb 9cf5 f46a 94bf c497 11cb 9fc4 a8bf
00000640: 2210 ce1d 61aa aebf 25bb f75b f73a a9bf
00000650: 9658 3f99 2c42 b53f 88c6 be03 23a1 babf
00000660: 5731 20f9 2e32 a6bf 00a2 1487 4b65 ad3f
00000670: cf96 466a 211d a23f 1224 66dd c147 bcbf
00000680: 8d6e 4caf 8a7d a8bf aa03 e60f e8be 9a3f
00000690: 8ae2 8671 991b b9bf 41e4 6bc7 1cf2 c23f
000006a0: 86b1 0d39 243f b3bf 05f9 bae5 809a b83f
000006b0: 0abb 2971 750c b3bf 244b 7e9d cbb5 9ebf
000006c0: 44e0 f9eb 7e26 b13f b658 587a 39a2 813f
000006d0: 74cc f11e 028d b3bf a912 814b 8524 bb3f
000006e0: e923 1404 90cf b1bf ca7e bf06 ea0f 9cbf
000006f0: 2f8a 8d3c cf7c bb3f d27e e5c0 cbd4 a63f
00000700: afa5 9532 b7ae c53f 7581 bb6c 5b04 a73f
00000710: 34a0 62a0 37b3 983f 4819 b0da f8dc c23f
00000720: 035d 342d 8a63 a23f 2827 26d8 5576 bdbf
00000730: 5455 0e4a 8e8c 7c3f 56b1 b734 14ea ac3f
00000740: b51b f6e2 a9cb c33f 49b9 2195 0bd2 963f
00000750: ef9e 2b34 7da4 a23f c9e0 7926 91e0 a63f
00000760: 99a2 5495 b16f 84bf e6d9 1790 2a9f 66bf
00000770: 39f7 e372 9959 b5bf 6f33 52dd 0988 b63f
00000780: 6543 9cbe d822 c1bf 931e e66b 282d b53f
00000790: a5f7 600d 6842 923f d14e 8778 2897 97bf
000007a0: 58b9 5181 c6ff c13f e526 e04e fd0d a43f
000007b0: 17ff 3ef5 de9c b1bf 97df 93dd ac69 bd3f
000007c0: 5167 2a40 3438 9cbf 8bbb e891 a637 bc3f
000007d0: 64ee ba23 9c95 bc3f 3575 574c 1853 90bf
000007e0: db0c 46bc 57bf b03f 0f97 f15a ca72 bebf
000007f0: 8106 0438 60b5 bebf 56be 430f 9fa0 b5bf
-0.0731097923347766 -0.02692400009056168 0.15501423276734674 0.03243736032515249 -0.01966678481195049 -0.12616639917329175 -0.0734504016372217 -0.09170636968498073
-0.10029290982908977 -0.033898346111398046 0.11752127767546794 -0.01625545023380133 0.033538002657283725 0.1425588016329784 0.0853927513453307 0.06301805937569964
0.06087997444553104 0.013601276015132497 -0.07871890951451364 -0.11603505002408761 0.01240600584645913 -0.12079029564036865 0.08462403001279496 -0.052686920943912745
-0.09210273402052103 0.02286654318707347 -0.0845964978655514 0.065089154807276 0.016886250464612104 0.04215556942553552 -0.0006488148161861485 0.06299331925647891
0.001735387513739925 0.16142141721112108 0.09342986487574576 0.020631172133490524 -0.0138840833495796 -0.03464487156209314 -0.1579815843603801 0.04931280527339483
0.0526483120868891 -0.04011890639420625 -0.044807444313066075 0.029053016662583486 -0.05254779858580472 0.0317470161448475 0.12365585200656386 0.15379762362106605
-0.13713542246981456 -0.032423828247584476 -0.12738864552262602 0.014228822269178373 -0.05363546779239226 -0.07071608333024457 0.028101743569809014 0.035299860746268626
-0.025233302597255494 0.08289529348635528 -0.011977114683004374 -0.048219490998742356 -0.05397033654080338 0.1450645412158466 0.12438570929317974 0.006128715180163075
0.007295660613126186 -0.007091024512224538 -0.11297280494648962 -0.01477203650954815 -0.04421396546385303 0.09650577058548662 0.02791888554903789 -0.018164886446344553
0.03787867178553615 0.12497303613006992 -0.024738836059064365 0.09624877620867807 -0.07431802993424147 0.10647614608199531 0.026542703535666626 0.11142779969426292
-0.005108777211047594 -0.09006472295645118 -0.1271769801205559 0.05843071666207847 0.08816352689222365 -0.08911287339510503 0.09327998609804916 -0.12016289191128976
0.089283056871481 -0.058762632121123336 0.031169233754655124 0.030894994447662222 -0.08232241044466511 -0.07009940323566807 -0.08316121734697904 -0.05414910880519351
-0.059446677452428036 0.09125591339424183 0.0645670757654405 0.0824558231498817 0.04821812437753058 0.07837934801718893 0.0012863378203349259 -0.051051579652579435
-0.006441806325204522 -0.04101832938275536 0.0493978756378196 0.12600786516840246 0.09095293585644369 -0.11616862736786626 -0.06775800521951425 0.03198551789767721
-0.049051204574940256 -0.03705525397472575 -0.12529446224496057 0.08586147544648919 0.015947159493696957 0.09191790094591624 -0.021365821293776142 0.053839734714464786
-0.07305418535112239 0.12881350945646422 -0.0883081162738275 -0.026490506630990913 -0.05802705760994842 -0.052327538368072725 -0.004718002698686 0.0013817378073338947
-0.05891924771894187 0.04606236731380443 0.0544232172060574 -0.12343979119954397 -0.10371827401676902 0.21172431593092986 -0.06362607895184212 -0.029615733075512327
-0.1370019388878212 -0.0009454548417485602 -0.08992578656923138 0.05207388703732607 -0.03650603248935322 -0.03328334281830543 0.10598768370540981 -0.03761989843716951
0.12099661707548653 0.13700132827741077 0.06170776635408719 0.09281313571309889 0.04987514917129806 -0.01733291217649583 0.0926033352807079 0.09283800952081292
0.03333391697493338 0.02225771149737611 0.05015007870990947 0.11154228430548044 0.2683106909810164 0.06002960825955319 0.15262738786186753 -0.08384042157792239
-0.05073948098488182 0.08846176805676188 -0.06919362988950388 0.09523058587902714 -0.002539500103852825 0.026050878735084444 0.1822059777487715 0.07465308004720325
-0.1488166579641437 -0.03677839167452333 0.02504287152385702 -0.16167174670015821 0.14346832403725054 -0.07403964843545226 -0.05904780613448123 0.07549421585830585
-0.11799326098568841 0.02311731363888799 0.01006262872830851 0.1018589007141706 -0.09157614071750933 0.11632352618003992 0.15441697141842303 0.044112127642254015
0.09873777374461858 -0.07724614461937628 0.004347315459466063 0.04863827225107578 0.09252685381407674 -0.05840996405704578 0.1083359441913705 0.06432833694893479
-0.03794457422139068 -0.04438368658332614 -0.024007493698659812 -0.09696236349849201 0.06835661834958116 0.11803279633258429 -0.019939258090029815 -0.04837512353769527
-0.05989364136533505 -0.04927800176289158 0.08304098836319648 -0.10402125207363089 -0.04335161963544703 0.05741344474728649 0.03537849829016936 -0.110469929268348
-0.04783280744433425 0.026118875475279836 -0.09807738324787799 0.1480136846292073 -0.07518221276195022 0.09610753639842436 -0.07440885556000523 -0.02999036930811906
0.06699364911207889 0.008610199972320803 -0.07637036567193595 0.10602601140369451 -0.0695734033544252 -0.027404457723490684 0.1073731921037868 0.044592253968173914
0.16939439744900883 0.044955117247584754 0.024121159710063192 0.147368532925791 0.03591567804158482 -0.11508690383029985 0.006969981973175738 0.056473380503890766
0.15465282041642828 0.022285634019163756 0.036411202066856656 0.04468206019095217 -0.009978663797100483 -0.002761443262666352 -0.08339842848724012 0.08801328328463652
-0.13387593562267877 0.08272030481577479 0.017831445519042827 -0.023037559849241888 0.1406181460801672 0.03916923129879794 -0.06879991042569276 0.11489372644052619
-0.027558151642188836 0.1102241617415826 0.11165786621398294 -0.015941981944583367 0.06541965815090427 -0.11893906326585245 -0.11995507590838807 -0.0844821369425913

lstm.weight_hh_l0 f8 [256, 64]
00000000: 984b ff9e 0c6f a63f 077f 5841 db63 60bf
00000010: 9fb4 229e fcb8 ae3f 5600 aff6 108b a4bf
00000020: ecbd c475 a5f3 b53f 7b0e 27ec 4d69 9e3f
00000030: c1e3 a2b6 cb56 ba3f 03ae 0d6e b9ef c1bf
00000040: a797 fe83 19c4 b5bf fafd 4a86 a73e aa3f
00000050: d1a3 e580 815f c03f 742a af21 e097 b93f
00000060: 3591 79b9 b1bb b9bf 710b 4ce8 36cf b33f
00000070: 07d0 bfbc c017 ad3f 9198 4aeb 369a aabf
00000080: 053d cd5e 9459 b2bf 2473 dd7a 7099 b33f
00000090: 986f 1fc7 b82b 973f 57c3 7568 4f4d a73f
000000a0: d1b0 5e99 c258 b6bf f991 ac9c 5bd1 abbf
000000b0: 57ca aca6 484e a2bf ad01 abcc 19ac b73f
000000c0: 69ed c48f e254 a53f b871 43cf b3d1 b83f
000000d0: afb0 62f3 d07e b83f aad2 cf9e 1daa 993f
000000e0: a8cd a832 7d84 a2bf 45b0 d023 aca3 babf
000000f0: a732 8783 4ee6 a1bf f18a 6fb1 5608 b33f
00000100: f5c0 1727 1f15 a7bf 3e69 abe2 f420 bb3f
00000110: 6a7b f21a f0bb b9bf 3ac2 649e b98a 673f
00000120: 48bc f4f2 4e0d c23f 2ed9 6057 3c39 a33f
00000130: 17e6 3a76 5a90 c2bf a5cf 5827 245e 943f
00000140: 024c 0f1d 535c babf 8585 fcc0 1dd5 a4bf
00000150: 658d fc98 389e b13f 45f6 cac3 a442 babf
00000160: d740 82ad 4dc2 b53f dd8d e4c1 8e4d b3bf
00000170: d34b 8125 2b4f b93f f54b 48d0 0de5 633f
00000180: 49c8 b210 532a b13f c269 6a0e 1344 87bf
00000190: 0d9d 146a dfba be3f b69c 10be 36b2 afbf
000001a0: 8848 7be3 57a9 b5bf 715d d5a3 ed03 b3bf
000001b0: 9412 3367 fe74 b6bf 0d90 49ff 5070 bb3f
000001c0: a9f8 7cbb d4c9 b83f 9860 0632 cb87 6cbf
000001d0: f6a4 f9b1 1221 963f 8c6a 910c 1bdf 9fbf
000001e0: c360 dc28 fa56 b2bf 7c52 5598 5ed8 6dbf
000001f0: 499c d8c5 3de7 aa3f 6382 79c7 f5f0 7bbf
00000200: 6c24 5988 bfaa b3bf 5674 829f fdae b1bf
00000210: 45a1 079a 1214 923f 295e 1903 b8ea bc3f
00000220: 8745 fa94 bf48 9b3f 546e 5d7a 53fd adbf
00000230: b94c c920 4e6c a0bf 7be3 29d2 c9b3 95bf
00000240: 1b48 7021 2d90 babf bc57 79b3 cd37 b8bf
00000250: 7d8c 0995 dc0f abbf 4be9 25b1 7af4 a0bf
00000260: 27cc fa58 837a 6dbf 37f2 ed13 1ad0 afbf
00000270: 157b 8ed7 13ec 793f 03a1 5524 6d70 99bf
00000280: f284 1400 9d6d b5bf 5cb2 0fb3 daa6 b83f
00000290: 948b 207d c2c0 b83f 7d84 bdfd c754 a7bf
000002a0: 24be b015 cb72 953f 44c9 7c29 5c85 b83f
000002b0: 71a8 8c05 4c7d 963f b2a2 15ce 3751 9d3f
000002c0: 8f0a 555c 4877 be3f e447 518c c5b2 b83f
000002d0: c87e fa71 eac4 b83f b873 cf1e 8c7b b63f
000002e0: c67a 954b c5b6 a5bf 57c0 dd3f e920 a0bf
000002f0: 59e6 a8b2 5ca9 96bf a255 a63d f5d2 a7bf
00000300: aa0f 0659 2215 3bbf 246d 5b39 5134 b73f
00000310: fdf9 82d8 3e16 a93f 17a6 bd9b 8349 af3f
00000320: c0e0 2ab1 ba4c 70bf fb7a 6f6b 3f69 813f
00000330: db2c 690d 21e3 b9bf 82ec 41d3 04ea 9b3f
00000340: 04ee b6c9 e053 97bf 95c0 37fb 2c47 a1bf
00000350: 6d80 2c64 ca82 8ebf 2071 7ca0 93f6 b33f
00000360: 69b0 5cff f699 b63f 5713 6d64 cc55 59bf
00000370: 92c3 35ae 7ca5 be3f ce9f c3cd 009e 9abf
00000380: 377d ec39 1f88 bc3f e16f d3d1 96c7 a1bf
00000390: 76fa a4cb d1ba b43f 422a 66a0 c52b b5bf
000003a0: f53e dec2 c0f1 b63f 88c3 154e a1b0 7c3f
000003b0: 4c65 bfaf 5a51 b03f 44c7 736d d7e1 c33f
000003c0: ce15 8e40 1bc7 c0bf 4b41 c8f3 875c bd3f
000003d0: 0878 81de c236 b2bf de89 6a4f d472 c3bf
000003e0: 6275 1b0b a3b3 b6bf 2318 dbbd f03d a23f
000003f0: 585f e278 1a49 babf 5c23 9c15 4385 bb3f
00000400: 2d8d 6564 df82 8d3f fb0a 6272 5643 91bf
00000410: 43cc c3ad 145f c0bf af94 b7af 321d bcbf
00000420: 6b60 0934 5fa8 a7bf f8c3 038b fb5d a83f
00000430: e0ad 429a 52f3 b53f 5038 31c7 a62b b63f
00000440: 0ea7 db77 5dc3 bc3f 13e3 958c b1df b03f
00000450: a946 ba74 cac0 96bf 28a2 9b3f dc16 ab3f
00000460: ab74 32d8 6195 a0bf e7c8 6628 84ec 713f
00000470: 978a 45ac 87ea be3f d1ec 2770 5f91 b83f
00000480: cecd a8fc 1901 b53f 0877 b6a9 9e00 bcbf
00000490: 3a41 6521 b23c ac3f 01c5 bf70 b672 7a3f
000004a0: aadf af8c 4652 a5bf 6a31 18c5 c8ff b53f
000004b0: d18b d698 eef7 b6bf 198e 3c90 13d8 b33f
000004c0: 510d b511 43af b23f 00b0 95e1 48d3 a2bf
000004d0: cab9 a7ee 884c 95bf a9d8 358e 9cf0 bbbf
000004e0: 8141 2ba7 bd8e b63f 52cd d2f2 ca7c b9bf
000004f0: 53a8 6fa6 68c3 b53f 0f56 5a51 67a2 aabf
00000500: 411f adef a11b b83f 2176 7c99 f41e b43f
00000510: 233c 4f35 12d8 acbf 6f63 0853 eb5a b2bf
00000520: d163 a000 8fa4 a3bf 2b25 e471 cced a13f
00000530: 704a 8767 a9d0 aabf 90e2 086e c359 a13f
00000540: 6b3d 5d70 2278 c1bf a291 6c82 1d50 be3f
00000550: 029a bc7a 364b b13f 8fac a7df 41ed ba3f
00000560: 3ee5 f93e 9e4d bc3f 9bf6 07e3 c95f b83f
00000570: ee35 74c2 3a69 aebf 73b9 352d 2efd b7bf
00000580: ca57 3b73 1299 b23f 8c1b 2c6e ab29 ad3f
00000590: 33b2 0adf 4816 633f c1f7 4180 a119 b9bf
000005a0: 4c5e 9989 4d89 ad3f 76f3 943b 07c1 a1bf
000005b0: 154a e1bc 1837 913f d965 82e9 2f21 b8bf
000005c0: 8a4f 69fc 9185 a3bf e8a6 8ca1 9fe6 a13f
000005d0: 70c4 9887 1b9a a33f 1491 865c cbd5 bbbf
000005e0: a472 0234 bf8e 79bf 3b72 b63b b562 b9bf
000005f0: 1a83 f7e8 87c7 a2bf 3bdf ade2 6ff6 bbbf
00000600: d6a4 b023 03e0 be3f 7da6 6c14 bca6 b73f
00000610: 343d eb4d aec3 9a3f 7cc3 05f3 a1c3 c13f
00000620: 66e0 08a6 97df a1bf 5f40 026c 4e8e a63f
00000630: 8738 9ccc 9165 b43f 1bf3 d43d 30ab a0bf
00000640: cb05 56e6 396e a03f fa01 a70f 92a7 b03f
00000650: 038b f00a 6f4a babf 9a7f 3650 82f3 7d3f
00000660: becb 59c8 5bf5 9dbf 6d3c becb 0375 85bf
00000670: 19ff 9fac a7e7 a63f f080 055b ded4 a8bf
00000680: 40dc 899a f169 a03f bf81 d778 bec0 94bf
00000690: 58af c54b 2eca 713f dc38 f64c 456d bd3f
000006a0: 0753 3f46 2bc3 af3f ee7f f8f6 0098 bfbf
000006b0: 932e b6b7 c633 b63f b151 781b b8ca bbbf
000006c0: ac45 fbf5 e512 ac3f df81 60ec 0ab5 7d3f
000006d0: c6c9 08b0 0471 b03f 8837 fd28 3e4d c0bf
000006e0: e6b4 c556 5949 b2bf 52df 3b64 4698 61bf
000006f0: 4dbd 7da2 d88a b0bf 25b5 a7cb 70c8 b43f
00000700: 4f12 5823 126b af3f b135 7271 3181 923f
00000710: 7529 86e0 d110 a43f f76b 9b1a 0d4c 58bf
00000720: 07a0 94a7 39d2 c03f 04a8 8f4e 9f70 a93f
00000730: f5e7 a167 7cc8 bf3f 6698 2f23 0ffb c23f
00000740: c27c 870f 6af8 9d3f 6cf6 ef8a 05a2 9e3f
00000750: e185 5b71 df16 94bf 4e0c aef4 5174 a3bf
00000760: e57b 30ab ae47 853f 59ce 3439 d48b 9cbf
00000770: fdc2 35e2 5d02 b3bf d7cf fc26 4b52 b9bf
00000780: 5a08 1318 969c bd3f 1d55 af91 4c25 bf3f
00000790: 4996 cc92 e07a b93f 0bb4 aadd b33e ab3f
000007a0: e010 e6e4 1064 443f 7cd9 e849 f274 a53f
000007b0: 0bc0 3aa8 12bc a2bf 4158 24c4 9e33 943f
000007c0: 9b4a 293f 81c3 b2bf b83e 566b 907f 8a3f
000007d0: e004 9d6e fc53 b5bf 45fc c610 fd7a 58bf
000007e0: 380b b002 aee2 9cbf f49f f7c0 cd0e b63f
000007f0: e8c2 1630 26a4 be3f 52c3 4198 8557 b33f
0.04381598893055311 -0.002000740273402249 0.060005087188394805 -0.040123491394752506 0.08574899792869645 0.02969857934819096 0.10288689812558884 -0.1401283061380668
-0.08502349350473414 0.05125926508253183 0.12791460794258439 0.09997368643159082 -0.10052023676104656 0.07738059207262694 0.056821845093423966 -0.05195781347474438
-0.07167937578673296 0.07656004905352326 0.022627722886553764 0.04551170492312078 -0.08729187244779558 -0.05433164870763458 -0.03575350794416881 0.09246979948785024
0.041663246202427846 0.09694980440276069 0.09568506185559288 0.025063002412894754 -0.03616706126595243 -0.10405994295496253 -0.03496022563522177 0.07434598762442214
-0.04508302070814977 0.10597162755894815 -0.1005239549435665 0.0028737664571496764 0.14103113997541272 0.037546048799799045 -0.14503031514122774 0.019890370275063813
-0.10297126254526748 -0.040688447769080795 0.06882051215193526 -0.10257940082643653 0.08499608503393873 -0.07540218576155362 0.09886426606799086 0.0024285573765694354
0.06705207021403327 -0.011360310437613989 0.12003895130020599 -0.061906538678436915 -0.0846152239203396 -0.07427869081344853 -0.08772268313902948 0.10718256218530105
0.09682969643924601 -0.003482720247301851 0.021610538590185656 -0.031124518053142355 -0.0716396665342272 -0.003643212085686463 0.052545481110705845 -0.006821594309798759
-0.07682416037381906 -0.06907639641072313 0.017654696131928622 0.1129565246168275 0.02664470049655201 -0.05857334965432118 -0.03207630300735204 -0.021193650677079994
-0.10376245561954571 -0.09460149413766222 -0.05285538977911928 -0.033115228771708326 -0.0035984578497276934 -0.06213456624297858 0.006328656680948415 -0.024842934935265692
-0.08370381595570445 0.09629599448789733 0.0966912799345166 -0.04556870434203917 0.020945714186551126 0.09578491223218061 0.021962344969474083 0.028630134538078784
0.1190076089306251 0.09647783923836034 0.09675469668081427 0.08782268287855188 -0.04241005466132246 -0.03150109200112244 -0.02213044014408747 -0.04653135659752229
-0.00041324699943622956 0.09064204836197526 0.048997844628946276 0.061107743035631205 -0.0039794247301687125 0.00850152536980663 -0.10112196519291976 0.027259898561606828
-0.02278090697448755 -0.033746152559502786 -0.014897900754988503 0.07798121135823921 0.08828681692529163 -0.0015463348406267918 0.11971263173269467 -0.02599335914501904
0.11145205654292033 -0.034725869287029594 0.08097563955105067 -0.08269915739052983 0.08962635762713574 0.007004385087712069 0.06374136725152829 0.15532963604305838
-0.13107624675846669 0.114693161980772 -0.07114808971661557 -0.15194181325666894 -0.08867854138539635 0.03562881772590767 -0.10267796946788843 0.10750216748796276
0.01440977597366685 -0.016858435374625263 -0.12790163502322302 -0.10982052602737967 -0.046206450559737565 0.04759203025776765 0.08574405923962258 0.0866035686787836
0.11235603500577104 0.0659132927156743 -0.022219813704004086 0.052908785595551955 -0.03238969577908198 0.004375950089910519 0.12076614337778789 0.09596821296865989
0.08204805773203036 -0.10938445704820421 0.05515057237301098 0.006457054765619975 -0.04164333789225279 0.0859342080295328 -0.08972064238928047 0.07751581450843793
0.07298678571992424 -0.03676822427482307 -0.02079976994166958 -0.10914019081050931 0.08811555224679603 -0.09956043651873372 0.0850129515016829 -0.05202029102398963
0.09417163945647379 0.0785973429414857 -0.0563359918665969 -0.07169981743971986 -0.038364857508163326 0.035017384436353126 -0.05237321270728479 0.033887965375872686
-0.13647871481451132 0.11840996202642498 0.06755390640737605 0.1051827593834551 0.11055935895446553 0.09521161835433604 -0.05939658759789866 -0.0937069759727132
0.07264819443966455 0.05695853919865276 0.0023299620882737625 -0.09804734593669108 0.05768816284824804 -0.03467581369702703 0.016811739471743154 -0.09425639582550306
-0.03812843519395333 0.03496264311827507 0.038285122206055955 -0.10873099335600883 -0.006239649665215428 -0.09916241367177119 -0.03667854994615123 -0.10922908100280619
0.12060565587366354 0.09238791941302256 0.026137088304321668 0.13878273359616944 -0.034908999460129306 0.04405446117846234 0.07967482800833824 -0.03255606417449127
0.03209095894545618 0.065056923695927 -0.1026982690532741 0.007312306438876615 -0.029256280997696164 -0.01047709432148577 0.04473613722075082 -0.04849905835249213
0.032058286776127876 -0.02026651012954672 0.0043432053028985215 0.11494858864736862 0.06203589661132552 -0.12341314343984752 0.08672754273555432 -0.10856199904112064
0.05483168246940848 0.007252733868910315 0.06422452256882769 -0.12735726357862753 -0.071431716618196 -0.002147805675004757 -0.06461862532682013 0.08118348094986468
0.06136376077123328 0.018070957707598093 0.039190825135920905 -0.0014829757660013135 0.13141556437153687 0.04968736490248207 0.12415292291726117 0.14828671663343868
0.029267937848882715 0.0299149385500556 -0.019618502897065574 -0.037996827238224826 0.010390629386220549 -0.027877155295938347 -0.07425486347871053 -0.09891195012897867
0.11567056739571183 0.12166288906822272 0.0995312078853995 0.05321275788205789 0.0006222803583999757 0.04190785553184903 -0.03659113219816853 0.01972816536098088
-0.07329566757224841 0.012938621783887924 -0.08331277561684969 -0.0014941665022971823 -0.028208464540522032 0.086163386927751 0.11969221757932369 0.07555422751626154

lstm.bias_ih_l0 f8 [256]
00000000: 2ce8 f2f0 4cee aa3f e918 9851 c8c6 ab3f
00000010: 75d8 aad2 ff41 babf c30f b61c 45e5 a13f
00000020: 7f12 7be4 b327 bdbf 672a 7a38 3c20 a7bf
00000030: 8b92 fcba e766 93bf ef4e a1d6 89ff a5bf
00000040: e20c d2fe a414 a8bf 4b24 8ccb f3ca b3bf
00000050: 6da7 7e9b e19d bfbf e79c 3dda 8aad aa3f
00000060: d537 d451 5710 b3bf 253e 4125 8159 bcbf
00000070: b0cc e3da abb7 aabf 2f2b bf48 df20 a13f
00000080: 22cc 8ed6 cacc 9d3f d773 001b 637e bcbf
00000090: 5560 66ba fd51 b53f 6569 04ca 61c6 b1bf
000000a0: 02f7 2402 782f a1bf f798 da73 f806 933f
000000b0: 27b8 8ab3 5a12 b73f eb16 0fda 10e5 b3bf
000000c0: 1fe7 aebb 35d9 c4bf 0bdc 708c 1440 b33f
000000d0: d8a3 0ed0 c3e3 b03f aef6 830f 6c86 b3bf
000000e0: 684e 5409 2a94 acbf 65a2 6d57 420a c3bf
000000f0: 8cb7 11c4 a025 ac3f c407 c34e 8484 c5bf
00000100: 5db2 93a8 5981 c3bf 10ec 5117 e5f6 aabf
00000110: f3e2 a872 45ad 953f de70 82c1 f4e9 abbf
00000120: d1ae e482 2dee 923f 8c0d f70c 4b31 85bf
00000130: 2576 bd9e 6d41 c6bf e213 f4ac f356 abbf
00000140: aa5d 8ca0 2d9b 9dbf 5f0f d5fc cd9f bdbf
00000150: 0211 876a 9fe0 b3bf 8c01 7560 837e b33f
00000160: 676a 0a76 f323 b7bf c364 530a b268 abbf
00000170: bc53 db32 40ef 8a3f a037 64c0 e107 c4bf
00000180: 7312 9282 2605 99bf 534c 57a1 1661 a83f
00000190: 64fa f714 4e88 b13f b569 744d c342 923f
000001a0: 4db5 1ac4 bb1f 90bf 280b 8fd9 1c45 633f
000001b0: b576 66a6 2895 813f 479d 68cf f512 c5bf
000001c0: 2316 bdd9 82c8 ac3f 1286 8d45 41b6 953f
000001d0: 63f1 5ac9 53f0 b5bf e2e1 1aba 9cd2 c3bf
000001e0: 9bc9 2da9 200c a03f 164d d643 6cf0 b13f
000001f0: aec7 7f76 fb10 b13f 244f 737f f7ec b2bf
00000200: 3958 816d 4c31 c0bf fd86 0f1c ede5 b4bf
00000210: f38e c36e 0499 b9bf 4a94 4263 4e63 b6bf
00000220: cfec 8f95 02e7 c2bf 60ca 9127 3ee3 9a3f
00000230: 4368 5af3 9363 bdbf c7f6 ed15 eeac b9bf
00000240: 0860 32f0 e6e8 babf 9a18 7f11 ec3f b6bf
00000250: 8f4e 2c79 5a8c bc3f ec97 9b02 f70b a3bf
00000260: 0d53 e713 a0f0 aebf e0a7 98f7 b398 993f
00000270: 68c0 a6d7 c74e b13f 7596 770a 731f b5bf
00000280: f54d 5b6b b853 c0bf 24c6 b0e5 a22e afbf
00000290: 4df1 3e8f ee3f 38bf 3ffb 7b66 f2d0 c0bf
000002a0: 5f5f ef3b 06fc a4bf b80f 3e15 6984 9c3f
000002b0: 02b2 a924 27b9 a1bf 13b7 e46f 5bb0 bdbf
000002c0: b448 2c7c a0f5 b8bf 1b53 2379 1c96 ad3f
000002d0: cc23 aaae 64cc a9bf 6b37 d431 2859 a43f
000002e0: 9b0e c812 e5d7 9a3f b86a c70a 14ae a33f
000002f0: a649 3de6 b419 c0bf 93d5 bb77 071d afbf
00000300: c57b d979 b120 c1bf edde c37c f7ea b33f
00000310: e3ae 66ac c42e b1bf 70dc f5ba e406 b83f
00000320: 5222 1c56 3361 b8bf 6394 9673 dbe2 9c3f
00000330: adab 9919 7787 adbf 87b5 1e05 546f a3bf
00000340: 40d4 f61b cb71 703f 565e e140 6375 c1bf
00000350: 7e5f ae11 c99e 9dbf acbb 424a 8511 b2bf
00000360: b23e 6239 749c 9abf 8ae9 6f46 9480 b8bf
00000370: 457e 282f a17c a3bf 1f5f 2a37 c3cf a53f
00000380: a1a5 fa07 f0cd a23f dcc1 9dd0 1cb1 a5bf
00000390: 7244 713c 7ac5 aabf fd48 5c91 f4a4 c1bf
000003a0: 19e7 4247 709f b4bf f526 bf86 7d22 b2bf
000003b0: 168d 120a 9993 b7bf 557d 723a 2827 aebf
000003c0: 6101 90fe f067 a3bf 5cae 2a49 8adf c0bf
000003d0: ab25 9188 55bb a9bf db96 b48c f118 a83f
000003e0: 4397 bd81 ffcb c0bf b7fc b33f 3d18 c1bf
000003f0: 9816 c654 1dfa 78bf 8066 3b95 e043 ac3f
00000400: 3709 e8ca c01d b3bf 2ec4 c679 3517 b43f
00000410: 1929 8ded 3907 ad3f 0d94 d2fe 0268 8f3f
00000420: 766c 0515 2161 a8bf f52a 3880 457b a43f
00000430: c0db 9cff 2538 ae3f ae89 4054 8c9a b6bf
00000440: a7d0 8738 6058 b2bf 28f3 ecac 2988 bbbf
00000450: d659 8fcb d740 b4bf 4157 872f 3298 babf
00000460: b5cb 6b78 633c 82bf 4b29 32f0 025e 53bf
00000470: 80cb ab74 e54f b4bf 625b 9f83 58f8 ad3f
00000480: 3a1f 2a1f 2cab 9e3f 2580 cd44 6600 b93f
00000490: 5931 861e fa2a 903f fe0a 6528 081a a8bf
000004a0: 816d 17f8 d378 bcbf 0575 ed66 4378 bc3f
000004b0: 882e 968a 5ba3 bbbf 594b 71dd 16dd a8bf
000004c0: 9170 bac8 8467 b63f 60ac dcb0 3f06 bebf
000004d0: 67b9 5948 6d35 943f 44f8 871a b95a b63f
000004e0: 1799 55a9 31c7 ac3f 53bc 6f73 7a85 6e3f
000004f0: 2cee 3c6e 557b be3f bb09 b76e 2b7e af3f
00000500: a1de e4f5 b235 aebf 0c82 1f8e 4883 b13f
00000510: 2da9 a425 debb bb3f 7419 16c1 0864 a3bf
00000520: d2b0 3348 4074 aa3f 2e23 a499 f192 abbf
00000530: f6ec 8f02 f51e a7bf 4c3c 6c7d 24aa a7bf
00000540: 9cc7 be12 0406 94bf 1448 596e cd7e a73f
00000550: 037a 57ba 1fe0 b8bf f118 3c50 055a 8d3f
00000560: 5972 b5a4 150a b9bf 42fb 5cd3 7a84 8dbf
00000570: 1988 f002 3bb9 a83f 2010 48fa 1c58 a8bf
00000580: e03c 61e8 81ca 813f 44ad 99c7 af05 a93f
00000590: c2c4 f36e f438 8fbf af63 73b4 2bb9 bebf
000005a0: 1cbb 67cb 8bc4 803f 132a e3e3 3921 adbf
000005b0: 8be3 b7bc c47a a93f 5deb 6a4f 33e6 bcbf
000005c0: b409 0a47 de7a b53f 48dd 4015 43f7 9fbf
000005d0: 44b4 4597 b9be a1bf 3b1f 689d 770a a8bf
000005e0: fd64 db96 c055 b93f 6359 e00a b970 8fbf
000005f0: 1d39 01d6 b752 583f 45f2 70b8 7df5 bebf
00000600: 9f88 8e96 99ba 9e3f c859 f780 6b37 b9bf
00000610: 3b53 8507 6f70 a23f e3a1 638b 087a bfbf
00000620: 320e ed73 e499 c3bf 051a 4f80 ea41 86bf
00000630: 5a2d 2995 eb0c a6bf 2962 4a90 2595 c3bf
00000640: 295d 1818 b3ee c1bf c97f 9c4c bb20 bfbf
00000650: 144c 2161 d7b3 90bf 1545 e4ea 38a5 a5bf
00000660: 8397 90a7 bf9c c0bf c51a 7f5c dd93 96bf
00000670: 0f49 c772 5b27 a2bf e804 99c7 e74f b5bf
00000680: af35 3cf0 2e44 a63f bef9 0b45 b5e2 82bf
00000690: 8a48 1db1 3b4e afbf 971d 37c9 6950 b13f
000006a0: 88eb 5fc3 498a 83bf df82 1d74 b795 afbf
000006b0: e7b0 7513 f227 a0bf 3724 7ccd 2d2e c3bf
000006c0: 452e 3d00 af4c 933f 9fb0 5c79 4e23 b4bf
000006d0: 268e 79cd 4f9f bbbf 288b 1946 d83b adbf
000006e0: 3fda fc12 13f8 b23f b54f 9a39 0792 a6bf
000006f0: b3a4 22b7 224a 96bf 3e3e 2212 5686 62bf
00000700: 9ebf c3fa 2414 c3bf 560f 4be4 679d b7bf
00000710: fb93 60ef 4228 adbf 4752 a4f0 d026 a2bf
00000720: e893 3f2b 71fd c2bf 93ff 181c 9e2a bebf
00000730: 9a8b 2755 b3af c1bf 4bb6 5102 f7d9 b4bf
00000740: 9ea1 1596 6b49 b63f d72e e529 2ab6 85bf
00000750: 3ab6 36ce fb73 c0bf 9beb 5b43 bf61 a9bf
00000760: 0b39 2fe1 e2a4 b7bf 9329 02b1 785f b4bf
00000770: 4a77 ecea 600d c4bf 8f37 0e00 d7f9 c3bf
00000780: c1dc 99a5 2cef b33f d2a6 7fc6 3038 a83f
00000790: fafd 0ca6 612d 9ebf 9883 0cec a45d b6bf
000007a0: b332 f5e1 9bfd abbf 6efa 30b7 4f91 c1bf
000007b0: fb5f af5f c543 b53f 8c36 2fa6 4bdf c0bf
000007c0: 86ec 4fb4 5963 b23f 5e13 6a71 9fbc b23f
000007d0: 2df8 6886 6afc c1bf 5d12 12ad 591f b03f
000007e0: 57f2 bbb2 dbbf 5e3f 6678 6847 0c59 ae3f
000007f0: c997 8a82 3bc0 b0bf ccbb 761d e21d b6bf
0.05259933892507748 0.054250965080471954 -0.1025695695232985 0.03495231605032203 -0.11388706520217261 -0.04516781033915578 -0.01894723967338278 -0.04296522850986927
-0.047032505136508154 -0.07731555671138428 -0.12350282713182788 0.05210527338095421 -0.07446809528138883 -0.11074072989981028 -0.05218255087847845 0.03345392001172908
0.02910153326565646 -0.11130351456854669 0.0832823352888011 -0.06943331892072065 -0.033565283071295596 0.01858127791515415 0.09012381442400451 -0.07771401714043306
-0.1628787199422783 0.07519653729183078 0.0659754164650076 -0.07626986864849059 -0.055817903174241235 -0.14875058430631607 0.05497457879469811 -0.16810659261505922
-0.15238495570465008 -0.05266490850132055 0.021168789981149193 -0.05451931821991861 0.018486701120464858 -0.010347925503885212 -0.1738717103097979 -0.05339776502845674
-0.02891227047356685 -0.11571967528021564 -0.07764622069140972 0.07614918808849874 -0.09039231902935684 -0.05353313804671125 0.013151647140526516 -0.15649053472628527
-0.024433709830662353 0.04761572570318919 0.06848609935694011 0.017832805254423174 -0.015746053547151907 0.0023522914384285394 0.00858527906239757 -0.16464111926436883
0.05621727855627181 0.02120306002632872 -0.08569835344218783 -0.15486487471731808 0.03134252610370255 0.0700748124711946 0.0666653789810698 -0.07392832624037432
-0.12650447222648767 -0.08163339552950429 -0.09999110893437173 -0.08745279239026718 -0.14767486861078402 0.026257487454538597 -0.11480068866004083 -0.10029495273007703
-0.10511630405596872 -0.08691287448081866 0.11151662309958453 -0.03720065981705986 -0.06042957537616731 0.024996578204230846 0.06760834708143337 -0.0825111294321575
-0.12755494348549204 -0.06090268186416051 -0.00037002157409539855 -0.1313765526210435 -0.040985293213167344 0.027848855897459862 -0.034615729546974464 -0.11597224694989121
-0.09749796897475244 0.05778588274703208 -0.050387522050250405 0.03974271400703241 0.02621419837124837 0.038437486949722766 -0.12578450433882188 -0.0607683499965034
-0.1338102192848664 0.07780405803702779 -0.06711987694751147 0.09385518612349286 -0.09523316242496918 0.028209141664451553 -0.057674142718347234 -0.0379587417840908
0.004014771838616815 -0.13639488857255583 -0.028926030830546783 -0.07057984412197865 -0.025987449648310963 -0.09571196288735542 -0.03806022358571374 0.04260072754294541
0.0367274293651676 -0.04236688658318474 -0.05228788364241489 -0.1378465375679027 -0.08055783977297572 -0.07083878078188006 -0.09209591384801671 -0.058892495283766756
-0.03790238482906961 -0.13182190487474343 -0.05025737087323575 0.04706530420871299 -0.1312255271433803 -0.13355222330571845 -0.006097902846141111 0.055205362526703716
-0.0746727462174349 0.0784791395478954 0.0566957571487185 0.015335105325286614 -0.047616037193358204 0.040002986814291853 0.05902212853691635 -0.08829571778236442
-0.07166100864543755 -0.10754642936531111 -0.07911442489362427 -0.1038848272358708 -0.008904244530162456 -0.0011820820516584448 -0.0793441209641923 0.058535352770994434
0.029949845697529322 0.09766234569315253 0.01578894435219644 -0.04707360737895348 -0.11121868903085465 0.11121007216339159 -0.1079613889070804 -0.0485617776218052
0.08751706982224251 -0.11728284900589037 0.019735057393000768 0.08732182405216898 0.0562072295386306 0.0037257567996600654 0.11906942311628005 0.06150947309972162
-0.05900344134937297 0.06840947599221908 0.10833538455031962 -0.03787257534991087 0.051668175519667195 -0.05385546684744323 -0.04515805870320293 -0.04621995955505351
-0.01955419887935471 0.04588930103331293 -0.09716985988004727 0.014331857214994833 -0.09781012793741563 -0.014412841391843071 0.04828819666751389 -0.047547250320377765
0.008687033561868451 0.048871510615607267 -0.01524535144423778 -0.12001298099074974 0.008187381882604643 -0.05689412028148779 0.049764774357703954 -0.11288757981212201
0.08390607103687026 -0.031216667339518694 -0.0346582410009906 -0.046954858746231364 0.09896472628624405 -0.015351720470829283 0.0014845652840623288 -0.12093339684447198
0.03000869733262645 -0.09850189112271501 0.03601405112082153 -0.12295583155685778 -0.15313392315339197 -0.010867912331275606 -0.04306732364474426 -0.15298909707486644
-0.14009703327676817 -0.12159319515603707 -0.016311040213917563 -0.04227617137270038 -0.1297835891902502 -0.022048434038675752 -0.03545652176002722 -0.08325050948134882
0.043488947702012275 -0.009221473855629433 -0.061143746729286866 0.06763325846178812 -0.009541107439863486 -0.06168912212775068 -0.03155476081414737 -0.1498467686981557
0.018847212209307313 -0.07866373503628886 -0.10789965406871058 -0.057097204739667895 0.07409781659667035 -0.04408285692366524 -0.021767179897015775 -0.002261322123622538
-0.1490522598683101 -0.0922455723148777 -0.056947795601708116 -0.0354523938896461 -0.14835943805442686 -0.11783779321649339 -0.13817445428784653 -0.08145088011380001
0.08705780424282358 -0.010601357844869081 -0.12853953904179766 -0.04957387635473439 -0.09235971448581297 -0.07958177873130116 -0.1566582820022922 -0.15606200697623904
0.07786826174730078 0.04730369971350758 -0.0294699914550147 -0.08736639750396902 -0.054669257481326915 -0.137247051667106 0.08306535326062196 -0.13181443800424508
0.07182846691277875 0.07319065588860726 -0.14051562846174318 0.06297836757046 0.0018767972459833493 0.05927313205414535 -0.06543323456807494 -0.08639348239260797

lstm.bias_hh_l0 f8 [256]
00000000: d18b 8687 027e b6bf 820c cce8 0287 b23f
00000010: 8b27 556d fd77 b63f 1ef8 a4f1 390f b1bf
00000020: 8c12 7b64 8551 bfbf 3b15 3d1c 3e84 b8bf
00000030: 8692 fcba e77d 91bf 60a7 50ab 2043 b6bf
00000040: 9a19 a4fd 233f 9cbf 016f cfd1 44f6 903f
00000050: a69d fa6d dc3d 94bf ae31 e1d2 1e32 b6bf
00000060: 021c eaa8 9065 c7bf f89e a0f2 a2ae c3bf
00000070: a199 c7b5 0209 9ebf d6d4 40b7 2e6d a1bf
00000080: 24cc 8ed6 953d 943f 298c ff64 8da0 b63f
00000090: c71f 3033 fdd7 433f a896 fb75 f484 b63f
000000a0: 5edc 9308 e2d1 8dbf 92b3 1246 264f aabf
000000b0: e4a3 3a86 2159 c2bf ec16 0f9a 5037 b2bf
000000c0: e39c bb6e 454f a4bf f123 8f73 a24e b2bf
000000d0: 285c f1ef b128 babf 4eed 071f a7dc acbf
000000e0: 6127 aa84 0601 bfbf 5f44 db6e 3dcc b3bf
000000f0: 8324 f79d a126 b1bf 620f 865d c042 b5bf
00000100: 0d6d 62bb 50f0 9e3f dd7a d465 2054 c2bf
00000110: ede2 a872 1d54 923f 9038 c1e0 6677 b5bf
00000120: c0a8 8d3e d827 a9bf 511e 611e f433 ba3f
00000130: 56ec 7abd 5a04 b4bf e609 7a56 4c09 b5bf
00000140: 8aa2 735f 1d14 993f c187 6afe 629e c5bf
00000150: 6888 4315 ccd5 c8bf 510c a803 f7e0 823f
00000160: 9895 f589 d9f0 b23f 65b2 2905 bb1d b6bf
00000170: 9d95 a4f9 df96 b2bf 5f6f c880 1665 b9bf
00000180: 4e09 49c1 734d a5bf 7a98 ae42 f6ce 943f
00000190: 9c05 08eb 7721 bcbf aae5 a2ac 98a2 b4bf
000001a0: 48ad 06f1 71fc bfbf aff0 984d 83be a23f
000001b0: 8798 9935 56fc c2bf eb74 a23d d2dc a1bf
000001c0: 0575 2193 030b bebf 344f 4e97 e5ae c0bf
000001d0: f1e2 b512 9551 a4bf c478 9417 1b5f a43f
000001e0: e8e4 9614 671f b23f e6cb a6f0 3b84 9ebf
000001f0: 988f ffec 8100 aa3f d9b0 8c80 e37b b03f
00000200: 5a58 816d 7a87 c3bf fc86 0f1c 2085 b0bf
00000210: ffe1 7822 0e57 a03f c7ae f572 30d5 933f
00000220: feb2 3f56 7e64 a9bf 9a35 6ed8 0c41 98bf
00000230: 3e68 5af3 06f4 b2bf 9ced db2b c0f0 afbf
00000240: bbbf 64e0 21e2 a9bf b9c4 f88b c848 8dbf
00000250: 8f4e 2cf9 f87b bc3f 11d0 c8fa e190 9a3f
00000260: 9fa9 f389 1823 bfbf 212a e6fd 7b2c b53f
00000270: 5cc0 a697 311f b83f e2a5 21d6 3cce 9d3f
00000280: 0238 6d2d e6d8 a2bf d173 9e34 29d7 903f
00000290: 8ef7 7974 c57f 81bf ac13 10e6 c756 a73f
000002a0: 3b50 0862 78dc b53f e283 4fc5 71f3 bb3f
000002b0: 074e 565b d131 ac3f 5b47 da80 42ce 863f
000002c0: 6291 58f8 eece aabf 6c56 6e43 49d5 b2bf
000002d0: a047 545d 96e0 92bf 40e4 15e7 7a2e bcbf
000002e0: c3f8 9bf6 2c95 a2bf a0d5 8e15 1d5e 953f
000002f0: 8126 f518 1521 abbf 4bf5 eefd 1245 c2bf
00000300: c37b d9f9 1a7a c6bf 817b 0ff3 fff4 9c3f
00000310: 5d22 2a73 5a9d 693f 888e 2814 6285 9ebf
00000320: 5122 1c56 1427 b5bf 20a5 e59c 7ac1 b33f
00000330: 5951 9999 97ef 893f c85a 8fc2 a5fe b7bf
00000340: 2a6d bff1 985f b43f 7a19 eaf1 ddb8 823f
00000350: e497 6b04 5adb bdbf 5544 bd35 f707 b63f
00000360: a2e0 4ee3 02ed a53f 1b4d 7f33 bc92 8dbf
00000370: 821f cacb a46f c6bf eda0 d548 bc0c a9bf
00000380: c6b4 0af0 98c6 9bbf 061f b197 8546 b23f
00000390: 7244 71bc 480a a5bf 0749 5c51 9d9e c0bf
000003a0: e318 bdf8 38b3 bb3f 2b90 0d94 234f 7a3f
000003b0: de72 edb5 8c6e b23f 4e7d 72ba 4ac5 a6bf
000003c0: aa00 487f 9cb6 b6bf 7ae7 aa92 d815 8ebf
000003d0: 3a6d b73b cc85 b33f 9eb4 a579 54ea babf
000003e0: 832e 7b43 e853 bdbf 091a 6002 45a7 9f3f
000003f0: 7a61 4cd5 73fc b7bf 7699 c46a d146 a3bf
00000400: c9f6 1735 52a2 b53f 4921 36ce 4351 893f
00000410: 766b 3989 5c6e b3bf f25a 4bc0 a1d0 acbf
00000420: 666c 0515 8b3b a3bf 81ea e3bf a2ed b8bf
00000430: d56e 73fe 0b42 813f 5276 bf6b ad4e b93f
00000440: 33a1 0ff1 aa6c adbf b219 26a6 2b33 a93f
00000450: 3b62 0a47 0709 773f dfe7 eaf0 1dbd 6ebf
00000460: 171a ca43 8a54 933f c5d6 cd0f dd66 543f
00000470: 80cb ab74 e25e b4bf 9ea4 607c de68 a3bf
00000480: b6e0 d5e0 6ff2 99bf 5700 9b89 237c a33f
00000490: ae73 5ef8 91f4 b6bf 867a cdab ec0c b43f
000004a0: 806d 1738 90c4 b7bf ef60 5122 db79 6bbf
000004b0: aea2 d36a 034e a73f a7b4 8ea2 e27d a53f
000004c0: 6f8f 4577 0443 babf a053 230f 89c5 ba3f
000004d0: bf46 a6b7 ef46 91bf 44f8 875a 2bba bb3f
000004e0: d836 53b5 b212 7cbf f27d 9b53 d969 b93f
000004f0: fd71 e771 f714 813f 6e13 6edd 3b1b 923f
00000500: 3a16 b2a1 1831 6a3f f37d e031 98d9 b8bf
00000510: 2da9 a4e5 8cd9 b43f 7719 16c1 5d96 aebf
00000520: 7127 e6db b780 b4bf 4523 a419 4b27 a3bf
00000530: 9a09 b8be 4615 b53f 0c1e b67e ee16 b3bf
00000540: 024e 503b 4d0d bf3f ecb7 a691 128c acbf
00000550: fd85 a805 6085 ba3f 0e83 076a a22c ba3f
00000560: a78d 4a5b a803 bd3f b714 8cb2 ec01 6a3f
00000570: fdfc eea1 7f1e 57bf 6b40 20e9 75d2 81bf
00000580: 75f3 84a1 27e2 6d3f 93d6 cc63 54f5 ba3f
00000590: 58e2 7937 2da1 9cbf 519c 8c8b c169 b33f
000005a0: 8b89 3069 50f6 7cbf 106b 0e4e 16f0 b13f
000005b0: 8be3 b73c 3120 a63f 5653 54c2 78ff 9d3f
000005c0: b409 0a07 c1ab b13f 5d91 5f75 9df7 aa3f
000005d0: 6668 8b2e ae48 9dbf b9e0 9762 0f64 a03f
000005e0: c1c9 b62d ed06 a23f 009b 7ed4 4b85 6e3f
000005f0: 4ef6 4f41 e44e a3bf 44c9 c3e1 4cb7 94bf
00000600: de5d 5cda 8c20 b8bf 8c4c 117e 3973 ac3f
00000610: 9ca9 c243 7432 b43f 55f0 e2a4 3f6c 8d3f
00000620: 7171 689f 270c 92bf c51c f6ef dc87 bb3f
00000630: e3b4 a454 e499 80bf e988 29c1 dba9 aebf
00000640: 62ba 30f0 47e8 b3bf c37f 9c4c 4170 b2bf
00000650: 9829 248c 6d2b c2bf 91dd 8d4a 2420 b03f
00000660: 26a2 bde1 f785 a23f 5239 e068 f422 b03f
00000670: d491 8ee5 3757 92bf dc04 9907 6f26 b0bf
00000680: 89f2 f043 3406 c0bf ca80 5e17 1068 be3f
00000690: b85b 71e7 942d b33f 8c76 dc24 ded5 9b3f
000006a0: e104 280f 631b ab3f 197d e28b 829d a23f
000006b0: 7f27 4536 bb7d b23f 0386 84af 85fe 7ebf
000006c0: 0e8d 16fe 9f65 69bf 193d 8d1a 09bb 9d3f
000006d0: d971 8632 2b14 b73f 99c5 0c23 4801 b2bf
000006e0: 79b4 f9a5 b7e3 a93f d127 cd9c 1453 bdbf
000006f0: 8aad 6e24 c7c9 ad3f 0f89 4838 ed92 c2bf
00000700: 15fc 1dd6 0402 95bf 560f 4be4 4add b8bf
00000710: 5394 606f e72f a6bf 6c5b b71e 2177 903f
00000720: 584f fe2c e3df a4bf 9901 9c8f cdf1 983f
00000730: 192e 9e54 d7cc a3bf 49b6 5182 ba91 b0bf
00000740: 2219 5a61 ed7e 713f 7497 f214 c608 9cbf
00000750: b98d ad8d 431c 6bbf 07d7 b786 11f7 98bf
00000760: da37 86f6 70e1 803f 4253 04e2 ab28 aebf
00000770: f675 c7ae e674 83bf 8c37 0e00 a0a4 c6bf
00000780: 57b9 33cb 9824 aa3f 7bd3 3fa3 daba ba3f
00000790: f580 f9ac e2b1 a63f e241 0676 9def c0bf
000007a0: 6499 fab0 8b57 bfbf 440b 9e51 e128 b93f
000007b0: 06a0 50a0 47b6 b6bf a167 f362 3c0d 82bf
000007c0: 86ec 4f74 3a85 b43f 5c13 6af1 08d5 b63f
000007d0: 3ef0 d18c a296 bebf aced ed92 94cf b4bf
000007e0: 0a88 9a88 68f5 c1bf bec3 4b5c 07e0 b8bf
000007f0: a02f 1505 31d2 acbf a8be 6bd7 a132 72bf
-0.08786025818567046 0.07237260993501773 0.08776840132955337 -0.06663858556291344 -0.12233766272681573 -0.0957678622190387 -0.01708185271049214 -0.08696178610321459
-0.027584612232226392 0.016564441018871005 -0.01976723119028425 -0.08670227669171623 -0.1827870201852591 -0.1537669834808566 -0.02933124765868345 -0.03403612124422188
0.01976617929512882 0.0883873340203968 0.0006055818870445089 0.08796623115957891 -0.014560476195113189 -0.051385112813796444 -0.14334506086495857 -0.07115653763966251
-0.03966729141921534 -0.07151236840503807 -0.1021834574506647 -0.05637094739719349 -0.12110939730533012 -0.07733520466287434 -0.0669957171113698 -0.08304979594509868
0.030213605343857575 -0.1431923386780544 0.017898998378060794 -0.0838531779020022 -0.04913211597052358 0.1023552488487607 -0.07819144369106942 -0.0821731291889943
0.024490794135007245 -0.16889607832587042 -0.1940245727374219 0.00921814899357379 0.0739875757040721 -0.08639115215346178 -0.07261466831967885 -0.09919872898211456
-0.04160653814735103 0.020320747203776503 -0.10988568771428792 -0.08060602392915564 -0.12494575628686733 0.036609748098699206 -0.14832570664583875 -0.034887857459787806
-0.1173555597501555 -0.13033742797835546 -0.03968492368125521 0.03978809988824275 0.07079166653319968 -0.029801308215336685 0.05078512208981961 0.06439039123933145
-0.15257196757255792 -0.06453133282732532 0.03191417856982425 0.019367939964850558 -0.049594829586430564 -0.02368564673411342 -0.07403605881918993 -0.062383656839269025
-0.0505533777635487 -0.014298979541396016 0.11126667102171893 0.02594330876509338 -0.12162927024807012 0.08271002720554367 0.0942259783976182 0.02910704667048048
-0.0368110590412556 0.016445773922544597 -0.008544485680655158 0.04558396037467757 0.08539535897608712 0.10918341700700254 0.05506757965045144 0.01113559680678449
-0.0523600271374416 -0.07356698890938568 -0.018434857794154547 -0.11008422986732658 -0.03629436979643821 0.02086682743148105 -0.05298677377375061 -0.142732976904805
-0.17560136031803894 0.028278350076898832 0.003126789722333974 -0.02980569122349988 -0.08262755491535613 0.07717100458616644 0.012664017081228595 -0.09372936248778807
0.0795837011532298 0.009141668267386594 -0.11662829025189542 0.0860590463828584 0.0428238775706984 -0.01444003135831067 -0.1752820963922624 -0.048925289050034106
-0.02712477650736813 0.0713885779706481 -0.04109408665011295 -0.12984053108863966 0.10820346901627746 0.00642312906061097 0.07199935380544839 -0.04447396779982658
-0.08872392756893768 -0.014690105415286803 0.07626034219668024 -0.10513809175400232 -0.1145615734814616 0.03091152026174807 -0.09369586904029417 -0.037649673731993724
0.08450807377081583 0.012362031679700751 -0.07590273237421549 -0.05627923462241381 -0.03756365424734369 -0.09737603363820747 0.008426755621648333 0.09885677223743386
-0.057469694067381026 0.04921852496322589 0.005623844554655972 -0.0037522873675159686 0.018877182376423187 0.0012452276998521788 -0.07957282398619547 -0.03790946262626814
-0.025338886354319988 0.0380564790225441 -0.08966934503264554 0.07832221216583876 -0.0928430687849211 -0.003354003902625739 0.045517069616669445 0.04197605356544303
-0.10258510505587791 0.1045766508062358 -0.016872163375927892 0.10830946884377207 -0.006853769377995277 0.09927137652584131 0.008340771831108812 0.017682013883603735
0.0031972390257262425 -0.09707022874544417 0.08144455534480662 -0.059740953273876345 -0.08008908384922876 -0.03740915954592209 0.08235590130065021 -0.07456865876712743
0.1212967176255049 -0.055756168632214415 0.10359764230863529 0.1022435673580839 0.1133370612029042 0.003174745845515216 -0.001411080018200838 -0.008702202965679548
0.003647878078622597 0.1053059333470066 -0.027958590041153947 0.07583245903934822 -0.007070840935769938 0.07006968885108855 0.04321435800733927 0.02929485975353726
0.06902700826507308 0.05267040307788549 -0.028597566214422797 0.03201339796572839 0.03520909483940527 0.003725669961528566 -0.03771127030630038 -0.02023048522910044
-0.09424667674135587 0.05556659377966708 0.07889486936861662 0.014366624087749505 -0.017624491791239764 0.10754185541564983 -0.00810602553664314 -0.05988966687142911
-0.07776307691595144 -0.07202537651437439 -0.14195031493029542 0.06299044437570546 0.036178346925968705 0.06303336677976759 -0.01791083658794597 -0.06308645186892953
-0.12518933598939366 0.11877537317787126 0.0749142708822167 0.02718302822096645 0.05294332084668852 0.036357955528041504 0.07223100733713571 -0.007566950044095136
-0.003100216374791415 0.029033796544635757 0.09015150054478428 -0.0703320584841748 0.050565470705671474 -0.11454895809325129 0.05818006820421846 -0.14510884521684672
-0.02051551396243319 -0.09712665628017922 -0.04333422884546025 0.01607944250084918 -0.04077062534557169 0.024359905138227587 -0.038672188834507355 -0.06472364122029108
0.004271437899325188 -0.027377219227353547 -0.0033093757059973997 -0.024379991385976598 0.0082424950822108 -0.058904048290207914 -0.009500314911686108 -0.17689895632468866
0.051060461811959605 0.10441366658763045 0.04432590829378739 -0.13231247198974844 -0.12242959090017319 0.09828003161059679 -0.08871886886538513 -0.008814307946909685
0.08015790309575452 0.08918815511613104 -0.11948600709905663 -0.08129242503303286 -0.14030176801776434 -0.09716840747184016 -0.0562911337570704 -0.004442817872344719
