models/baseline_mse_model.pth (torch, 786461 bytes, 18 tensors)

lstm.weight_ih_l0 f8 [256, 15]
00000000: 8118 a65a ae3d c4bf 6030 45dc dfae bdbf
00000010: 3ee3 d8a6 f91b a63f 9f44 85a9 346e b7bf
00000020: fa84 4ef8 1696 943f a59e 0654 2f27 b3bf
00000030: 7a9f 4efa 3924 ba3f 73f0 17d8 7e19 bebf
00000040: ba84 11fb 2648 bcbf fa91 ec1e 9fce c2bf
00000050: 6ac0 ed8f cae4 bf3f 0974 917d 54d5 b03f
00000060: 1dbc faad 26ff b33f 9cbd 2c8c 4854 8b3f
00000070: 1dfb 9467 13d1 c63f 99e5 cfea 9611 90bf
00000080: 3d0b a846 25a3 bf3f 4f07 8c11 69c5 a43f
00000090: 6acf 0aa8 d996 b93f 8004 807a 586a b83f
000000a0: 74ae a1ac cb5f be3f f913 70ec d65a c43f
000000b0: 4778 2f42 1ed1 b83f 8034 2ae0 3c5f c33f
000000c0: 836e 0fd1 4b4c c23f 38b3 90a5 74ec cabf
000000d0: 8235 6144 eaa3 8d3f e9da d12f 0ba8 b1bf
000000e0: d98f 486e 3862 b3bf 89ae 89c7 4a14 913f
000000f0: 4bc6 2406 56d5 c03f 067e 3d22 b9d7 b7bf
00000100: f10b edc2 163e a5bf c849 0654 684d b9bf
00000110: bdda 2cc2 b6c3 b83f 7aa5 0536 c9c8 a53f
00000120: 3f4e c880 0872 b23f 85d2 1cbb 309a ad3f
00000130: 0e58 f4ca 773d a3bf cb29 421a fa04 bb3f
00000140: ce3e db28 6f42 c8bf c1e4 e3e0 495b b53f
00000150: cc2b b7ce 7061 a2bf 1af1 2c6d 1c1e b1bf
00000160: 9fd1 ed68 b48b c3bf 451f 2df5 f5e1 c33f
00000170: 9de0 e4df bd61 b6bf 17f0 3315 8d12 c53f
00000180: c16b 0c05 9387 70bf b675 3db8 91b5 b1bf
00000190: 9f02 9cfe 9780 ba3f 58e8 3b85 38a9 933f
000001a0: 77ba 5a5a d48e a0bf 9be5 a18d 45d5 abbf
000001b0: 19aa 8799 8622 c63f 79e7 360b d6f2 c33f
000001c0: 773f 37f5 f9b7 bfbf f581 421a fe0a c43f
000001d0: 5b6a a8a5 33b6 abbf 9bd8 3e51 d706 b03f
000001e0: 4736 d6ca 9432 b0bf e55c b594 7ba4 c23f
000001f0: 94b1 21e2 247d a5bf 35ca 6742 ce40 ad3f
00000200: f24a 17b4 b571 ba3f 24ba c4ab 7301 863f
00000210: ac66 4764 89c8 bf3f 78af b214 0df5 b1bf
00000220: 3a51 1f91 b34f c23f 4d18 e92f 264a c03f
00000230: f9e2 1362 78fe aa3f c948 50e4 25fe 67bf
00000240: 719d e0e4 02e4 77bf 9060 1b59 3002 c1bf
00000250: b9d2 eb4f 8891 b73f 38b0 e866 e76e b63f
00000260: c0a9 9660 592d a33f 0d76 0417 b842 b2bf
00000270: bd71 e046 5514 bb3f e9e1 f526 c566 bd3f
00000280: b971 ed89 e6bc a53f ffa3 c572 6d9d bc3f
00000290: 069d e87d f36e adbf 7fff 23f8 1b3f c03f
000002a0: 0f2b d76a c48c b0bf 5375 717b 3a13 a4bf
000002b0: 9875 7da4 06b9 c93f 9eb8 be69 ce78 a3bf
000002c0: a35a e3f6 2256 a43f b592 09d0 8f92 9e3f
000002d0: d678 9b0f 29a9 ba3f 3471 8ef0 1b8b b13f
000002e0: 23bf a335 c3fb a9bf 1c52 715c b073 c03f
000002f0: ee05 d227 2bec b2bf 029b 863e b9b0 c53f
00000300: f6bd a9c7 b1bb b7bf ba31 a176 fc0a bbbf
00000310: dcd6 2f8b baf6 a4bf 6cbe 0598 2506 983f
00000320: 2159 9003 e48c b7bf 5843 1cbc 89cd b1bf
00000330: 3827 028a 900b a73f 5658 83f1 d006 b3bf
00000340: 63e3 0f1c 1cae c0bf d8ec 1f92 fc81 a03f
00000350: 90f3 6bcc 8b5a b43f 93d4 2a38 9695 b93f
00000360: 9198 312c be14 b6bf 0efa 469f 5013 a4bf
00000370: d6a0 ab81 6ad0 983f dc44 2f58 6793 a2bf
00000380: 0d1f 373b 5961 af3f 0e0a 7c70 8acf b43f
00000390: d1ea 8523 2acf b1bf f2f2 aa7c fff0 95bf
000003a0: 6570 53aa 271b a1bf 5ee7 93e9 ab50 7dbf
000003b0: 8b4d 953a f8f5 96bf 9cdd bd72 9587 c03f
000003c0: f134 6d29 d6a8 b0bf 6e22 31f6 3d05 a83f
000003d0: 4c06 735a c18c 7b3f 28f4 52db 5fd6 b93f
000003e0: f542 810a 4ceb ad3f d43a 372e 948a c2bf
000003f0: fb2b 83cf 92ee aa3f a8c3 0d16 8a42 c1bf
00000400: 6712 596f 38c6 bdbf df15 8161 dad3 b6bf
00000410: 827f 8962 3377 923f 6a47 392b 003c aa3f
00000420: 0473 6ff0 180f c83f 4786 fce9 1b88 c2bf
00000430: f9ba 8d2e b3f0 b73f cdd0 e529 26e9 b83f
00000440: f8e5 1e2f f01e ba3f 399d d1ef cb80 b1bf
00000450: ef18 d408 c8de b7bf 424a c685 6f20 babf
00000460: 022f 8b34 9b5b abbf 3dd7 8706 9a00 b73f
00000470: 5995 77eb 08b9 c0bf a315 61d3 4acf 7c3f
00000480: e910 b01e 373b a5bf 19a8 91bf 5970 b0bf
00000490: 57ae e623 ab27 c1bf 4f4e 7174 ea85 b5bf
000004a0: 3add a598 f62e 9b3f 8bff 41d1 9286 b1bf
000004b0: 97cc 05c2 57cc ba3f cf28 0c28 bf4d 4bbf
000004c0: d4c4 0bc6 4296 96bf f89a 2e92 a649 853f
000004d0: f7ee 1d2a 3214 b03f a85e 1b2b 953e 89bf
000004e0: 85c9 783d b4eb bd3f 3009 427a 7d14 b2bf
000004f0: c058 d0e2 c9ad a3bf 28c9 0a71 8d94 afbf
00000500: 6d39 0c55 6565 98bf 32e2 3b04 a217 b3bf
00000510: ddd6 9e8b 5b20 b43f 9fb5 9c2f b9f9 b2bf
00000520: 9b61 7458 9813 b93f 9fc8 8b15 bc71 b63f
00000530: 077a ad15 49ee bdbf 5ab9 bf67 adbd 83bf
00000540: d5fe eddc 1a63 bebf 0193 8056 5d1d bc3f
00000550: f873 de0d cb36 76bf 499e 9d3c 3794 ab3f
00000560: 3afd cbde 6d48 b33f 484c 63d9 e1e6 b8bf
00000570: cc7f 8e41 c3d1 b0bf ee4e 81a1 4edc c73f
00000580: fde7 0cc6 9f8d a7bf 7973 591c eb23 bdbf
00000590: 663e 809a 9fe1 adbf 439f 3cf3 b738 b23f
000005a0: f469 00f2 35d2 a93f 6934 141c f3e0 9e3f
000005b0: f883 d857 6027 a23f 140f 4389 e684 92bf
000005c0: fd14 def7 d0a8 bf3f a479 9862 c95f a3bf
000005d0: 7f58 4e5e 46fa c13f 15d5 2207 2987 bcbf
000005e0: dc45 c685 0c52 c03f dfe3 a85d 3da7 b63f
000005f0: c314 4258 61b0 c1bf 19b9 a092 8cb6 a9bf
00000600: 203d 436d 12a0 c23f 14b4 4c5a 4266 90bf
00000610: 8d7b c516 0381 6f3f 5f5f 74c5 5880 b1bf
00000620: ce6f a161 519c c3bf e760 2c29 c823 a33f
00000630: 7745 d86c c7d5 a03f 5e97 63e9 4a75 afbf
00000640: 7fce 4567 0522 c03f 71b4 0bae 0f14 a1bf
00000650: 0d01 2581 e9ea 83bf d827 b5e6 5aab b03f
00000660: 2dfb b841 df30 c2bf 37fa cf54 821b bf3f
00000670: 562a 08d6 a262 c9bf 378e 3659 14e5 c03f
00000680: efcd b29d cd94 a1bf 922f 4017 8573 a7bf
00000690: a66c 9851 01cc b83f 2c54 504b 46b9 a4bf
000006a0: 7df4 2eac 398e bf3f 3527 1949 abc7 b23f
000006b0: a6d1 4eae ee2a babf 14df f6e6 0e0b c03f
000006c0: 5fb3 91d0 ad91 a5bf d6a5 fc75 6935 bc3f
000006d0: 0767 c0bc ea23 a1bf 1e87 1790 0112 b13f
000006e0: b090 e73f 04cf 933f 794c 99f1 abe8 c2bf
000006f0: 0fe0 a258 cea6 9e3f e0c1 06fc f190 c33f
00000700: df2f e197 6bf7 93bf 4765 de0c 813d be3f
00000710: bc07 9f4f 3261 b0bf 5e4c 5592 583e b4bf
00000720: 9218 5e2a e274 5fbf 1855 082c 20a3 b23f
00000730: 188b 32e2 5633 c33f 579d 9df0 e506 993f
00000740: bc51 0c52 69da c13f 5468 37cb 7673 a5bf
00000750: 8210 edb0 7c98 c23f dc69 6b90 c740 bcbf
00000760: 2462 e83c ecc5 c23f 59a2 aff6 0c70 a2bf
00000770: 0571 68ba 7a98 9b3f 01fe d98b e553 babf
00000780: b1bb e47b 3d55 b73f a30b 9b85 c075 ae3f
00000790: 45d6 33de 3309 ba3f 5a15 13cd 7642 bebf
000007a0: 7df0 e9c1 2ea1 b7bf fca6 d8ca f8c8 af3f
000007b0: b02c 8554 b382 a6bf a882 33af 2a63 c0bf
000007c0: 14af 43f1 9440 bdbf c48a 6469 df9b b33f
000007d0: bf0b 908e 405e 883f fc55 d65a bb9e 9cbf
000007e0: 7a02 39c8 c889 bb3f 1500 fb3e 417d c0bf
000007f0: e5fb 2d53 ae45 c23f af1e a7bc 0894 b83f
-0.15813235689364905 -0.11594962241832851 0.0431821838541908 -0.09152535570798868 0.020103796868743175 -0.0748166637555366 0.10211527215017027 -0.11757653022499585
-0.11047595624542597 -0.14693058977094592 0.12458482755551051 0.06575515809659306 0.0781120466951823 0.013344351556581917 0.17825548703873376 -0.01569209869555763
0.12358315444002428 0.04056862200924504 0.09995804169267122 0.09537270537113507 0.11864922489774604 0.1590222029191464 0.0969408904634018 0.151343926864147
0.14295337398549543 -0.2103410538124082 0.014472799503119974 -0.0689703933474949 -0.07571747486559789 0.01667897074587058 0.13151049900038667 -0.09313542447988973
-0.0414893258043988 -0.0988373952043623 0.09673635712247637 0.04254750046204499 0.07205250877478252 0.057817004052059175 -0.037578338169780165 0.10554469243121571
-0.18952741141264656 0.08342420330508828 -0.03589966319449153 -0.0668657080213432 -0.15270094989285796 0.15533327552315704 -0.08742891994632136 0.1646286347894381
-0.004035543723854341 -0.06917677639054073 0.10352468458223506 0.01920021355815779 -0.032339702634421146 -0.05436150888358356 0.17292864319399895 0.15584826991635817
-0.12390100704874195 0.15658546716896607 -0.054124464008243854 0.06260438664944205 -0.06327180816716647 0.1456446148028824 -0.041970398525197045 0.057135053259021275
0.10329757353546734 0.01074495666452175 0.12415369699683748 -0.0701454329998209 0.14305729471255707 0.12726285304433063 0.05272270390736895 -0.002928804404754269
-0.005832682900325779 -0.13287929869580184 0.0920643992538527 0.0876297594301726 0.03745536140498329 -0.07133055269192586 0.10577900867833186 0.114849397670589
0.042456821762900394 0.11177715351153948 -0.05748711502047325 0.12692594162217216 -0.06464793785486854 -0.03920920140147168 0.20095904380552265 -0.0380310539325006
0.0397196699502065 0.029855963776202105 0.10414368277585892 0.06852888701400134 -0.05074892072468475 0.1285305453663036 -0.0739161464898854 0.16945567658441268
-0.09270774006449031 -0.10563638588172966 -0.04094489049013614 0.023460948375428378 -0.0919935711575346 -0.06954251139201284 0.04501010594056115 -0.07432275673213104
-0.130313409521274 0.03224171909092782 0.07950662365688133 0.09993876334449885 -0.08625401095341291 -0.03920986122419744 0.024232544102148555 -0.03628085090134345
0.061289585569794004 0.08129182096676166 -0.06956733100188763 -0.021427146896473688 -0.033410300771465264 -0.007157012493957142 -0.022422674728046082 0.12913768866176845
-0.06507624160186133 0.04691499357483485 0.00672603157653524 0.1009273443659856 0.05843579891427978 -0.14485409027698515 0.05260142119512775 -0.1348431213077934
-0.11630585401969427 -0.08917012100672349 0.018032839669444474 0.051239018703781294 0.18796073665625823 -0.14477871823423724 0.09351653944552742 0.09730757258313645
0.1020345797577632 -0.0683715305800562 -0.09324312415637669 -0.10205742851238944 -0.05343327537920396 0.08985293063582574 -0.13064681527536484 0.007033626830950909
-0.0414674019776003 -0.06421433379151188 -0.13402308705313956 -0.08407464354359571 0.02654633814515004 -0.06845967873414176 0.10468052374726465 -0.0008332427388222599
-0.022057574594275334 0.010394383751032063 0.06280816581960012 -0.012326398256319607 0.11687780857827164 -0.07062515482724474 -0.03843527692531401 -0.06168024067791783
-0.02382429439153937 -0.07457935908667748 0.07861873778059754 -0.07412297642141262 0.09795524749313815 0.0876729538538563 -0.11691719798316323 -0.009639124611535866
-0.11869972127714885 0.10982306825514955 -0.0054233485988364125 0.05386517157495214 0.07532393159271047 -0.09727298314401012 -0.06570072508338781 0.18641074071876268
-0.04600238125426868 -0.11382932130932301 -0.05836199532506896 0.0711779564704758 0.05043190554734514 0.030154989804078634 0.03545666763626082 -0.01808510029583406
0.12366968203976465 -0.03784016922530789 0.14045028309618954 -0.11143738197536764 0.1275039342113321 0.08848937546362333 -0.13819519814948053 -0.05022086419954714
0.14551000914659884 -0.016015087853862367 0.003845697434527512 -0.06836466618221725 -0.1532079436027502 0.0373823690662805 0.03288100436851498 -0.061441746702071795
0.12603824179278786 -0.03335618018704956 -0.009725403073958217 0.06511467106352542 -0.14211645802603226 0.12151350565543671 -0.19832263422752544 0.1319909511195065
-0.034338403225230844 -0.04580322178671205 0.0968628715713061 -0.04047603291852683 0.12326393560120326 0.07335920843720774 -0.10221759563029895 0.12533746984058125
-0.042127067289448254 0.11019000177898106 -0.03347714952560748 0.06668100135678087 0.019344393158363615 -0.14772557541673217 0.029933189544607382 0.15286087804771764
-0.01949852098941551 0.11812597812822388 -0.06398310130955925 -0.07907632420146757 -0.0019199570319599385 0.0728016002179469 0.1500042538146651 0.024440377055183173
0.13947788721328702 -0.04189654570264226 0.14527853621450865 -0.11036345744961501 0.1466651246453391 -0.036011128533406996 0.026948850276412823 -0.10284266151756329
0.09114441179984457 0.059492126759799 0.1017029206739944 -0.1182016611738467 -0.09230320200180304 0.06208016849661921 -0.04396591574421771 -0.12802632860895824
-0.11426669016117003 0.07659717867913246 0.011898521757762624 -0.027949263972535818 0.1075711716484963 -0.12882247519701254 0.14275149404053802 0.09600882154256384

lstm.weight_hh_l0 f8 [256, 64]
00000000: 4faa 5914 2573 87bf 127a eabe 47e0 933f
00000010: 65da a607 31ec b8bf d1f9 3d0c 4c56 a4bf
00000020: 7a18 e434 7845 b63f 0450 463e 006b 80bf
00000030: 46d2 37ad 7201 b3bf 2a0f a340 5fca b53f
00000040: 6b4e 2f64 e9a1 bebf 9c9d 3dc6 3315 83bf
00000050: 546a 6628 2e79 b1bf 093e 0bcd 01bb bfbf
00000060: b22e 4cee f563 c4bf 6a12 14ae fccb 99bf
00000070: b0df 504a 8705 b7bf 989c ddcb 2ad8 a53f
00000080: 95c4 ee1c 1639 b4bf 2a0f 9be8 3806 b43f
00000090: a030 e180 89ac bdbf fb3b 7c12 aa6e a4bf
000000a0: 8dd0 27e0 3dfb 91bf db25 bdda 7ace bc3f
000000b0: e4f5 7e35 330a bb3f c898 f9b3 7294 c0bf
000000c0: 543a 57f9 d766 b2bf 9818 00f5 7cec b6bf
000000d0: ca48 21a4 a274 7cbf 45df 4dc2 feb8 bb3f
000000e0: 6624 78a4 0ce3 b8bf be01 eb77 8f87 c6bf
000000f0: 393f bf4a 4300 c73f c84f b314 c397 b0bf
00000100: 9241 a2bd 83e1 bd3f 2416 f642 7978 b7bf
00000110: be9c 9952 2239 b3bf 59ff 8463 5386 c4bf
00000120: dbd8 5fb9 99c0 9abf dfe8 d30e 9950 aebf
00000130: f584 e52f f16f bb3f 61c5 48b6 a2e2 ab3f
00000140: ab9b c931 9d77 c2bf 2fe6 4205 ce79 9ebf
00000150: 5c91 872c c4b4 983f 68e5 4cd4 30d0 b43f
00000160: d75b d017 44a4 a2bf fdb4 7658 3f76 b1bf
00000170: 7892 37f3 7d93 833f ac48 7db7 881e b13f
00000180: 95a0 02ec d8c9 bcbf f26e e6d1 ce0d 623f
00000190: 363b 91b7 3310 bb3f e3ab c198 1c8e 933f
000001a0: dc69 b8ee 30a8 c03f d73c 39e7 022b b2bf
000001b0: d36f a134 752b ab3f 26bf c69b 0993 943f
000001c0: 91f9 d2db 2a1b c1bf 1df9 ca18 4597 a0bf
000001d0: 4783 5d34 2efa 8bbf d6dd f141 bdc0 a53f
000001e0: 8bc6 2f02 5453 b13f ffa9 62a9 4cf3 783f
000001f0: 7df9 7e78 b5a8 a63f b8d7 3962 0675 8fbf
00000200: ef1c 0c5e cfcf c73f 1582 9026 7083 b73f
00000210: 836d a82e 0730 c2bf 7d26 4ab8 802f 8cbf
00000220: 2946 dc39 e6ca bc3f a0f0 6304 7707 b73f
00000230: aa09 1ca4 0b82 bcbf 755e 356f b4a9 bb3f
00000240: 71c0 dffd 4409 96bf 54b1 6809 a77f b7bf
00000250: 6d72 9da3 dd75 b7bf 2598 be64 884c bfbf
00000260: a986 19a3 cc3e a63f 1f18 5b74 5da6 b33f
00000270: 6f8c d260 290c 9fbf c2ce 2658 ab67 bebf
00000280: 7fb4 f6e2 ca6c c23f e803 b0ef 4ba4 ae3f
00000290: 2772 1cba f45a b2bf 1581 bd55 1519 a73f
000002a0: 5f10 d28c 5031 ae3f 7627 df81 2997 97bf
000002b0: 1e47 f252 8354 c23f 4422 bb94 12d8 c5bf
000002c0: 5d1c fd16 1733 c8bf f7a1 4bab 1733 b5bf
000002d0: 4d6f e40a 1d1c a3bf a7f5 4af5 4be0 c13f
000002e0: bd63 4058 3563 a9bf 53a3 4021 e3bd a8bf
000002f0: d7fa 114c 6c40 b6bf 7050 c5dd d343 753f
00000300: c93c d0ef 4897 b63f 787f 947d 0796 723f
00000310: 0e5c 3a9c 5eba c03f 89d7 8d27 2bd1 803f
00000320: d574 3b2d 3115 9ebf 3583 fa7e 8f97 ba3f
00000330: fbb1 ccc2 62f5 85bf ed46 31e4 7b3a c63f
00000340: 3ee7 548a ac57 bb3f 7339 43da 937c aebf
00000350: 108a a388 4700 a6bf 58e8 da5a 2d57 c03f
00000360: 0b72 9c60 0351 a6bf 76cb c055 2cfd bdbf
00000370: eb54 8374 6d41 b13f 68ff a876 8144 a6bf
00000380: 6dad b446 984e 773f 5fc3 1b25 47d7 913f
00000390: 9f2f fcfe 6e81 b0bf 6d60 c43a 9d8c a83f
000003a0: 4b22 0bb2 829d b5bf be05 1349 2716 c1bf
000003b0: 2b71 3473 fd03 c1bf 915b 65cd 48a2 bebf
000003c0: 0906 7bba d86b 923f 8b64 3e21 dd09 973f
000003d0: ef90 4887 37fe b1bf 01c5 77a1 2b27 b83f
000003e0: 5dac 96a0 9c69 96bf a9b7 fa15 8a2a 9d3f
000003f0: 2a3c 44bb 02a2 863f 80a2 ee9f d84f a8bf
00000400: b605 ddd4 7c0e a0bf 422c 8bf3 21ed a6bf
00000410: a747 2f66 fbcc b2bf a569 3152 5dea 92bf
00000420: 11fe 9e59 2cf6 b1bf 57f3 ac99 dcf1 a83f
00000430: 56cf 7cb1 9fe4 ae3f 6e56 a543 31f6 68bf
00000440: e97f bcaf 2f1d ae3f 398b 7057 25ef 903f
00000450: 732e 2962 62fe b43f 8277 f315 2058 a1bf
00000460: 1bd3 fdf2 5b75 a43f daba 001f 29e8 9cbf
00000470: 7d21 d617 7b4f b1bf 1256 1a3f a842 c5bf
00000480: 23ce caa0 4129 c4bf 90db 8b50 f5d0 b53f
00000490: bb24 a169 39c9 b8bf ebcd 0e9d ef1e 913f
000004a0: e923 9bca b5d4 aabf f086 1cd0 b110 82bf
000004b0: e990 6975 3390 bc3f 4089 712c f13b c1bf
000004c0: ca7a 74e6 db6b 79bf 5468 31dd 9239 b2bf
000004d0: 8cb8 1f9c 86d7 b5bf 5019 a05b c652 b2bf
000004e0: 9460 d141 4843 ac3f c459 c80c 8d3e c2bf
000004f0: 7b6c 51a2 80db b23f bee5 a064 1a82 b2bf
00000500: 22cd e648 b71f b13f 7ac0 13b7 ada2 7d3f
00000510: 3ff7 3952 adcb c9bf 2aab f6ed 3d6c c3bf
00000520: da26 315b 3121 83bf 208b 64ef b1c1 c13f
00000530: 6bf7 5f65 cb2f aabf a915 cfd2 9f1c ab3f
00000540: b848 b4f6 d328 b73f 9b67 ef30 e8e5 b33f
00000550: 01c1 c7f4 1754 a6bf c5e2 d86c 9660 9a3f
00000560: 7473 c56b ea5d b23f f1ef 7ed8 8eea 843f
00000570: 8aca 746c 8693 c13f b908 0d3b 7925 babf
00000580: d1fb 539d 1a6e 8e3f 287f 86c8 54e9 aebf
00000590: 0f13 e02d 1d66 b83f 7eb9 623c 028b adbf
000005a0: 646f eaef 286b ba3f 52a0 7d36 580a bfbf
000005b0: 2ddc 8bb1 e6e6 c4bf 6e9b caee 912f aa3f
000005c0: c93b 2f31 d756 9abf 2529 3117 11f9 9d3f
000005d0: ec64 584b d4ad b3bf 8c75 1c83 ed64 bd3f
000005e0: ac12 e052 35e2 adbf 841d 35a3 c4d8 c13f
000005f0: f288 6265 2135 b83f 6f32 1c37 0d4e b0bf
00000600: d947 8bad 5e67 b63f 2fd7 d683 78c5 953f
00000610: a274 5edc 7338 8b3f 8a92 5dc9 7f96 983f
00000620: 4f18 902a 9593 c0bf 4f8a 12f0 2158 b73f
00000630: 755d a9c1 1944 923f a22a 22ee 1796 b4bf
00000640: 1dde 6681 7979 9e3f c67a 94cc 1f06 b83f
00000650: 6c95 748c 766c 913f 2c9b e19a c24a c3bf
00000660: c0d7 7f93 c911 b43f d038 94ae de6e c13f
00000670: d80f de15 1cdf c43f c944 65d2 309f 90bf
00000680: c8bd 2b46 ff60 c43f c52e 7fdb c82f 843f
00000690: 2536 28af 1f88 c4bf 2e4a c69d 0f86 b6bf
000006a0: e2b2 52a2 22d5 b9bf 8486 69cc 7e2a 963f
000006b0: 9330 4e2e d5c0 bfbf c782 bc2c d74c b7bf
000006c0: 22ec 6fcd ffbc a1bf dcd1 7883 c8ce b5bf
000006d0: 51e4 aa7a d917 803f 9337 ae63 da2e c43f
000006e0: 0159 f72d 7823 b2bf 1c83 ff4a 36db b8bf
000006f0: d70d 711f c8a2 913f bb7f e2cf 0382 a9bf
00000700: 952e ece3 82f3 b8bf eacf cabb dc1f 6c3f
00000710: 81d0 90d0 93bb c33f 1a2d f9b4 f62d a9bf
00000720: 38b9 f25d 7fb4 b43f 7669 3e8b 5791 7d3f
00000730: 9313 5a31 f6e7 a1bf 6b7e b6de 9967 bf3f
00000740: a406 eae7 801d b0bf 3f25 6bf5 608b c1bf
00000750: 3caa 6608 f04c 8a3f a065 86e7 7f48 c6bf
00000760: 9261 f334 d74b 953f f09e 7a2c 2b08 98bf
00000770: 61bf b404 d0db b63f e008 25d7 12a1 85bf
00000780: 82da bdd4 1360 5dbf 8114 0eae ff1b aebf
00000790: d288 14a0 523e 85bf b3ac cba6 8fa6 a63f
000007a0: 07d1 3164 8906 82bf d810 577a ddcb 6fbf
000007b0: 98a3 69bb 0eb3 c33f 1836 2875 3343 bbbf
000007c0: 53a4 5a4f 3c3e c23f 6e8f 287e fac0 913f
000007d0: f484 1de9 4694 923f ed0f 70a5 f583 9d3f
000007e0: c001 b13c 94c5 5a3f 3b1f b1cb 7bfc bb3f
000007f0: 1425 4732 bc8e c1bf 37f6 ce47 f2bd ba3f
-0.011450090106525894 0.019410248782714197 -0.09735399662791051 -0.03972089433135618 0.08699752131733077 -0.008016588116142039 -0.0742408440490375 0.08511920288134137
-0.11965807624738438 -0.009317783820462826 -0.06825531469659413 -0.12394725089983906 -0.1593005574762763 -0.025192211270239552 -0.08992810787537908 0.042664849649377945
-0.07899606901516372 0.0782199447522173 -0.11591395756221567 -0.03990680194521442 -0.017559973532073548 0.1125256332426469 0.10562439018300257 -0.12953027522889315
-0.07188176953716524 -0.08954602223829722 -0.0069471696061375685 0.10829155200724212 -0.09721449866641904 -0.17601197581644884 0.17969552182921136 -0.06481570487386457
0.11672232990009082 -0.09168203244015466 -0.07509054676630719 -0.1603492961821711 -0.026125337542873033 -0.059208663044005176 0.10717685145711527 0.054463467360970304
-0.1442753308394605 -0.02976152331459597 0.024127068727368126 0.08130173857798229 -0.036409500033350355 -0.06821056279905587 0.009558662400146675 0.06687216262551726
-0.11245494615525538 0.002203849740181834 0.10571597320197842 0.019096800635832422 0.13013278633373104 -0.07096880097491308 0.05306593196357281 0.020092153675874823
-0.1336415837631191 -0.032404097820732704 -0.013660775158940942 0.042486109065915365 0.06767773679146154 0.006091403445831477 0.04425589652918214 -0.015359926102273977
0.18602935878900648 0.09184933606639618 -0.14209069994181442 -0.013762479423593316 0.11247099793060812 0.0899576554983832 -0.11135933643894327 0.10805824008036231
-0.02151973533176527 -0.09179157237730823 -0.09164223904139997 -0.12226154765684834 0.043447871122009936 0.07675727930754349 -0.030319830450605097 -0.11876936819208608
0.14394508440219408 0.059847233780608466 -0.07170037788132132 0.04511324569353029 0.058969990911493346 -0.02303757529424596 0.14320413160435747 -0.17065651190047693
-0.18905914900298884 -0.08281085903184492 -0.03732386358225757 0.13965749242008238 -0.04958502485550962 -0.04832372456468783 -0.08692051751311723 0.005191638567641474
0.08824592451877601 0.00453761030192356 0.13068754795378407 0.008211457390398429 -0.02937771643234018 0.1038751301771413 -0.010721942491351824 0.1736597885342727
0.10680654885518678 -0.05954420127237627 -0.04297088187174236 0.12766043602261123 -0.043586831611012476 -0.11714436620313315 0.06740459532314318 -0.043491407141572236
0.005690188244709443 0.017422782554550206 -0.06447499966833313 0.0479478010403803 -0.08443466994061415 -0.13348856990891805 -0.13293426633107094 -0.11966376318501505
0.017989527112837 0.022498564867053743 -0.07028529217547307 0.09434769336782624 -0.021887252141521752 0.028482587424768422 0.011051198329850537 -0.04748417808815919
-0.03136053179197111 -0.04477792833275675 -0.07344027752631509 -0.018472154752410614 -0.07016255558027519 0.048720258483149585 0.06033801118465358 -0.003047081202718619
0.05881642360895951 0.016537269079104553 0.08200659653192037 -0.03387546794850406 0.03995787945942749 -0.028229372517837394 -0.06761903125710052 -0.16609671670146092
-0.15750904418165232 0.08521970001662127 -0.09682043866009142 0.016719573937462966 -0.05240409944742181 -0.008820904887730546 0.11157533279908062 -0.1346417872437744
-0.006206377968992436 -0.07119100475520784 -0.08531991302126779 -0.07157554375598818 0.055200822863015336 -0.1425339043059478 0.07366184199183749 -0.07229771572828889
0.0668901970846503 0.0072352205036026965 -0.20152822985613203 -0.15174078101457528 -0.009340653987368542 0.13872360409831064 -0.05114589321600146 0.052952761157523405
0.09046673558285334 0.0777268523665086 -0.04361033309021601 0.02575907744742058 0.07174553996214944 0.010213008863381364 0.13731460853303573 -0.10213430110619272
0.014858444143554113 -0.0603739256650882 0.09530813570024697 -0.057701177474302576 0.10319763047521985 -0.1212515957864764 -0.1632965437817985 0.051144180678696624
-0.025721895577415475 0.029270426788834975 -0.07687117423519724 0.11482128573375955 -0.05836645733510201 0.13942773789515794 0.0945607063791021 -0.06369097323858751
0.08751479851642276 0.021261103674724054 0.013291268503787205 0.024011608758331117 -0.12950386598839933 0.09118854628699434 0.01783790821568006 -0.0804152447109723
0.02976026394182273 0.09384344811085574 0.01701531631728896 -0.15071899950563628 0.0783964142900393 0.13619597935070837 0.16305876796479768 -0.016232264367606306
0.15921011854469058 0.00985676689005944 -0.16040416767684565 -0.08798310853880117 -0.10090843642201322 0.02164648172982321 -0.12403614407065992 -0.09101624338337465
-0.03464507468012125 -0.08518651208652933 0.007857989364639691 0.15767984263623855 -0.07085372087690091 -0.09709491091735994 0.017222525519413025 -0.04982005989700108
-0.09746568741337065 0.00343316185020547 0.1541619079959027 -0.04917880019328376 0.08087917369514208 0.007218687027398798 -0.034972852253338925 0.12267457663846819
-0.06295018827406779 -0.13706600173308378 0.012842059379939312 -0.174087513016997 0.020797121626715383 -0.02346866091707417 0.08929157366651232 -0.01056112975186746
-0.001792926183922156 -0.058807363507221495 -0.010372777471790693 0.04423951064185285 -0.008801530237385181 -0.003881390165334602 0.15390190268524573 -0.10649415598182832
0.14252427935324138 0.017337717008686075 0.018143756845692985 0.028823698256033415 0.0016340205791181978 0.10932134364076955 -0.13716843085266162 0.10446085217605448

lstm.bias_ih_l0 f8 [256]
00000000: 8227 4491 d2df aa3f b741 0ff5 136b 933f
00000010: 0989 f14e 2ed7 afbf 3315 d312 915a bbbf
00000020: ddd6 3289 2a87 bcbf 1d0a dc58 02d9 b83f
00000030: b0e5 f445 bfce 87bf 011d 8417 a089 bb3f
00000040: 005d 0702 6ed3 c1bf f438 12f6 c064 a83f
00000050: e494 3944 7d2d 903f db44 07d0 0455 adbf
00000060: a820 ff86 d818 b43f 9643 47da e3ee bb3f
00000070: eec6 02ef dd71 6fbf ec65 34ae 83d0 983f
00000080: 8aa2 4513 0006 a4bf fbeb d7c2 6869 b8bf
00000090: 577f 038b 22e8 b93f 5e81 e448 ffaa a6bf
000000a0: 1c82 0037 9477 bdbf 8124 1042 8816 723f
000000b0: eb07 faef 02d0 a63f 0789 cb0a 8c31 aabf
000000c0: 5af9 9385 2850 983f fb6c 6548 a64e bcbf
000000d0: 8bb2 a55e adb7 bbbf 3a87 4d4c adad a43f
000000e0: 1467 839b 8390 aa3f 8a57 841c 16b2 9ebf
000000f0: 4742 ac17 f712 91bf cf3c 78c7 87df b63f
00000100: 93cb aae2 c68b 913f 81cc 1dbd 4b0c 86bf
00000110: f024 9506 8b94 a13f ab89 dab3 bfe5 c1bf
00000120: 6417 68c9 f759 bd3f 16c5 b284 1029 ae3f
00000130: 7db5 3c31 1606 b53f a465 6ce5 4d1c 9cbf
00000140: 52be 3315 4e0e 9dbf ebdb 3c22 c417 7b3f
00000150: a300 8bdb 2601 8d3f 1446 2d96 c7f8 893f
00000160: 55c3 b64a 4d87 bbbf 7acf 4629 ba72 a53f
00000170: 26fe defa 7f56 c2bf ad7b 0ee5 536a a4bf
00000180: a3df 7ae1 c8cb aa3f cd7e 9ef9 3772 b73f
00000190: 4001 ef08 4ce8 9a3f 1053 a17d 0dc0 a1bf
000001a0: b8d2 7205 e052 63bf 554e 29bd bc41 ae3f
000001b0: a4cb c76c b1ab a8bf fffd e77b 820f 92bf
000001c0: 242c a765 4cf2 ba3f fc6a cdc6 eb52 c3bf
000001d0: afa9 338f 664e b33f 841f 0149 7b82 87bf
000001e0: 42a5 0590 2f51 abbf 3f9b 4f16 403a b33f
000001f0: d11d 228d dd11 c0bf e875 7cca 4a0f acbf
00000200: fb12 6a78 5cc9 9dbf eb86 032f 964c bbbf
00000210: 1d95 9bb7 3fa3 c7bf 6dc4 3384 0643 9ebf
00000220: 8880 08ce c39b b1bf 383f 98c5 afd7 b0bf
00000230: 9fdc 6457 64a5 aebf 2e7a 70a9 b1ad a2bf
00000240: d2d7 a52f 72b7 a83f 3b51 7570 a266 ba3f
00000250: 26e8 ea28 8062 bebf f28d 9371 1f2a b8bf
00000260: 6dfc 2161 1534 99bf 7974 8c15 6c68 8fbf
00000270: 63aa fc24 64a0 b6bf 7595 3253 6147 a6bf
00000280: 7968 3998 0082 c5bf c3ab 53db 6400 523f
00000290: 3b2e 7e37 ad27 883f 0913 b390 888b b9bf
000002a0: a979 a9a1 ed3b c2bf fb95 4be2 f7d1 ac3f
000002b0: c283 9a9f cc61 99bf 445e 2af2 3e85 8cbf
000002c0: fa29 b872 1d54 81bf 6805 f64e a537 b1bf
000002d0: 9b9c 86ce 9164 b8bf e870 c7d2 a587 c43f
000002e0: f4ff 51e3 73d2 b03f 2c5d ea42 7eb3 c03f
000002f0: 5b41 75a2 f177 a63f 7771 1c47 388e b93f
00000300: cf81 1cb7 8a11 c03f 1a89 5378 dd0e c4bf
00000310: e4ac 9397 3b79 bebf 2e2b fa36 f46c a53f
00000320: 4fe5 29fa 4401 6ebf 78c9 7f52 7b74 c03f
00000330: dca0 ac45 fe35 a93f 8379 a9aa a57b b63f
00000340: 7709 f3a9 ba3e 55bf a634 4a72 94d9 9f3f
00000350: a7d5 09f1 3320 b1bf 02a2 106c 75df a63f
00000360: 994c 6e30 89d2 b4bf 269e 9a24 e5f8 b4bf
00000370: b69b fc2b 3eba 94bf 5679 a2bc ba68 bbbf
00000380: fa1c eec6 eaa7 95bf becd fc0c a6a6 923f
00000390: f7be 9d13 2ec0 8b3f eeed 08f1 5d41 ae3f
000003a0: db8e 7183 828b cdbf c722 ce48 9f3b a53f
000003b0: 2f9e 91df df66 44bf 464e 8065 6122 913f
000003c0: df9c b3f6 9bd2 9abf e29e beac b727 c4bf
000003d0: 8003 0d42 ae09 c0bf 9fc2 87ce b178 c2bf
000003e0: 9e39 3c0a fc02 9d3f cc4d 9cf1 befa b1bf
000003f0: 7828 ab98 6fbd b0bf 2ca8 0c4d 4589 c6bf
00000400: 954d 4eca e626 b8bf 6d82 859f b780 b5bf
00000410: 4085 0962 7cff 953f b55e 1029 c1b1 a63f
00000420: 4e17 9112 9429 bfbf 6825 259a 58f1 ac3f
00000430: b34a 7e49 c0cd aa3f 0ad6 3038 bab7 893f
00000440: df95 3d4b 4f7f a13f 52d6 2676 8c3d b83f
00000450: 976e f16e c519 a4bf 9240 5c61 04df 91bf
00000460: 707b e2cb ad3f ba3f 919d 38e5 80c7 8abf
00000470: 5fc3 dcf4 617c b13f b892 b9ac dbc0 963f
00000480: e4f8 0180 af08 b23f 2eb9 361a 38d6 8a3f
00000490: beb3 6a7a 38bc b2bf a0b9 74fd 015b b2bf
000004a0: 2fcd d738 dbc5 923f ba18 72b4 5239 8c3f
000004b0: 0bfe 75c9 17d0 923f 7b9b 4608 cfb8 a93f
000004c0: 30e5 8a7a 7c6a ba3f 471d 72d5 f4cf bf3f
000004d0: 55e7 7192 3ff3 b73f f54e 0a24 e74e b13f
000004e0: 9325 ead7 12d3 a53f e1cb 2075 d816 a33f
000004f0: 6ca1 9c0d 589a bebf a82c 724d 29b7 803f
00000500: 19ef c410 ccc8 bebf e1b9 18e5 198c 9e3f
00000510: 5040 edbd b4ad b83f bdb4 b5d2 dc6d 993f
00000520: 3b7d c5b6 7464 c0bf 7063 1207 b0de a8bf
00000530: 5dc9 8140 2447 b2bf 4149 a89e a224 b53f
00000540: 06ea 6bf5 bea7 c03f 4246 8071 bb63 89bf
00000550: 4e4f e29c 253a b03f 791f 66b0 5492 ad3f
00000560: db78 898e 4128 c2bf 4844 97ca 71ed bd3f
00000570: 0efa d684 dab5 8e3f 7214 22f7 6ac7 7ebf
00000580: 5e28 37e4 a134 b63f dafb 36b4 a3b1 bebf
00000590: a373 f179 996d a8bf c8b5 0796 e586 b1bf
000005a0: da64 9f4b 9d5f bc3f fafd 5e87 e8e3 a13f
000005b0: 6acd be83 3f84 5dbf 5342 ac24 52c6 b5bf
000005c0: eaf8 4aea b8e9 9fbf 187b fc72 ee55 aa3f
000005d0: eab6 ed9b 01de a33f 857b 4e7b e501 84bf
000005e0: 0a68 3e96 de5f 94bf 7c69 0e79 bbd8 9d3f
000005f0: 6f08 47c2 25aa af3f 2748 23d7 8b77 9dbf
00000600: 01cb 7007 f7fd a83f f737 700a 559f b2bf
00000610: a5b8 b8a2 3c7e c2bf e749 3c12 1175 a13f
00000620: 16d9 c385 f5e9 b13f 3220 71ec a9ec a33f
00000630: 2aa7 15ef 9c81 c3bf 13b2 54e3 bb2d a43f
00000640: cb95 efc7 15bd 91bf 94f4 8d0d de28 b8bf
00000650: 8223 88cb 9756 933f 9b51 b386 cb84 b3bf
00000660: 3e0a 2275 b88e 963f 824a e53f 6746 c2bf
00000670: ec0d e9ed c30c abbf a9ec 1ba7 e0fe b53f
00000680: 82ea f19e ed65 afbf 17d2 7510 238b b33f
00000690: 363e b0fa 37d3 bb3f 40e4 d3c5 517a a2bf
000006a0: 0129 e9a9 1a06 bcbf 3969 9ae5 fda0 c5bf
000006b0: ddd0 7cb2 97f1 783f b077 a0d5 07a1 bcbf
000006c0: 2095 d244 2e66 7dbf 00f6 f06a a2b3 9bbf
000006d0: 5a39 6b12 3d65 a7bf 3a2c 86c3 10fb b7bf
000006e0: 3afb 4e6b d931 9b3f aec4 b7bb ac80 90bf
000006f0: ae5a b01c 0cbf bb3f 7dc1 2623 2d25 983f
00000700: 5e51 ac7f ba24 983f 1db1 10c9 082f 443f
00000710: 850b 4938 9098 b6bf ee68 ab93 b598 a53f
00000720: 841d 3d07 8ff4 adbf 2265 7103 df24 c13f
00000730: 290e 5a82 20a1 b23f fbfa f537 c261 94bf
00000740: 5fcc 5b1d 0abe aebf 43d0 8eda 0666 c9bf
00000750: 6abf 0fc8 2648 9a3f e393 b5ee d17f b2bf
00000760: e573 993d 636e babf 1b7d 88fc 51c8 a73f
00000770: 20d0 6ca0 2948 a93f 0411 7a7c 3ade a4bf
00000780: 9f80 0427 7944 b13f b8eb 1a8b fc62 b1bf
00000790: 20e5 77c9 fddb c3bf cf72 895d 8d28 9cbf
000007a0: 32e7 c49f 572b 88bf 06cd 87c9 cd81 b7bf
000007b0: 8c07 988d fc35 b5bf d647 ca74 9872 7ebf
000007c0: c03f 8a31 aa31 61bf 5a0e 0d31 0c28 b1bf
000007d0: 83c6 ed21 bd86 7e3f c5a0 4f76 0dea b03f
000007e0: 5308 6b55 6bce a4bf 53f8 4f6c 3556 bebf
000007f0: f315 42ae 04b7 b03f 9bba 230c c6d5 a83f
0.05248888037938483 0.018963157493830454 -0.06218857492128122 -0.10685068807204771 -0.11143747186255433 0.09706129712507346 -0.011624807665259279 0.10756874631998771
-0.1392648229509419 0.04764369014547923 0.01579852799331584 -0.057289266962138284 0.0785041169721149 0.10911392287313357 -0.003838475669987732 0.02423291922341335
-0.03910827861074491 -0.09535841710014374 0.10119834798706272 -0.04427335514833673 -0.1151058801920119 0.004416019685785534 0.044555751604107595 -0.05115926391387587
0.023743279602962054 -0.1105750967739602 -0.10827144203876508 0.04038754993849954 0.05188380502086268 -0.029976220598733096 -0.01667390901553947 0.08934830303063566
0.01713476904360396 -0.010765639981150212 0.03433641867975179 -0.1398238781158175 0.11465405146745195 0.05890704746105706 0.08212412550047606 -0.027451722267050407
-0.028374881786417845 0.006614462039400397 0.014162353110237119 0.012681540747197885 -0.10753329347677483 0.04189092401375567 -0.14326476811946626 -0.03987371607876553
0.052336003803645136 0.09158658832756857 0.02627676777388044 -0.03466837080546814 -0.0023588538566293414 0.05909528550241975 -0.04818491413961759 -0.01763728982223078
0.10525968057406537 -0.15096804816388232 0.0754150485624112 -0.011479342618386353 -0.05335377343255711 0.07510757965756641 -0.12554520980141473 -0.054804169862318564
-0.029088444566258236 -0.10663736961171437 -0.18466946091863515 -0.029552556818945797 -0.06878303318126389 -0.06579111646737779 -0.059855590503894655 -0.036481429990307
0.04827458221090776 0.10312857862056017 -0.11869050024952851 -0.09439274332867578 -0.02461274533606821 -0.015335888297665289 -0.08838487532617871 -0.043513337522464925
-0.1680298560411904 0.001098726742663856 0.011794427162178702 -0.09978536160185682 -0.14245386499073945 0.056289430974896214 -0.024787137261799826 -0.013926021352104752
-0.008461217940767252 -0.06725533654937055 -0.09528456966528369 0.16038964073130235 0.06571125316440868 0.1304776980148089 0.043883849221517855 0.09982635246382708
0.12553533497795263 -0.15670364737804549 -0.11903736544234139 0.04184687777622852 -0.003662714692208503 0.12855474022178348 0.04924006081120222 0.08782420555642116
-0.0012966940774253569 0.031103438831043072 -0.06689762720801316 0.04467360443260661 -0.08133752281564667 -0.08192283767368078 -0.020241710123766153 -0.10706679444635844
-0.021148365394336267 0.01821383909482476 0.013550147985113876 0.05909246032066649 -0.2308200017752061 0.041470506322246296 -0.0006226151591705637 0.016732713527814157
-0.0261940354656901 -0.15746208128734113 -0.12529543137682353 -0.1443083055924221 0.028331697582922304 -0.07023232840247501 -0.06539056279430777 -0.17606416952304593
-0.09434359015567957 -0.0839953197914924 0.021482413753237894 0.04432490946072446 -0.12172818616190037 0.05652882463125303 0.05235100648055404 0.012557463493162242
0.03417442124809233 0.09468915829241922 -0.039259118836267586 -0.017452305261997987 0.10253416278508865 -0.013075835223459705 0.0683041785057532 0.022220070283213572
0.07044503092945181 0.01310390310285622 -0.07318451870624096 -0.07170116842164598 0.01833288702432617 0.013781210071340023 0.018371936484525658 0.05023810363791533
0.10318735114824018 0.1242669125659762 0.09355542493167708 0.06761021261109675 0.04262598882366855 0.03728367261682997 -0.11954260189361826 0.008161852527584237
-0.12025142106443489 0.029831318481393757 0.09640054356464245 0.024833155022339726 -0.1280656711996729 -0.048573971617947076 -0.07139803480985081 0.08259025929900067
0.13011919959519974 -0.01239725532653602 0.06338725166488965 0.057757040532179844 -0.14185351810278388 0.11690436550203842 0.014995295695254842 -0.007514398415996758
0.08674060651461121 -0.11989806318068422 -0.04771117795528503 -0.06846461212963739 0.11083396049743346 0.034941927456653546 -0.001801549936300296 -0.08505738635381847
-0.03116501741418968 0.0514368548740462 0.038803148540734814 -0.009769242120283081 -0.01989696304335812 0.02914708067292214 0.06184499737311532 -0.02877634525868458
0.048812598856235574 -0.07274371628611208 -0.14447744317425762 0.03409627292252875 0.06997618213413079 0.03891497622731811 -0.15239297555972914 0.039411422252985905
-0.01732286484538807 -0.09437358694954617 0.018885013387293544 -0.07624504126153513 0.022028810643414547 -0.14277353877931281 -0.05283176688365274 0.08592037277041932
-0.061324525501693664 0.0763418116747022 0.10869169111560315 -0.03608947315110145 -0.10946814201557588 -0.16897557936756316 0.0060897756264248456 -0.1118321320104474
-0.007177525270127633 -0.02705243852346051 -0.045694263933557536 -0.09367470525300883 0.02655734746417269 -0.016115855176342002 0.10838390064632605 0.023579316397162032
0.023577608149098032 0.000615958490134658 -0.08826543211129774 0.04218070438010267 -0.05850645984042571 0.13393771808731808 0.07277110273758382 -0.019904169717388048
-0.060043636401950755 -0.19842610999842422 0.025665861092363164 -0.07226287916053269 -0.10324688199894146 0.046450197293092375 0.049378681977401806 -0.040757968611645295
0.06745106890275786 -0.06791666408655217 -0.15515110337563787 -0.02749844439891796 -0.011801418841617204 -0.091824399663711 -0.08285501915818666 -0.007433505565716167
-0.002098877343378519 -0.06701732823881326 0.007452715681994018 0.06607135904744428 -0.04063735406590809 -0.11850294012398992 0.06529263738965323 0.04850596330822051

lstm.bias_hh_l0 f8 [256]
00000000: 16f6 ae9b 3314 c4bf 305f 7885 fe3f aabf
00000010: 1612 e39d 142c 98bf 59ab b3b4 b028 913f
00000020: 2329 cdf6 581b bd3f 97eb 474e ac58 a1bf
00000030: a29c bee8 aa51 bebf f439 08af f853 a33f
00000040: f9b9 0e04 72b1 bfbf bd71 7be2 a1d9 c2bf
00000050: 8dca 1ca2 7e52 aa3f 9889 0ea0 7896 96bf
00000060: 9c82 fc1b 71e9 903f 72bc b8a5 0ba7 b0bf
00000070: d2b1 c07b 9952 8ebf ec32 1a57 0a05 a43f
00000080: c789 164d 64bd 87bf 8150 a0f4 4b28 9e3f
00000090: 8102 f2d3 7b94 99bf 5dbf 8d5b 41b8 b33f
000000a0: 4b22 0870 8b94 76bf 2f09 8410 7492 953f
000000b0: 0f7e 01e4 4567 c2bf ea11 9715 95b9 96bf
000000c0: 54fe 6461 3187 b83f ed6c 6548 3c24 b3bf
000000d0: 1065 4b3d 4c86 a4bf 2b87 4d4c 664d a93f
000000e0: 4226 1fb9 24fa c6bf 0c75 6ffc 356d c13f
000000f0: 1a21 d60b e857 abbf 65e6 c13b 9ab2 863f
00000100: 0d9a aa8e 4dd5 aabf d68c b890 bd1f aa3f
00000110: c9b6 5abe 64f4 c1bf 78b2 2b61 f881 913f
00000120: 81d1 2fed 402e a9bf 9462 59c2 61f5 b23f
00000130: 4ca5 61a7 8ab7 c2bf 4e19 5bb9 b59e bdbf
00000140: 2edf 998a 1c6e a7bf 1019 ee5e 519a c6bf
00000150: e99f 8e24 db82 b0bf 6aae 741a f10b a9bf
00000160: ae61 5b85 bcb3 c0bf 1c61 72ad d0ad 91bf
00000170: 9c07 8414 9236 ac3f b63d 8772 4647 bdbf
00000180: 2c90 420f 508b b6bf 72c0 30e3 eb5f c2bf
00000190: 48c0 3b82 8821 b83f 08ad 5e02 c438 a63f
000001a0: 8996 2bc0 fd35 bcbf d858 6b21 0623 bfbf
000001b0: 4c34 3813 e86d ae3f a4ff 7c2f 31b2 c7bf
000001c0: 0b6a 2c8d 85bc c0bf 056b cd06 cbb1 c4bf
000001d0: fd9a 3af3 003e 703f 0624 20a9 ed06 bbbf
000001e0: 4569 0124 659c c2bf 3f9b 4fd6 daed b23f
000001f0: d088 774b 1006 ae3f 04ec f894 86f3 9ebf
00000200: 9412 6a78 dbc9 92bf ef86 032f 4c55 b1bf
00000210: 39a9 dcbc 52d4 9ebf 8578 8610 be5d c0bf
00000220: 0a04 4470 56da 84bf ccc0 677a c1ad be3f
00000230: 206e b26b 6a5d bebf e1c2 472b 6e86 b03f
00000240: 6b5f 97be a6f5 883f 9713 5507 079c 7f3f
00000250: fc9f aba3 e532 9ebf ff37 4ec6 f9b3 98bf
00000260: 42fe 9030 7e66 a6bf 6871 4ebd e9a6 b93f
00000270: 1aab 0636 616c a83f ec2a 65a6 3366 92bf
00000280: e8d0 7230 c965 b8bf 4bc5 4ab2 3f8f 9abf
00000290: 83e8 4064 f558 9abf f7ec 4c6f 1d76 b53f
000002a0: d432 2f35 b847 78bf 2f6a b49d 39e4 aebf
000002b0: c183 9a9f ef8d 9abf 3fb4 ba21 8c52 b23f
000002c0: 192a b872 1776 84bf d102 7b27 0d21 c2bf
000002d0: 404e 43a7 c9bb ccbf e070 c732 3c33 c13f
000002e0: fdff a346 fb71 a13f 2f5d ea62 3610 c33f
000002f0: d282 ea44 bcdc 9d3f e039 8ee3 b2b7 99bf
00000300: 2807 725c 67c5 a13f 3524 4ee1 d0de aabf
00000310: 4953 6c28 3712 b73f 70ea 8224 669b b0bf
00000320: 8061 5db0 c08e a53f 0893 ff64 4741 b73f
00000330: bdd7 946e 2451 c4bf 8379 a96a f092 b73f
00000340: 7c3d 8355 95c4 7a3f e7e5 dac6 c302 aabf
00000350: eaea 8418 8b84 c2bf 72d7 fb84 c824 c6bf
00000360: 92ca e406 131b 73bf 0879 6a92 b243 95bf
00000370: d726 ff0a a9c2 b3bf ce1a 760d e154 9d3f
00000380: fa1c eec6 7ee0 9abf 4b66 609e decb c0bf
00000390: e1b7 73c2 0f2a b73f 3848 dc3b d6d5 84bf
000003a0: 873b c60d 92b1 aebf c922 ce48 be9d a03f
000003b0: 0073 0301 3613 9d3f 6f9c 00cb 367e 8e3f
000003c0: 49e7 acbd d8d8 bbbf cb3d 7d19 bd91 b6bf
000003d0: f406 1ac4 a5ea b5bf db54 f8d0 8db2 78bf
000003e0: 7cc6 c3f5 4bf8 98bf b39b 38e3 2438 a1bf
000003f0: 8128 ab58 afcb bbbf aea0 32b4 b656 a5bf
00000400: f59a 9c94 4506 a9bf a4d1 040b bf45 2ebf
00000410: 43eb d977 4aaf 7bbf 542f 8894 579f bd3f
00000420: f8a2 bbb5 6920 983f 6525 259a df05 ad3f
00000430: 9cda 405b f431 b3bf ba6a 181c 8cd3 963f
00000440: b795 3d4b df61 ab3f b7ac 4d6c aeeb a13f
00000450: 6f91 0e11 7c44 ad3f d17e 473d c110 8d3f
00000460: 707b e24b 4608 b63f 4c27 4e39 a1ea a2bf
00000470: 973c 238b de1f bfbf 9e96 36a3 a99a 23bf
00000480: 1507 fe3f 48ed b8bf b728 b93c f5de b3bf
00000490: 354c 9585 cd74 b83f 95b9 747d 0873 bebf
000004a0: 7ee6 6b1c 6bc5 aa3f d4bc 71a9 d226 b7bf
000004b0: 0501 459b 24fa a8bf 769b 4688 a50a a73f
000004c0: f7d6 a82b dc53 83bf 7dc5 1b55 2e5a aebf
000004d0: ab18 8e2d 8fa3 bcbf 5488 addf 9286 86bf
000004e0: 3fed 0a14 ad9e b0bf f865 90fa 1ea8 b53f
000004f0: 1f85 7236 5d25 9cbf ae45 aea9 489c b93f
00000500: 1aef c490 29c1 bdbf 28a3 730d 75b3 a3bf
00000510: 9201 b5f7 c915 993f c3b4 b5d2 101e 9b3f
00000520: 6205 7552 2612 b43f bd8d 491c faf2 80bf
00000530: a336 7ebf 22be ba3f bfb6 5761 cd28 bebf
00000540: 2140 7dad f6f4 7f3f 3df7 cfd1 98cd bf3f
00000550: cfc2 768c db73 9fbf 44f0 cce7 36f2 babf
00000560: ad8e 97e8 a24f 89bf 5e77 d16a 6629 a6bf
00000570: a620 656f 4bf7 bfbf 1621 722f 6c98 b2bf
00000580: 4daf 9137 5574 afbf f003 c9cb d3a9 be3f
00000590: d2b9 f8bc d073 bdbf cab5 0716 d1c6 b0bf
000005a0: 639b 6034 6734 b2bf fb7e afc3 79a5 b03f
000005b0: 88d9 77f0 6f5b 81bf 227b a736 d73f a13f
000005c0: 1f07 b515 2a0e 943f 80c2 81c6 a929 b5bf
000005d0: eab6 ed1b 3866 a43f 49c2 5842 02e3 9c3f
000005e0: 1368 3e96 dffb 96bf 9865 bce1 2a5f bebf
000005f0: cef7 b8bd 8189 a7bf e35b 6e94 6dcd a33f
00000600: a72c c31d 7e08 8d3f d2df c029 6806 9cbf
00000610: a7b8 b8a2 4123 c0bf 0cdb e136 fec7 bcbf
00000620: 16d9 c345 8875 b63f bfdf 8e93 28ac abbf
00000630: 33a7 15ef 60eb c4bf 1859 aa31 5e92 b33f
00000640: ba95 efc7 4b9e 9abf 7c2d c8c9 53d8 973f
00000650: 17f7 1d8d c5ca b1bf 9151 b3c6 41b7 b4bf
00000660: 6e7d b762 f372 b5bf 68ac d500 7899 9a3f
00000670: 6843 7abb 508f c2bf ff4c 9063 4a08 92bf
00000680: 4615 0e61 963c ac3f 2448 d741 e837 923f
00000690: 343e b0ba b68e b63f cf0d 169d af4d bc3f
000006a0: eb51 d2d3 7c93 adbf f648 d32c b775 9cbf
000006b0: 3734 9fec 4337 973f d9bc 03ad 16d9 8bbf
000006c0: cb52 9a48 a5f9 a4bf 0f7b 7835 3d24 adbf
000006d0: 4bce 9a24 7d0b c0bf 3a2c 8683 7567 b8bf
000006e0: 7041 2ce5 c863 bebf cc0e 1291 d239 b63f
000006f0: 42b5 60b9 d13b ab3f 6db0 c988 6846 ba3f
00000700: 7b14 eb5f b3b9 b73f 897a b7b9 dba7 98bf
00000710: f316 92f0 789d a4bf 0b69 ab93 35d3 a13f
00000720: 9713 17c6 331d 7c3f 2a29 8b1b 0744 943f
00000730: 758e 2fed 4b0a 8bbf 68bf fe86 e3e6 c1bf
00000740: 35e6 ad4e 8196 bfbf 47d0 8e7a d276 c7bf
00000750: 2e10 fccd b5b2 b3bf e593 b52e 8f66 b4bf
00000760: e573 99fd 672b b9bf 7be9 43e4 9b19 7f3f
00000770: c1a0 d940 89f7 953f 7f08 3d3e 3f85 bfbf
00000780: 9cbf 7dcc 5aee c1bf 54d7 3596 4ac8 a9bf
00000790: e035 10ed 4e45 b73f 5eb9 c42e aab3 aebf
000007a0: e19c f8f3 3153 b2bf 1f9a 0f93 9439 a2bf
000007b0: 370f 309b 8124 adbf 3652 a6a3 2d39 c1bf
000007c0: df5b e7dc ed4e ae3f 1287 8698 2a82 c4bf
000007d0: c091 f036 dec1 c3bf 3e5f b009 9937 b4bf
000007e0: 1084 b56a 37ac b0bf 4ef8 4fac 80e0 b9bf
000007f0: 16ea bd51 3577 b9bf e38a b8e7 8cd9 9abf
-0.15686650373201932 -0.0512694871833318 -0.023605653893144028 0.016756783513226157 0.11369853997635863 -0.03387964683130134 -0.11843364889374411 0.03775002609846814
-0.1238013515382831 -0.14726661261273746 0.051410634316558214 -0.022058377045718197 0.016515509923126545 -0.06504891200960275 -0.014805983628399941 0.03910095513592701
-0.011591704943218496 0.02945059471683509 -0.02498048287498245 0.07703026280591758 -0.005512756994456479 0.021066487796823793 -0.1437766421613422 -0.022192315523868723
0.09581287982745695 -0.07477165954098881 -0.04008711097930917 0.049418637098609906 -0.1795087722696725 0.13614535165735508 -0.05340504784095597 0.011082844685222424
-0.0524086224225365 0.051023410717130055 -0.14027079863210748 0.017097359591320388 -0.049181012109246865 0.07405673022129583 -0.14622624562188447 -0.11570297026910234
-0.04576195899875156 -0.17658440718896218 -0.06449670450695034 -0.048919233779398066 -0.13048511992998385 -0.017264614664413633 0.05510384083210271 -0.11436882301426618
-0.08806324360426804 -0.14355228989871055 0.09426167659307894 0.04340183762482225 -0.11019884053856734 -0.12162817302609896 0.05943227038015006 -0.1851254922748896
-0.13075322526204078 -0.16167581398152478 0.003965381347063921 -0.10557446841279736 -0.14539779909211795 0.0739418767185329 0.0586400119898528 -0.03022585186247896
-0.018348149513729498 -0.06770778796956355 -0.030106823708743156 -0.12786079222582117 -0.01018207101924597 0.11983880270395558 -0.11861291055031886 0.06455124432228444
0.012187292758355025 0.007717158752090911 -0.029491031756066363 -0.024124052742585885 -0.04375070898867907 0.1002031409429428 0.04770187172410641 -0.01796799376578921
-0.09530312950920783 -0.025937075860104113 -0.02572997497939201 0.0838335415582384 -0.005927772103814195 -0.06033496904474977 -0.025932067982129107 0.07157207320661117
-0.00999086684079935 -0.14163364818343507 -0.22448082606443798 0.13437607268759333 0.034072735188601634 0.14893226461274753 0.029162351328184517 -0.025114817751779372
0.0347091961239257 -0.05248120069797616 0.09012169587033471 -0.06487120047942496 0.04210474160089728 0.09083982673434943 -0.15872626685603378 0.09208586315205562
0.00653513272864303 -0.05080234339170513 -0.14466990182139422 -0.17299753659579725 -0.00466449196237541 -0.02076605814601698 -0.07718903082345761 0.02864410061513461
-0.026247006313067957 -0.13122160657148849 0.09048555848468666 -0.010173486425205977 -0.059948505574644755 0.03245348585830283 0.028393596469743265 0.014889171667233662
-0.10877756720301791 -0.08816129562659751 -0.08561168706549066 -0.006029657335166773 -0.02438467681435562 -0.03363147042937644 -0.10857673563728733 -0.04167719793014278
-0.04887597502811573 -0.00023096043651950088 -0.006758967295918353 0.11571261764782764 0.023561145512675602 0.056685435835400345 -0.07498099544396059 0.02229136392098028
0.05348108094657838 0.035001230927116316 0.05716312130178635 0.014192113573641947 0.08606376030591689 -0.03694633316543036 -0.12158003708758468 -0.0001495678021516304
-0.09737063944160369 -0.07762081844808476 0.09553226958569001 -0.11894276678933687 0.05228743287984815 -0.09043614041160036 -0.04878343959217272 0.04500310219309871
-0.009437294084914323 -0.05928177632257368 -0.11187071668800523 -0.010998866511446583 -0.06492120494197183 0.08459657304083368 -0.027486282776071676 0.10004095213505224
-0.1162286737862214 -0.03847852505879806 0.024497180694426364 0.026481879101471827 0.07840194237816925 -0.008275941837559192 0.10446374106524074 -0.11781009317902667
0.007801974854217548 0.12423091051456665 -0.030715399215923974 -0.10525839957421207 -0.012358925555367628 -0.043284607447943144 -0.12486716718297206 -0.07263828428597593
-0.06143442443212042 0.11977885937905319 -0.11504845250667664 -0.06553370273441952 -0.07111210850471887 0.06502495791891853 -0.008475183988576843 0.03369019071737102
0.01958528287401073 -0.0826669797550128 0.03984237042355494 0.028209719943506326 -0.022445195717956844 -0.11863964091425883 -0.04597096863697879 0.03867666661169957
0.014176354678417559 -0.027368190334726546 -0.12607593961133043 -0.11242665138147973 0.08773090079543908 -0.05404784013029439 -0.16343318628360634 0.07645214760336605
-0.025994476392858103 0.023286160651009066 -0.06950030036201969 -0.08092127896390468 -0.08378525886609164 0.025976061869567607 -0.14499863771609545 -0.01760975105942197
0.055149745318923624 0.01779139425145372 0.0881151395590159 0.11056039414511719 -0.05776586614334519 -0.027792799101754327 0.02267175800061613 -0.01359765735148104
-0.04096714507355655 -0.056917107369590984 -0.12535061156596536 -0.09532865963971995 -0.11871009440461022 0.08681980172883214 0.05319075954353504 0.1026368459658344
0.09267731754069246 -0.024077828607796312 -0.04026391922620389 0.034814523960181 0.0068637869275719665 0.019790755325439204 -0.013203232932887258 -0.13985866633947386
-0.12339027567750167 -0.1833136652400091 -0.07694565085336144 -0.07968993082393146 -0.09831857625381664 0.007592781974603442 0.021452087958466096 -0.12312693852894262
-0.14008650765344732 -0.05035622676488907 0.09090131080321084 -0.05996448346046422 -0.07158195692373993 -0.03559555335214192 -0.056919145768942796 -0.134557442576481
0.05919593164042402 -0.16022236297163112 -0.15435388262370786 -0.07897335516497336 -0.0651278148193486 -0.1010818882641342 -0.09947522397661887 -0.026220513957137547
