models/baseline_vol_model.pth (torch, 786461 bytes, 18 tensors)

lstm.weight_ih_l0 f8 [256, 15]
0	0x3faec77b5709f398	0.06011567533003087
1	0x3fbe0eb13257fc35	0.11741168479055449
2	0x3fb79be75b18f7da	0.0922226521879276
3	0x3fa697edce86b00a	0.04412787576742978
4	0x3fbed5603ce24083	0.12044335829182455
5	0xbfa59567e4cc10d8	-0.04215550105985394
6	0xbfa345f9b4127fc4	-0.037643244964101125
7	0xbfa420b3a7de0a68	-0.03931199478303854
8	0x3fb368c0ac2a6005	0.07581714823970749
9	0x3f9ed74f3ef70dd3	0.030118215768892242
10	0x3f5be42a9d2bdd3b	0.0017023483421193103
11	0x3fa74517c4e9180c	0.045449011599473094
12	0xbfb8054b88feec0f	-0.0938307961904885
13	0x3fb8590d56648395	0.09510882720179688
14	0x3fbe6eac1d746588	0.11887622565372713
15	0x3f9124180d98e6d2	0.016739250020896553
16	0x3f87bc016bf25c2f	0.011589060885212358
17	0x3fb06a8496523f21	0.06412533445313474
18	0x3fa13e5498679350	0.03367866859824764
19	0x3f960dafcd7e078e	0.02153658572888833
20	0xbfaf8f16b3e90dd4	-0.06163855501338458
21	0xbf617abdab67e4b7	-0.0021337227328755664
22	0x3fab0e322e0b8392	0.052842681999897625
23	0x3fa5c7074e5d5940	0.04253409225082061
24	0x3f987c3273c839e9	0.023911274258404367
25	0x3fbe8b0d75c7f5dd	0.11930927396311782
26	0xbfbc7f4982a53b2f	-0.11131724776826667
27	0x3fbb59273107a93d	0.106829118223378
28	0x3faad2c7f9f762c7	0.052389382613630846
29	0xbfa063664591f4ef	-0.032008357994507956
30	0x3fc1430e060ea70c	0.13485884948504923
31	0xbfb45ea1245902f5	-0.07956893098254254
32	0xbfaca05e154cbce3	-0.05591100702292253
33	0xbf75f87af049a45e	-0.005363922337530884
34	0x3fa7d6c57b35a802	0.04656045083068251
35	0x3fb4aad6f5e7675b	0.0807318067885751
36	0x3fc1ec387ee6c3db	0.14002138325079624
37	0x3fc2720ef433fef8	0.14410578655223794
38	0x3faf7c3d38f903f0	0.061494744496037756
39	0xbfa0e0ac5031df6a	-0.03296411971035591
40	0x3faaaf8b0f876b48	0.05212053837359193
41	0xbfb23d0365cc94c4	-0.07124348864870728
42	0x3fa98f65de188eda	0.049922164307899045
43	0x3fb01b5e391b900f	0.06291760343771123
44	0xbf851261bdf53b13	-0.010288966760211992
45	0x3fb455800787169b	0.07942962821752035
46	0xbfc1d675903c8cae	-0.13935727637099177
47	0x3fb5ded17cf4785e	0.08543118763597721
48	0xbf8bc4d9f9966a19	-0.013559058121974709
49	0x3fa5fe85bbd93b7f	0.04295747678826611
50	0x3fb4ead19b036939	0.08170805010323513
51	0xbfa05cc4b6914e98	-0.03195776680572954
52	0xbfb5ec8ccd092ce8	-0.0856407166076455
53	0x3f7829db733b725b	0.005899293162397424
54	0xbfb7f7f0430d94b5	-0.09362699162518846
55	0x3f5ff64aa3171bb5	0.0019508103253984392
56	0x3fb93be511da5301	0.09857017217502674
57	0x3f9bad0c80fe566b	0.027027316449297716
58	0x3fb89f82d8dbceaf	0.09618394655609096
59	0x3fb5844321f1c883	0.08404941157076178
60	0x3fc10e43d9b46446	0.13324783449277983
61	0x3fadb0cdb311e29e	0.05798952876006534
62	0x3fac550592c80e71	0.0553361646343803
63	0x3fbadc4238b1d73a	0.10492338070056642
64	0x3f9adc472fd6eecc	0.026230919165512387
65	0x3fa1a018f4aa2516	0.03442457186344876
66	0x3fbd8df0f17c855e	0.11544710059799487
67	0xbf9936870949130c	-0.024622068349589063
68	0x3f90c98d8e435cf5	0.016393863494923406
69	0x3fb3abf4eebf7ca7	0.07684260205086223
70	0x3f924b2cac2057e3	0.017864892965086098
71	0xbfb4f3d92e9abb95	-0.08184583080104198
72	0x3fa7e49c0e90d77e	0.046666027811098396
73	0x3fb8e85f092d1c41	0.0972957036402571
74	0xbf9468b67fff2871	-0.019930697977351423
75	0x3fb0ef51127e706e	0.06615168286811166
76	0xbfa345961214776d	-0.03764027567579729
77	0xbfa195b258a61d7e	-0.03434521991863003
78	0xbfc28a858eb78fd7	-0.14485234707456016
79	0xbfacb9e9c8b18461	-0.05610590529318738
80	0x3f9f96e9e2251129	0.03084912722376135
81	0xbfad8225c1054af0	-0.05763357144555481
82	0xbf98a04968e51eb9	-0.024048945452959745
83	0xbf9e2caef1613175	-0.029467328531880683
84	0xbfc14cf61afe96d7	-0.13516117399301805
85	0x3fc17092063022af	0.13624787618780007
86	0x3fc2f498ee6cc827	0.14808951989977112
87	0x3fc1b52ae915acd2	0.13834129696929282
88	0xbfa866ac9cdd828f	-0.04765834250315947
89	0x3fa1f4cc070a5cc7	0.03507077775901162
90	0x3faf2efaac7ce3bb	0.06090529780926298
91	0x3fb13f5563de39ba	0.06737264335809004
92	0xbfa92c77a99f80a4	-0.049167384582461865
93	0xbfafda22584997c4	-0.06221110656478815
94	0xbfacf89062c93a8e	-0.0565838928783836
95	0xbfa9dd3c8ab71f9e	-0.05051602547933885
96	0x3f85e251fc48f85d	0.010685577880504999
97	0xbfaa44bd03d76b00	-0.05130568191426299
98	0x3f805fba8f2a5c8b	0.007995088094771915
99	0xbfb76ea22b1d269a	-0.09153188278755878
100	0x3fba6103ec4eeed7	0.10304283637281784
101	0x3fb3f292c5637731	0.07792012518936244
102	0xbfb33c54277a77e5	-0.07513929332569054
103	0x3fa30d5cbade8be8	0.03721132069701821
104	0x3fbed577bbe4f1e4	0.1204447587705953
105	0xbfa890d0630be749	-0.04797984322608657
106	0x3fb1cf3aebe06d1d	0.06956833132465019
107	0x3fab8c6df039411f	0.053805766653228775
108	0x3f9650b7ca178f24	0.021792289457052708
109	0x3fa180374313cff3	0.03418133443656748
110	0x3fb1298cb824a9af	0.06704024787601413
111	0xbfa3bfa6f4a03691	-0.03857156501918014
112	0x3fa83c3c874a6d93	0.047334567561132655
113	0xbfb6c124c93225c5	-0.08888463890084271
114	0x3fa0c5a689fc16cb	0.03275795397170852
115	0xbfb44e65d450effb	-0.07932125504970593
116	0xbf9ada3a387c6e6b	-0.02622309655917691
117	0x3fbba3f272905e37	0.10797038361521848
118	0xbf7ec5d113e837e9	-0.007512871465690887
119	0x3f962f722cd7b4f7	0.021665367114043623
120	0x3fa7b4b5c520618c	0.046300583184520766
121	0xbf8415156e272582	-0.009805838989353392
122	0xbfb800419aa8f5ef	-0.09375391031149836
123	0xbfacbd3ddae2e6e9	-0.05613129898979514
124	0xbfb30278940cf81f	-0.07425645460622875
125	0xbfbe8d38e4f9f329	-0.11934238043063473
126	0xbf975d64aa543c40	-0.022817204376277767
127	0xbfab8cf6653143a7	-0.05380983338603267
128	0xbfc28d0f44b1cde8	-0.14492979864335997
129	0xbfc269feae2e236c	-0.1438597059716601
130	0xbfb7b567f213a829	-0.09261178646161795
131	0x3f55dcd2a4074377	0.0013343865431247584
132	0xbfa292bbcca829e0	-0.03627573846104659
133	0x3fb5b46938ba529e	0.08478410372692699
134	0xbf68baa86e4f54ad	-0.0030186929384209056
135	0xbf74553265de15f2	-0.004964062563777004
136	0xbfb034366f985798	-0.0632967016648237
137	0xbfaf67c87bcf7525	-0.061338677514621666
138	0xbfa9c431b3b382da	-0.05032496756189682
139	0xbfaae823525522e6	-0.052552322197305476
140	0x3fb058eb3a9ef5e7	0.06385679417777333
141	0xbf7c22ed5c205d61	-0.006869246661174473
142	0x3f9c81209b9dc740	0.027836331842485906
143	0xbf88a045598149f0	-0.012024442476250535
144	0xbfa4811337ecf065	-0.04004726464924672
145	0x3fc011540dfc0a35	0.12552881892050186
146	0xbfb5f09c966ae7d3	-0.08570269272141155
147	0xbf6179efd983fd1f	-0.0021333393634673926
148	0xbfb3e50b2494adb8	-0.07771367686353059
149	0x3fb0ee1d90d4d50d	0.06613335405275596
150	0xbfb56c9dbce6cace	-0.08368860113004503
151	0xbfaa5080797dd9c8	-0.05139543040324984
152	0xbf7db8b9f80fe211	-0.00725624698770179
153	0x3fb0b610b8662c6d	0.06527809621745613
154	0xbfbccf737ea81f1c	-0.1125404533596534
155	0xbfb1d38749bb6e2d	-0.0696339182863361
156	0xbf9eb5741b0185be	-0.029989065311729617
157	0xbfb772aafb6c2ed7	-0.09159344328162021
158	0xbfaf30e08e12cdf8	-0.06091977819724187
159	0x3f8150e98e7039f1	0.008455109271406665
160	0x3fac236542d00e9d	0.054957546621179555
161	0xbfc00bce63b00a9e	-0.12536029689370748
162	0x3fa8c4f64b2affee	0.04837770145013552
163	0x3f6cc47d6be51017	0.003511662448689289
164	0x3fc0376434dc65e9	0.1266904123411188
165	0x3fb0648166d8a723	0.06403359185119632
166	0xbfac76854bba7fea	-0.05559174107952443
167	0xbfabceb3f4f75b57	-0.05431139340696827
168	0x3fbc2417ec4d59df	0.10992574233146211
169	0xbf7540fac68a5333	-0.0051889224929666964
170	0x3f951392b44e6a4d	0.020582477812789702
171	0xbfb8f153eaa5ac01	-0.09743236998262718
172	0x3fbf0d7c9ab11b77	0.12129954125076191
173	0x3fab50bebc0f0265	0.05335041089665963
174	0x3f875c3871a0d754	0.011406365363750538
175	0xbfa4a84a97d7130d	-0.04034646132962481
176	0xbfb25f6e27545208	-0.07176865062894688
177	0x3fb5db58578af476	0.0853781903960725
178	0x3fa3a013af537ae5	0.03833066477976902
179	0xbfb77494290b32dd	-0.09162260057491829
180	0x3fbde689d0794ba3	0.11679898585980068
181	0xbfb8d6c645dad67d	-0.0970271988433868
182	0x3fa6f9a507a9fdc3	0.044873387513685546
183	0x3f914463bc440133	0.016862448087523418
184	0xbfaef9a6d2b3a916	-0.060498440952715324
185	0x3fba335694d736bc	0.10234585889630926
186	0x3fb6b4b1a78e7072	0.08869467106564047
187	0xbfb8b388c20091b5	-0.09648947464353948
188	0xbfb0e03a1d7fdbcc	-0.06592143268777234
189	0x3fb54471fcc29530	0.08307564183140381
190	0xbf8da53e978135fc	-0.014475335119779047
191	0x3f94ec72119832f8	0.020433218311199902
192	0xbfa8c77086ac499f	-0.04839660304982662
193	0x3fb45ea17deeae1b	0.07956895184059258
194	0x3fbbadb061592410	0.10811903359093855
195	0xbfb4df10cb664b48	-0.08152871099291048
196	0x3f8d40d7d6fbadde	0.014283834694160665
197	0x3fae13003b3fdd72	0.05873871539364019
198	0x3faed4df147483dc	0.060217829939808815
199	0xbfb884f644457857	-0.09577883879453118
200	0x3fac31f355386013	0.05506859221731033
201	0x3fb69428f498a47f	0.08819824191654567
202	0x3fa44c74075eb6c2	0.03964579191175012
203	0x3fb264ae1d47b6af	0.07184875693175273
204	0x3f81303f3715976c	0.00839280497411795
205	0x3fb31db3daf689eb	0.07467197509553329
206	0x3fb219db322ddf0e	0.0707070348270202
207	0x3fb3713243fa8b26	0.07594598922382242
208	0x3f7ca873948d3edb	0.006996585355252906
209	0x3fb7cf478ec33757	0.09300658450521603
210	0x3fb45415707a0036	0.07940801616678148
211	0x3f89b89df0f70028	0.012559160152591245
212	0xbfb7e001485f2b80	-0.09326179520500766
213	0xbfb93b967b22e59d	-0.09856548792131155
214	0x3fa24c95c326a301	0.035740547248968475
215	0x3fbac88104153f11	0.10462194776232205
216	0xbfb4731fa39f9e16	-0.07988164658274174
217	0xbf9fd24934e5273f	-0.031075614789450198
218	0xbfa197ed62700bca	-0.03436223818427882
219	0xbfb170438026b62b	-0.06811925772373033
220	0xbfbf9eb0db938f8a	-0.1235151802134721
221	0xbfa8e447bc90ac15	-0.04861663986988433
222	0x3fbd0a17f0e553cd	0.11343526488538132
223	0x3f98d63f10b303e0	0.024254784960024867
224	0x3f952209f6406ce4	0.02063766065121521
225	0xbfb23114698eaf56	-0.07106139733394676
226	0x3fb8b34b8aba5856	0.09648582589065433
227	0xbfb25110f94839ab	-0.07154947362889767
228	0xbfb4f73f0d5d3491	-0.08189767910262648
229	0x3fbeb3c32772a348	0.11993045533257629
230	0xbfb6fce914f170c5	-0.0897966076021844
231	0x3f98a3cf23b38dd6	0.024062382272757997
232	0x3fac7f6fd4fbf24c	0.055659765957874
233	0x3fbab4dc38a393c6	0.10432220824038926
234	0x3fbfeb0b4ade810a	0.12468023851261392
235	0xbfc1f434396fcf67	-0.14026501469163152
236	0xbfbed2b9cb7f9324	-0.12040291994305768
237	0x3fa3c09ecf3897ee	0.03857895164064461
238	0xbfb783e6f716070d	-0.09185641796468876
239	0xbf9c8651ec24c4ff	-0.027856140173018847
240	0xbfb740d2e47504f9	-0.09083288266721813
241	0xbf8ec4cbc0d0bc2e	-0.015023795911558304
242	0xbfc183c56fbcec68	-0.13683383899646917
243	0xbf94aa34ac617db2	-0.020180533429422894
244	0xbfb9319caee6f257	-0.0984132697112242
245	0x3f994d68baee5f79	0.024709354791041947
246	0x3fb3530b73b64549	0.07548591208457824
247	0x3fb70d4fdeff04d3	0.09004687494509094
248	0xbfa02a1be7b02a80	-0.03157126620506734
249	0xbfb832882f04a6a4	-0.09452105663208471
250	0x3fa6c760865c04bc	0.04448987617616626
251	0xbfa97a6832e17f1f	-0.04976201649765088
252	0xbfbd00db53ff73a4	-0.11329432297448122
253	0xbfb058f29cb783c5	-0.06385723425002172
254	0xbfb033dadd69e1ef	-0.0632912436066204
255	0xbfab4d77d14f5be1	-0.0533254092221609

lstm.weight_hh_l0 f8 [256, 64]
0	0xbfa1b7c407446755	-0.034605146300420365
1	0x3fa2beb9b58fcd7e	0.03661136952714637
2	0xbf8c8c49a827bc91	-0.01393945259493837
3	0x3fb243087c62400d	0.07133534466470355
4	0xbfb3d496d3728e29	-0.07746260320941957
5	0x3f934d921c50f3d8	0.018850596407208403
6	0x3fbbbbeb33bd4953	0.10833616269272754
7	0xbfaf04052bdd21a7	-0.06057754669615472
8	0x3fb97534c5f05f33	0.09944467384809456
9	0x3fb9a4128ff3e647	0.10015979780646332
10	0xbf83c28a438ff66e	-0.009648399531211296
11	0x3fa2c6d1e9a29f79	0.036673126001288865
12	0x3fa903d3cf2d40ef	0.04885732559216815
13	0xbfb49de634fc2aa4	-0.08053435128764846
14	0x3fb146aca52db936	0.06748465569191783
15	0xbfbfee64247468b3	-0.12473131074912906
16	0x3fb01ac212aa243d	0.06290829616240586
17	0x3fba960f76b3b0cd	0.10385224006649026
18	0xbfc2521cb6984970	-0.1431308642937199
19	0x3f6c4f678cbe497d	0.0034558317619907673
20	0xbfa87864f7baaff5	-0.04779353641546883
21	0xbfbe3de6da821f13	-0.11813204607653587
22	0x3fb4435fdcf83ff6	0.07915305275696469
23	0x3fb6440b1e93517a	0.08697576042624702
24	0x3fb2e89f2a42f96e	0.07386202604081912
25	0xbf9dc5f7040bc8c0	-0.02907548868365306
26	0xbfb52518f40e4986	-0.0825973125304583
27	0xbfae21bda3c14ef5	-0.05885117172206648
28	0x3fb831f64740a7c8	0.09451235999645669
29	0xbfb6a5a8242c1c62	-0.08846522219765654
30	0xbfb1330576d33a78	-0.06718477393153843
31	0xbfc25abc4d1441e9	-0.14339402927045278
32	0x3fb6d81b83f3b4fc	0.08923503848537345
33	0x3fb36416452c36da	0.07574595631396211
34	0xbfc4597e9ea20f15	-0.15898115869287524
35	0xbfc27cd6e6c10193	-0.1444347979286361
36	0x3f99aea45a621434	0.025080268875644587
37	0x3fb90686a9edc96c	0.09775582932141952
38	0xbfaec5798d34406c	-0.06010036324198684
39	0x3f7a8d116bbfeadc	0.006482189226512527
40	0x3fab033751f57715	0.052758911852590774
41	0x3f850604cf4c23ea	0.010265386177268316
42	0xbfaf75e0144c65cb	-0.06144619224341915
43	0x3fa09e231eeb91e5	0.03245649101680551
44	0xbfb618188cb6a811	-0.08630517421138985
45	0x3fa6e3648819bacc	0.04470361863501679
46	0x3fb0d8ba2f4bd1aa	0.06580699591342545
47	0xbfba7b006639ea90	-0.10343935485608768
48	0xbfa30d28af732aab	-0.037209769646854816
49	0x3f81268364314b2f	0.008374239440092161
50	0xbfae4785bdb114d5	-0.059139422803619425
51	0xbf958ae642bbd344	-0.021037671874142974
52	0xbfb244ba48000cb3	-0.07136120088402968
53	0xbfae879f710d9dab	-0.05962846999210155
54	0xbf89f9ac3ab227ff	-0.012683244267709169
55	0x3fac7233397e1e27	0.055558777588029344
56	0xbfbc05110a3baf42	-0.10945230960686295
57	0xbfb536501132c601	-0.08285999698525616
58	0xbf86de1006577fac	-0.011165738290344361
59	0xbf99f234126f5d68	-0.025337995171722666
60	0xbfaf090588fef89b	-0.060615704510824396
61	0xbfbf0a1a23d3ab68	-0.12124789595297403
62	0x3fa7f788ba10b4a2	0.04681041022591016
63	0xbfb75f46758afc74	-0.09129753465366425
64	0x3fc05d2fa318b402	0.1278438135499585
65	0xbfa2518d60e6bee6	-0.035778444365289805
66	0x3fb67128471fa0dd	0.08766414390959505
67	0xbf912ebf54df8ece	-0.016779889636281457
68	0x3fb58f51e21a7441	0.08421813745594965
69	0xbf83989495287863	-0.009568367769187519
70	0xbfbb3da9c644d137	-0.1064096554808359
71	0xbfb7098f1fae0c7c	-0.08998960994181177
72	0xbfa8e8a7214cf2b1	-0.04865000039578627
73	0x3fb5f8419161531a	0.08581933783836995
74	0xbfb967ab53e6cd29	-0.09923811720255017
75	0xbfb910ed833b4228	-0.09791454748052131
76	0xbfb43f0362c811ac	-0.07908650552423663
77	0xbfb84d4f0809bf2f	-0.09492963739625958
78	0xbfc058bf421d8a63	-0.12770834663668315
79	0x3fb493681112e843	0.08037424485056115
80	0x3fb78a294b397dfa	0.09195192419564782
81	0x3fb6161c4eecc22a	0.08627488066554947
82	0xbf95e8dbe28a91e2	-0.021396098806364956
83	0xbfa4ba687528c90d	-0.040484680463480506
84	0xbfb6bb37244d67fa	-0.08879418026245381
85	0x3fb84773ef464043	0.09484028426800344
86	0xbf941eaa93e6a9a9	-0.019648232724344492
87	0x3fbe3782b375c587	0.11803452378605615
88	0xbfb52186d76af6dc	-0.08254282721733425
89	0xbfaef16e6a919ddf	-0.06043572474373681
90	0xbfc13b074c109814	-0.1346139069948441
91	0x3fb5cc164f124569	0.0851453726811734
92	0x3f82902d7bb11bc4	0.009064059579157908
93	0x3f86b3fabc4da441	0.011085471030769624
94	0x3fb4fd5a97c6fb58	0.08199087338924238
95	0xbfaa877cbdcb0226	-0.05181493584450818
96	0x3fb808a68c99fdf9	0.09388199741987781
97	0xbfb0f1401cdbbfcc	-0.06618118958044689
98	0xbf95613b1d1c9689	-0.020878718997798393
99	0x3f9b939897f97067	0.026930221820621016
100	0x3fa4e6b4aee3ef6b	0.04082264552013622
101	0x3fc0409fc2bf661a	0.12697216996348076
102	0xbfb16105fa24ca0a	-0.06788670880340689
103	0xbfb2736887cfff0d	-0.07207349124655256
104	0x3fba5b53676e86e5	0.10295602107228381
105	0x3fbd7a575b3e5b1c	0.11514802911402139
106	0xbf932739f0f7cdb7	-0.018704324085730053
107	0xbfb8bb750cb3c184	-0.096610370255581
108	0xbfb218150bbebce6	-0.07067996536965246
109	0xbfa920dd314a73b9	-0.04907885767645532
110	0xbfae37a2c3a55850	-0.0590182174516235
111	0x3fb18559da2765e4	0.06844102455161011
112	0xbfb31ffa6ec7aeea	-0.07470669941511301
113	0x3f96d1f5a12de5a8	0.022285306894877316
114	0x3fc0a87c35ac68a8	0.13014176007056233
115	0x3faab3d7d7703afb	0.05215334420073777
116	0x3facc9902ec397da	0.05622530527925536
117	0xbfb6e4a40aa98c9c	-0.08942628155050375
118	0xbfaa9515ab0f1026	-0.05191867554779632
119	0x3fb5e946f0bb98e5	0.08559077622666995
120	0x3fc02a49453fbb62	0.1262904728059438
121	0x3fc0bf35dc941559	0.13083527822906652
122	0xbfb22d65a44b8664	-0.07100520382984993
123	0xbf989e4fa234fffc	-0.024041408801394923
124	0x3fac40ec003d6f55	0.05518281462602085
125	0x3fbc6bf4db2b6c55	0.1110222849924168
126	0x3fa07c0cdb33b9ab	0.03219642806822106
127	0x3fbae6591dd816b6	0.10507733324638022
128	0xbfb899f42c5deaf3	-0.09609914858985373
129	0xbfb8a269ad246a10	-0.09622822262864639
130	0x3fc21b389ad23cf5	0.141455722423849
131	0x3fa7677ce14ab1ce	0.045711424352109384
132	0xbfad6401d6584472	-0.05740361920846561
133	0x3fb44a3b5b81fd4e	0.07925768837048006
134	0xbfba40d79b886a8c	-0.10255191371144629
135	0xbfb92763703cbfe9	-0.09825726976555384
136	0xbfbe336d6f04b6f7	-0.11797222099695746
137	0xbfb0ca83a8b033ff	-0.0655901228748945
138	0xbfa84fbf1d042c94	-0.04748341778948731
139	0x3f92a7702aaeb67d	0.018216850857859946
140	0x3fb1c0f6a86aea52	0.06935063945540179
141	0x3fa1f6ac411832ba	0.03508508963213815
142	0x3fc0eadf678e6e87	0.13216774517501426
143	0xbfb1cce6ee09afaa	-0.06953280745955107
144	0xbfb5db9e8150285f	-0.08538237244661805
145	0x3fb2c5cc71a79265	0.07333066725511513
146	0xbfa5ad291f2dfbe3	-0.042336735778910194
147	0x3fbfddb788273181	0.1244768817334201
148	0xbfb57bfb7a1dab3f	-0.08392307025284838
149	0x3f71515f815b1c81	0.004227994029583405
150	0xbfb45f883b0c7886	-0.07958270494097705
151	0x3fc1cc7ac20a9725	0.13905271982837877
152	0x3fa0b432d6f4409a	0.032624806155696365
153	0x3f9eda2447047336	0.030129019579464976
154	0xbf643db71ecc48bf	-0.0024708344047975335
155	0xbf982849cc05a596	-0.023591187551038915
156	0xbf9d176f06d11dd8	-0.028409704962795462
157	0x3fa9ff1b53043516	0.05077443493255822
158	0x3fbc30ca97a1ccc6	0.11011949731782797
159	0xbfa065ef384d4e32	-0.03202769815711938
160	0xbfb4de29d329dfa8	-0.08151494412766047
161	0xbf9959faa3160e53	-0.02475730533980276
162	0xbfb4a26f1b7b5508	-0.08060354634229239
163	0x3fc0fd20e653ecb4	0.1327248692176447
164	0xbf777f9542eb9f7e	-0.0057369070552580875
165	0x3fb1d976e48497e0	0.06972449378062562
166	0xbfb992663d298e82	-0.09989012711735692
167	0xbfb7666fd7adc1bb	-0.0914068128165643
168	0xbfb69abd0327e82f	-0.08829861952827465
169	0xbfb8dc85b7cdef18	-0.09711490380680876
170	0xbf121e36d7d55b75	-6.911477790559429e-05
171	0x3fb46295de9b9684	0.07962929425010584
172	0xbfba0c41a8b4d95b	-0.10174951905068978
173	0xbf6bfbae1f6e4fd5	-0.0034159088931548878
174	0x3fa56137dbff5758	0.04175734100833378
175	0xbfa197cd8268dd00	-0.034361288231986364
176	0x3f987215a8faeb57	0.023872698248605797
177	0x3fae4a7d8c9447b8	0.059162066851186024
178	0x3fa3ea75b9c575bf	0.038898161818660786
179	0xbfa179dc9f015b2e	-0.03413285675985943
180	0xbf9b21dab191e061	-0.026496331298830337
181	0xbfb352fc1ede5912	-0.07548499826075197
182	0xbf808aa5677defe5	-0.008076946469138544
183	0x3f9a7a602b753e3d	0.025857451107468277
184	0xbfb7ac54f5c2b922	-0.09247332572951852
185	0xbfbcfe821bb292cc	-0.11325848747453476
186	0x3fa6db53e38edc40	0.04464208748634535
187	0xbf9dea2fd4768eea	-0.0292136643817135
188	0xbf7cb54341d2414e	-0.0070088031035456366
189	0xbfb44b1a91f446a0	-0.07927099288306261
190	0xbf9047826c6cde1c	-0.015897786967995584
191	0xbfb3722161d44dcf	-0.07596024168406433
192	0xbfb83934ebfe6d18	-0.09462290536469131
193	0x3f9e5690227c530a	0.029627086739384224
194	0x3fbc0ba20ee4bb75	0.1095525060998009
195	0xbfb034ddd4cf7c76	-0.0633066792065494
196	0xbfa730146b16b8bf	-0.045288694450719806
197	0xbfb1c0ccced626f8	-0.06934814500541708
198	0x3f502e4412994252	0.0009875931522353065
199	0x3fb5026aa105c119	0.08206812316143831
200	0x3fb10d059203b2d1	0.06660494627767412
201	0x3fac3f65f297a443	0.05517119013149643
202	0xbfac1713be9c9311	-0.05486356450845709
203	0xbf8201c3f956ea95	-0.00879242996858424
204	0xbfacfbba25fe4d95	-0.05660802568231841
205	0x3f8333a2d06b10d8	0.009375831590098846
206	0x3fb009a219589cc0	0.06264699095537463
207	0xbf825a0949a975b3	-0.008960793076023465
208	0x3fa022aad17e5cdf	0.03151449019713381
209	0x3fb92ed6b088a829	0.09837095079333892
210	0x3fb0a76c0332ddf3	0.06505465581982843
211	0x3fb254dbb4312a9a	0.07160733365268826
212	0x3f98f65236850930	0.024377140596024194
213	0x3fb76dc525bbfb7b	0.09151870890853601
214	0xbf9fa1eecce43e4a	-0.03089116216238911
215	0x3fb40915aae027f4	0.07826362058418096
216	0xbfbd090884e2c50f	-0.11341908687861156
217	0xbfa020f330c7ec86	-0.03150138826819053
218	0xbf9d6d68174f9742	-0.02873766557959035
219	0x3f98a17f4c43e6ff	0.024053563146458675
220	0x3faaf68126456d43	0.0526619300096294
221	0x3f8879a7748cefe3	0.01195078682359702
222	0x3f90f23b6500b15b	0.016549041785922963
223	0xbfb09afef2755040	-0.0648650495471097
224	0x3fbaa7cd8580686f	0.1041229678088784
225	0xbf958a80a83e153a	-0.021036157864292117
226	0xbfbcc8bbbeac2988	-0.11243794827547593
227	0xbfa7648d26954f7a	-0.04568902107226243
228	0x3fbb7bc098e4d823	0.10735706074487487
229	0x3fb8a081b962f523	0.09619913841284648
230	0x3fba6517043a6369	0.10310500958656878
231	0xbfa624a32c59f21a	-0.04324827114485093
232	0xbfb71d437e719852	-0.0902902778339876
233	0xbf9b54097c20c671	-0.026687763405965407
234	0xbfa994dda42ee9ee	-0.04996388081731938
235	0xbf67f5b4a220a7a4	-0.0029247787470198672
236	0xbfbf71ae9409d22f	-0.12282839884012085
237	0x3fa0296e78283b67	0.03156609741937793
238	0xbfb04d9d53c5da71	-0.06368430419193218
239	0x3fa8d76627ed5b10	0.04851836430923673
240	0xbf8a39a2de362bb2	-0.01280524483333587
241	0x3fb38d94d8edd636	0.07637911125296956
242	0x3f7935f7476bfef5	0.00615498154979809
243	0x3fb279010b181292	0.0721588756642382
244	0x3fb47c254d098b5c	0.08001931315224681
245	0xbfb29f7182090210	-0.07274541306197357
246	0x3fabf366f25ffb22	0.05459138592413228
247	0xbf9331249e6af475	-0.01874215332894776
248	0x3fb5c1591c64fa53	0.08498150771354433
249	0xbfb8ac14fa353b91	-0.09637576206772126
250	0xbfb724595504bb1d	-0.09039839101454246
251	0x3fadb84da186cce0	0.05804674717674074
252	0x3fbfcb81f6a52cfb	0.12419903060542829
253	0xbf9705acab03251b	-0.02248258394027856
254	0x3f9d73e15649a4bf	0.02876236046941893
255	0x3fb177222b42ddc9	0.06822408252889213

lstm.bias_ih_l0 f8 [256]
0	0x3fb0b2a143262406	0.06522567643527574
1	0x3f8354c77668e472	0.009439047146871913
2	0x3fb12691d2d0369e	0.06699477574167154
3	0xbfab8267669e69a7	-0.05372927787466902
4	0x3fba21b0d0fe7b16	0.10207657911676579
5	0xbfa68aa177909304	-0.04402641853838499
6	0x3fb7863803798f13	0.09189176640353151
7	0x3fb9ddb4d072d9c9	0.10103921975210207
8	0x3fb1a5f1755dfe2b	0.06893834224137467
9	0x3f921b38317f708a	0.017681959172350527
10	0xbfba66e48bca48eb	-0.10313251889082024
11	0x3fbf38c4303c9c00	0.12195993592887078
12	0x3fc1754e2454f194	0.13639237188352793
13	0x3fb56a6877b8c025	0.0836549083985579
14	0xbfba83508cbce044	-0.1035662025068414
15	0x3face932a61433c4	0.05646665837603096
16	0x3fb1ffdca76f2101	0.07031039321657674
17	0x3fa6a5ff928d0a8b	0.044235216750640204
18	0xbfa16876056c98d0	-0.03400009933675252
19	0xbfa958553188d214	-0.04950205068272254
20	0x3fac325d836f8b2c	0.05507175664367589
21	0xbfb43bf8a052b93e	-0.07904008783473146
22	0x3f9a0bbd7201fc11	0.02543540962551211
23	0x3fbed1db5da7d863	0.12038966213717255
24	0xbfb4619f6b30b7bf	-0.0796146046347692
25	0x3fbc62acc1c65a3b	0.1108806584437411
26	0x3f9c9836c51c7abd	0.027924400120464144
27	0xbf64243c43958078	-0.002458684638142524
28	0x3fc2326caf8b20c6	0.14216383525331916
29	0x3fb2ddbaca8470ba	0.07369582599898453
30	0x3fb5a736c9f3db44	0.08458273344500095
31	0x3fbe7c6bc2d8bb77	0.1190860129070027
32	0x3fa3e6324c721809	0.03886563475775524
33	0x3fba33534f8e44c0	0.1023456639507172
34	0x3fbee8b51b3371b0	0.12073833383641985
35	0xbfb58a474afaac7e	-0.08414121227785817
36	0xbfb7969a5620af5e	-0.09214176752783262
37	0x3fc2109d06eeeaff	0.14113200033701642
38	0x3fa97bd4b56b60da	0.0497728797396932
39	0xbfabc1e1e0f016ca	-0.054213579853280416
40	0xbfbd89e52d07070f	-0.11538536404898657
41	0xbfa4723bfbe34c41	-0.039934038637192255
42	0x3fa838fc4c7e6490	0.04730976518403296
43	0xbf9404ea300d2178	-0.019549998457735168
44	0x3fa319674b524254	0.037303188271043425
45	0x3fb4b96a891bab49	0.08095422599187176
46	0x3fc08085f43aeab9	0.12892221856403355
47	0x3fbad991a7f55368	0.10488233900589494
48	0xbf80d2209c2239e2	-0.008213286175558335
49	0x3fb31ea31c36cef0	0.07468623579807931
50	0x3fc1e7d037ec157a	0.13988688211990646
51	0x3fb2888ce207bfc7	0.07239609258954181
52	0x3f81c2efc92f7de6	0.008672593428797403
53	0xbfa7c0bde7096518	-0.04639237828514292
54	0x3fb58f91d81d54a3	0.084221949827525
55	0xbf97683f040c1daa	-0.022858605024365687
56	0xbf89bb7521a86ebc	-0.012564578141840747
57	0xbfa7421c119cbe27	-0.04542625155442819
58	0xbfaf0df3df32b656	-0.06065332507692449
59	0x3fc299c07c132694	0.1453171354135533
60	0xbfad6c62c3c476fa	-0.057467543027298576
61	0x3fb207cbfcf29e13	0.07043147016030842
62	0x3fb906e8424cdf31	0.0977616464486999
63	0x3f99d986f519f612	0.02524386282902042
64	0x3fc20a1548dee6be	0.14093271310939842
65	0x3f77993b705d3992	0.005761367972651492
66	0xbfa8aa1345197f87	-0.04817257135869029
67	0x3fb64e9fadbe2d45	0.08713720313806046
68	0x3fc1898a2247b1b1	0.1370098750479776
69	0xbfad014f336412ab	-0.05665061476068919
70	0xbf9959a8d36a1275	-0.024756086257655647
71	0x3fc18b08518efac0	0.13705543501233386
72	0x3f9475c7e8767976	0.019980548442271005
73	0x3fb1009104f0705f	0.06641489382349296
74	0xbf910bb8d75d747f	-0.01664627851947786
75	0x3fc2b1de11d14ba4	0.1460530840873534
76	0xbfb5f04387f524a1	-0.08569738454129318
77	0xbf995924ad97b927	-0.024754117102866815
78	0xbf90c774951be064	-0.016385861969837726
79	0xbfb079ca2f33dac5	-0.06435836460500884
80	0x3f9b99ed6ffbcc1e	0.026954374275146013
81	0x3fbc467863d5b805	0.11045029103635791
82	0x3fb233fd87b00fa0	0.07110580980957915
83	0xbfbd7a0663df786c	-0.11514320314697252
84	0x3fab7db9db6dda23	0.053693588290958404
85	0x3fa5d76600ba0654	0.04265898474569654
86	0x3fbc420ca0dd32bc	0.11038283278794386
87	0xbfb40db5b166d3e8	-0.07833419400306207
88	0xbfbea270696e798c	-0.11966612409603367
89	0x3fa2e2acc88cb05d	0.03688564251055546
90	0x3f643f89ca50aa55	0.002471703645388327
91	0x3fae66fb85491008	0.05937944414156965
92	0xbfaf9e1589eca270	-0.061752961241215654
93	0x3fb80ff9cdc91ad7	0.09399377130567231
94	0x3fa8c5ff6f0fffae	0.048385603244241224
95	0x3fa2ae75c19d7ca4	0.03648727405993071
96	0x3fc149546a779795	0.13505034636108051
97	0xbfb13eb187a24123	-0.06736287652370669
98	0x3fbe65ec0771de9e	0.1187427061248578
99	0x3fb90e72e96ecce0	0.09787672232669165
100	0xbfb64c47830408d3	-0.0871014304030127
101	0xbf96551e6b6d5803	-0.02180907755549556
102	0x3fa5c1e26d86e0ec	0.042494846219996635
103	0xbfac9c55e5fbecef	-0.055880245517949116
104	0x3fb471753cbb2c61	0.07985623104757301
105	0xbfa34f5cbe0a84ea	-0.03771486110532314
106	0xbfbc4b80c8ab4dde	-0.11052708529614771
107	0x3f9740c79a1aa499	0.022708052426115264
108	0x3f94b7cda47a7951	0.020232403911557843
109	0x3fbde7665f992dca	0.1168121322054311
110	0xbf9aea249a604946	-0.026283809587831962
111	0xbfa31b938d094ce9	-0.037319766012524465
112	0x3fb08ea9d9a9ef3d	0.06467687191064626
113	0xbf80cb3a5363a2df	-0.008200126333080813
114	0xbf9695ccd0c7dfc1	-0.022055816882101235
115	0x3f9895b502897747	0.024008587150425666
116	0xbf6acfca5ee49fc1	-0.0032729103615060933
117	0xbfb14fd126429262	-0.06762416061480672
118	0xbfbd538ad8066f31	-0.11455600523043753
119	0x3fbfa860e343836f	0.12366300152235764
120	0xbf8627ad2a4dc59d	-0.010817864278325479
121	0x3f90f37c42c8978c	0.016553823066849868
122	0x3fc35081e0a6a7f8	0.15089438885962614
123	0x3fa8b4ae51b28bd0	0.04825348613055491
124	0x3fb0514eba8e2e00	0.06374065451216637
125	0x3fb60454f13992c8	0.08600359811095892
126	0xbfa509052e4cba15	-0.04108444395238934
127	0xbf9cde863392ecc1	-0.02819261255056627
128	0xbf9ea52255b39720	-0.029926811676794007
129	0x3faa14bd2c5eee1d	0.05093947569499966
130	0x3f737c7e82fcae81	0.00475739878292425
131	0xbfc17876c3abb5d9	-0.1364887671874573
132	0xbfb4d652c8fe2b22	-0.0813953152375402
133	0x3f9252340798fd30	0.01789170547840263
134	0x3fa5117206d00456	0.04114872296487053
135	0xbfc32c39e0e0c586	-0.14978717308398987
136	0xbfab47c8e526e268	-0.053282049152987565
137	0xbfb7d3f0281e453f	-0.09307766894769019
138	0xbfbd2c85e6eda875	-0.11396061790370189
139	0x3f81915501619be2	0.00857798014130923
140	0x3f7f0e48902ef5c6	0.00758198113447634
141	0x3fb2bfd639a327b0	0.07323969752465476
142	0x3fbdcb304290ba15	0.11638166070108753
143	0xbf5b9019a55d80bc	-0.0016823053788002492
144	0xbfc1409541b26e9d	-0.1347834177766928
145	0x3faab8565e38a88b	0.05218763256228084
146	0xbfbef49efa3100e0	-0.12092012031735377
147	0x3fa55028c41e7667	0.04162719148665133
148	0xbfb69a9c01cacce5	-0.08829665225748647
149	0xbf86500411baa607	-0.010894805708931988
150	0xbfbd29b3725271a1	-0.11391755620065293
151	0xbfa164a4affde033	-0.03397097252212724
152	0x3fa3e4fa325415ec	0.038856333392725734
153	0xbfc2b76f3c5fdd69	-0.14622297714206958
154	0x3f7ada9425fa8799	0.006556109146602562
155	0xbfb6284421296bcd	-0.08655191239942824
156	0x3fb021c18043c067	0.06301507359944623
157	0xbfbc5bba4ad019d3	-0.11077465368735
158	0xbf8520a9e6c41a0e	-0.010316207270546076
159	0xbfb03158af72d958	-0.06325296672261993
160	0x3fa4c7189350c986	0.04058148191724613
161	0x3fbb63c3fac1dfca	0.10699105140690715
162	0xbfbce9d194b5aa9a	-0.11294278984648046
163	0xbf9b5107eb55645f	-0.026676295984860206
164	0xbfb00f4634ef4b2b	-0.06273306648590153
165	0x3fa35aa077eb8876	0.03780080283992586
166	0x3fc0cc90d1a09be9	0.13124284969055047
167	0x3f9ab77514667eb9	0.02609045922292694
168	0x3f800cc6581c2969	0.007836865962890642
169	0xbfc0eb99aa80c063	-0.13218994927729275
170	0x3fb859e3c8bd0461	0.0951216092189653
171	0xbfa21b598d8926b6	-0.035364912535965784
172	0xbfb49581c1f146a4	-0.08040629372524194
173	0xbfbe82e48a948ba9	-0.119184764702864
174	0xbf98c6204e0bb32b	-0.024193291438609748
175	0x3fb3fa2a14463c7f	0.078035955381198
176	0xbf9905a765ab986d	-0.02443563039823753
177	0x3fbfb3f16549e407	0.12383946154467661
178	0xbfc2e9184061a092	-0.1477384867059795
179	0xbfa09d0dacb82719	-0.03244822247877561
180	0xbfbf45165f2aabc4	-0.12214793990521772
181	0xbfb2b19c009a412d	-0.0730226041289412
182	0xbf802e3358eaa04b	-0.007900620604530803
183	0x3fc0b9202f19dbc7	0.13064958858350748
184	0xbfc1dfd9225c82b5	-0.13964380433846704
185	0xbfc221b6b7fb2fd0	-0.1416538618417449
186	0xbfc392d4376a71ce	-0.15291836458062708
187	0x3f91210794bd6921	0.016727560475694795
188	0xbf7e22f9229813d9	-0.007357571777451854
189	0xbfc364d8d35e48c0	-0.15151510544507651
190	0xbfb70aac5f46d97c	-0.0900066120728748
191	0xbfa144b53a5adc07	-0.03372732484188395
192	0x3fb69c603e7ed7cc	0.08832360769051134
193	0x3faa511b54b686ae	0.05140004548162601
194	0xbf8b74dfdf6a1633	-0.013406514173094219
195	0x3fbf75f5ff6f7889	0.12289369093147874
196	0xbfb630dae8b691c1	-0.08668296987031622
197	0xbfbb6c2e08ec02aa	-0.10711944310970503
198	0x3f99f9e6706d5139	0.025367355930329103
199	0x3fa2f3d606984231	0.037016571335815825
200	0xbfb1ec03d526673a	-0.07000755266053896
201	0xbfb10483abadb292	-0.06647513333673263
202	0x3f983329190d3a8e	0.02363266196635521
203	0xbf720d5eb819124d	-0.004407281872378888
204	0xbfb394db2a855a2d	-0.07649011409862601
205	0x3fc234c5919e5f76	0.14223546610150678
206	0x3f9caf98e386a2e0	0.028013600241737602
207	0xbf9b7f71a5098b1e	-0.026853347490383254
208	0xbf63283d56dd70f8	-0.0023385236772083227
209	0x3fb544f37819c1d0	0.08308335954803359
210	0x3f7666321c364bac	0.005468555205328334
211	0x3fb10202acfe322d	0.06643692706547517
212	0xbfae04954ca41f4f	-0.058628717046359406
213	0xbfbddfb5a26ed47e	-0.11669478622100546
214	0x3fb499a85bfadb3d	0.0804696297226259
215	0xbfb071214234c0b3	-0.0642262255321409
216	0x3fbfb9ef90d47799	0.12393090520751428
217	0xbfb3bb3c99e55494	-0.07707575566503727
218	0x3fb95a96e87093ac	0.09903853583143868
219	0x3f9b45219b98d487	0.026630902406584524
220	0xbfaa6f551719a788	-0.051630648679590385
221	0xbfa5db252501430c	-0.04268756939621285
222	0x3fabaef3781a9e96	0.054069145594721466
223	0x3fb0d5fba4b29fa4	0.0657651211828339
224	0xbfa6304848b6d125	-0.04333711516975062
225	0xbfa992be5cc1dabd	-0.049947689841180566
226	0x3fbb2ef76836409c	0.10618540090786371
227	0x3f9fde8ad2c1d05a	0.031122368920890466
228	0x3f97f8568a8d4162	0.023408271986512637
229	0x3f9fc1fc00b3218e	0.031013429205616165
230	0xbfb7c9a831201e60	-0.09292079161979805
231	0xbfbdd488113c0b06	-0.11652422352566924
232	0xbfb4dfa76f7a62fc	-0.08153768989212645
233	0x3fc05ce51af8e45b	0.12783492867473253
234	0xbfb3ef4eecbc9524	-0.07787030486777674
235	0x3fb6227670e12d02	0.0864633584580368
236	0x3fa2c46b0fafd670	0.036654802002812015
237	0x3f77bc60a9586070	0.005794885238650335
238	0x3f9f38a1dc1b6746	0.030489472445743425
239	0xbf98e14c520cac02	-0.02429694414892581
240	0xbfa07af6bc49ee18	-0.03218813942381987
241	0xbf67100ebc8e049e	-0.002815274030979766
242	0x3f9947c447f3130d	0.024687830821466018
243	0xbf9fbf16308e648b	-0.031002375329624726
244	0x3fb859aa5be01295	0.09511818640755572
245	0x3f9c7c20923dff37	0.027817257810510667
246	0xbfc1138d76a98058	-0.1334091977505547
247	0xbf8cf9d685834958	-0.014148403119553052
248	0x3f970f35045e0291	0.022518947974733697
249	0x3fae32d569e4632d	0.05898157994869844
250	0xbfad8bd5f0f0b7e5	-0.057707486783655594
251	0xbf9040e2dca0e32b	-0.015872521129696764
252	0x3fa43b4f379c1883	0.03951499513463921
253	0x3fa0ddb89afb3b05	0.03294159786093157
254	0x3fa264a1b0f11c1e	0.03592400822577012
255	0xbfb0d0f48e48b154	-0.06568840478639021

lstm.bias_hh_l0 f8 [256]
0	0x3fa4e827064c4824	0.040833682555004
1	0x3fa6b660dd9a3926	0.04436018662555545
2	0xbfb4d3336d2fc961	-0.0813476697510729
3	0x3faa76b199619659	0.051686811421671926
4	0x3fc0d5c9087f3d75	0.13152420916456334
5	0x3fba77048437b66f	0.1033785651013319
6	0x3fc0f44f21bcc755	0.13245572230658334
7	0xbf9f6a12be349926	-0.030678074702472767
8	0x3fa787926abbfc25	0.04595620682629712
9	0xbfc0b02779d011fb	-0.1303757996357858
10	0x3fb79eb97435b715	0.09226569258836677
11	0x3fb67916b03c9c00	0.08778516581206475
12	0xbf890ea7bab0e6e1	-0.01223498381124294
13	0x3fc1c2929bdc6017	0.13875038729088437
14	0xbf96a19132f38123	-0.022100704893888278
15	0xbfb8e5592cf5e62f	-0.09724957797688981
16	0xbfae96fa3121be2e	-0.05974561547997968
17	0xbfb777e936b97ac0	-0.09167344652221754
18	0xbf96ea420ad931bd	-0.022377998268255917
19	0x3fa3ccd14e772dec	0.03867200930434564
20	0x3f86c65e0dbe2c79	0.01112054328384303
21	0x3f95e9c07eb51b61	0.02139950536118407
22	0x3f972e667201fc17	0.02263794012878514
23	0x3fbb357bdda7d863	0.1062848487998465
24	0x3fbb036094cf4841	0.1055202830605433
25	0x3fb5a45d41c65a3b	0.08453924995260646
26	0x3fb255ad31471ec3	0.07161982014724359
27	0x3f93beb8778d4ffa	0.01928222875297079
28	0xbf916ca683a6f9d8	-0.017016031060615194
29	0x3fc116e685423869	0.133511366908752
30	0xbf88394fb0612666	-0.011828062601256305
31	0xbfb204ea7d274489	-0.07038751178267168
32	0xbfba754019c6f3ed	-0.10335159901929077
33	0x3fbf8e230f8e44c0	0.12326258783129429
34	0x3f11916ccdc6e4a7	6.701685510436765e-05
35	0xbf84c6ea57d5642c	-0.010145026021449587
36	0x3f8cd94d4efa854e	0.01408634564660596
37	0xbf9b14c6c888a917	-0.026446443547834066
38	0xbfb91cc6654a4f94	-0.09809532139689586
39	0xbf8518f183c05bd6	-0.010301482041581805
40	0x3fa6cdf125f1f1fe	0.04453996265599257
41	0x3fba5c76c20e59a7	0.1029733871240298
42	0xbfa994c933819b70	-0.04996327165354486
43	0x3f8e23459fe5bd2b	0.014715713445836961
44	0x3fa34d714b524254	0.0377002148098923
45	0xbf9d776adb9152c4	-0.028775853778216356
46	0x3fa06a6ed0ebaac6	0.03206201839733107
47	0xbfa3e638301558d3	-0.038865810269884137
48	0x3fbbe1be6c7bb8cc	0.10891332767980372
49	0x3fb3386fdc36cef0	0.07507990957565958
50	0x3faa2c64dfb055c7	0.05111994963241844
51	0x3fad7298c40f7f81	0.05751492875401621
52	0x3fbdb71b3925efd0	0.11607523102969641
53	0x3fb66afa0c7b4d70	0.08756983570792953
54	0xbfc118d213f155c6	-0.13356996511235603
55	0x3f4cc5bf7e7c4e83	0.0008780655889232967
56	0x3f9688166f2bc8ba	0.022003508124676975
57	0x3f6f545ee6341cdd	0.003824410772384475
58	0x3fb9d38a5066a4bf	0.10088409865297175
59	0x3fb8e8d678264cc4	0.0973028224309927
60	0x3fa76dc63c3b8906	0.04575938687573182
61	0x3fc17b37be794f01	0.13657280731660396
62	0x3f9497e809337cff	0.020110726892082372
63	0xbfb630acc2b9829d	-0.08668021921176679
64	0xbfa292f45c84647e	-0.036277424138639866
65	0xbfb30cd488fa2c7e	-0.07441452354594166
66	0x3fa9df6abae68079	0.05053266078471181
67	0xbfa495cda483a571	-0.04020540841322429
68	0x3f9250e8123d8d19	0.017886758912379983
69	0x3f70c9ee64df6a5f	0.0040988266245799146
70	0xbfad801ee9b50911	-0.05761810877676699
71	0xbfb0405e9ce20a79	-0.0634822018637723
72	0xbfb4994f05e26191	-0.0804643048635454
73	0x3fa1c16b09e0e0b3	0.03467878814302718
74	0x3f9a208b28a28b8e	0.025514768939170866
75	0x3f6c3aec7452ee3a	0.0034460657357991116
76	0xbfb6f5d647f524a1	-0.08968867546822647
77	0x3fb009a1149a11c1	0.06264693024610947
78	0x3fbb4fc65ab907ed	0.10668601717864563
79	0x3fb4bc61d0cc253b	0.08099948260873628
80	0x3f95529d6ffbcc1c	0.020822963676391124
81	0x3fb19e4823d5b806	0.06882143854974751
82	0xbf8539e5c27f828c	-0.01036433696566632
83	0x3f854be0e1043c43	0.01039863287635801
84	0x3f790fe6db6ecfff	0.0061186807496831355
85	0xbf9bf995fe8bf359	-0.027319282208725457
86	0xbfb3a0dcdf22cd44	-0.07667332122473619
87	0xbfb615c53166d3e8	-0.08626968818755609
88	0x3fbea86d96918678	0.11975750852573153
89	0xbf91da7e6ee69f36	-0.01743505050549673
90	0xbfc073aaf8d6bd45	-0.12852990293820646
91	0xbfb0fcf77d5b7809	-0.06635996637803045
92	0xbf9849e113d9451b	-0.023719326817006264
93	0x3f741608dc91ac69	0.004903826346985254
94	0x3f9ee170de1fff5c	0.030156863744195447
95	0xbf8a1d8ef98a0d3a	-0.012751690855344767
96	0xbfb7327fab10d0e2	-0.09061429907234556
97	0xbfa614c30f44825f	-0.04312715112087483
98	0xbf7ae2a788e21935	-0.0065638107609003364
99	0xbfb8c25396913320	-0.09671518732029627
100	0xbfb6bd8c030408d3	-0.08882975648524231
101	0xbf805850d6daafe8	-0.00798094897921682
102	0xbfa05e7612791f16	-0.03197068191053469
103	0xbfbdb98f32fdf664	-0.11611266131327508
104	0xbfab53ff0689a718	-0.05337521509939175
105	0x3fc0e53a907d5eae	0.13199550681269073
106	0x3fb168b53754b221	0.06800396538592014
107	0x3f8413bf34354904	0.009803289204374462
108	0xbfa3c1a22dc2c360	-0.03858668144801558
109	0x3fbcd0361f992dca	0.11255205413288319
110	0x3f8ce7accb3f6d3f	0.014113759949330727
111	0xbfa5b5aa8d094ce7	-0.04240162822375187
112	0xbfb5e4d7a65610c3	-0.08552310763303965
113	0x3fb6440675938bab	0.08697548265949588
114	0x3f876a485e7040ab	0.01143318689540281
115	0xbfab4bae7ebb4438	-0.053311779947428695
116	0xbfa1cae7a5ee4a18	-0.034751166348673646
117	0x3fb94dd5d9bd6da2	0.09884392324368332
118	0xbfb45524d8066f2f	-0.07942419313479541
119	0xbfa31f1db978f91d	-0.03734677208966473
120	0x3f990adb6ad91d41	0.02445547904633583
121	0xbf583dfbd3768851	-0.0014796218145894
122	0xbfb1b0f53eb2b006	-0.0691064146109853
123	0x3fc151c1d46ca2f2	0.13530753013880986
124	0xbfb3b5834571d200	-0.07698841519761146
125	0x3fbcd83af13992c8	0.11267441167144476
126	0x3fc08b46d46cd178	0.12925038692777568
127	0x3f8d55c598da26a7	0.014323753096749782
128	0xbfc0b8762ab672d6	-0.1306293209608131
129	0xbfb681a969d088e0	-0.0879159816109083
130	0xbf455bcbe81a8cd1	-0.0006518121374096357
131	0xbfc12d4363abb5d9	-0.13419382445083164
132	0x3f982513dc075327	0.02357893972824168
133	0xbf966cf5f86702d5	-0.021900027548101903
134	0x3fbacf7ac3680201	0.10472838659917018
135	0xbfa0b41d038315bf	-0.03262415569183074
136	0x3fa15b869ad91d96	0.03390141144023599
137	0xbfa56de4503c8a6f	-0.04185403327416714
138	0x3fb1cd871912578b	0.06954235422230519
139	0xbfbad2899fd3cca7	-0.10477504875216202
140	0x3f936942240bbd56	0.018956216287674486
141	0xbfc24fae032e6c2e	-0.14305663256968287
142	0x3f749ee0290ba189	0.005034328104308713
143	0xbfb64c43a6957605	-0.0871012002657708
144	0xbfbda2e40364dd5d	-0.11576676447736163
145	0xbfb90c3050e3abdf	-0.09784223532521662
146	0xbfaf8eee74620178	-0.06163735552491095
147	0x3fb9fc1a620f3b19	0.10150303739576962
148	0x3fc1f90c5f1a998c	0.14041285175080664
149	0xbfb62262423754e5	-0.08646215550045928
150	0x3faa71871b5b1c9f	0.05164739808020013
151	0xbfbd364ed7fef00e	-0.11410992406212037
152	0xbfb56342e6d5f524	-0.083545857769384
153	0xbf64543f17f7592c	-0.0024815780923105515
154	0x3fb4ab82425fa866	0.08074201698733105
155	0xbfa3431cc252d78e	-0.037621401520865225
156	0xbfbcc5b67fbc3f99	-0.11239185923136431
157	0xbfc12fbb65680ccb	-0.1342691655300768
158	0xbfb12084fcd88345	-0.06690245793334977
159	0x3fa6bb43211a4d6c	0.044397447386610306
160	0xbf92c6eed95e6ced	-0.018336994187490175
161	0xbf5667c14f880e12	-0.0013675105857381448
162	0x3f956fd5ad2955cf	0.020934427923142537
163	0x3facf6c50a554dda	0.05657020331514291
164	0xbfbc73a4b4ef4b32	-0.1111395780310829
165	0xbf7e1d1040a3bcd7	-0.007351935850450539
166	0x3f9c977b8d04df4f	0.02792161033832424
167	0xbfa56e4df5ccc0ae	-0.04185718179212593
168	0xbfa67c8669f8f5a5	-0.04391880076989744
169	0xbfb88c17550180c3	-0.09588762116755149
170	0x3fb491e148bd0461	0.08035095239485336
171	0x3fbc7bcb793b6c9b	0.11126395902413082
172	0xbfb9c48ec1f146a3	-0.1006554816715615
173	0x3f842859ab5ba26a	0.009842587034158263
174	0xbfb652955382ecde	-0.08719762123921579
175	0x3f9c2f595118f1f2	0.02752437169532302
176	0xbfac01edb2d5cc23	-0.054702213364088224
177	0x3fc121d1f2a4f210	0.13384460780970686
178	0xbf88a348061a0858	-0.012030184446533962
179	0xbfa8061b2cb8271d	-0.04692158623590912
180	0xbfa5f86f3e555750	-0.04291103015809361
181	0xbf95457f02690495	-0.02077291919909337
182	0x3fb1883d94e2abe0	0.06848511586092298
183	0x3fb17d5f9e33b751	0.06831929790834336
184	0xbf7434d04b905866	-0.004933179524433928
185	0xbfb213322ff65fa4	-0.070605408391542
186	0xbfbbeaf6aed4e3ca	-0.10905401008939389
187	0x3fba8c2ee52f5a46	0.10370152564369403
188	0xbfb2af799229812f	-0.07299003427897753
189	0xbfc21eeaf35e48c1	-0.14156853564469965
190	0xbfb07dce9f46d975	-0.06441966427414576
191	0xbfc2cdd46e96b700	-0.14690642738190007
192	0xbfa9ddc483025054	-0.050520077698053584
193	0x3fb94bab6a5b4356	0.09881087633699556
194	0xbfb89a55bbed42ca	-0.0961049636655488
195	0x3f43a57fb7bc43d1	0.0005995629903471305
196	0x3f9925085d25b8e0	0.02455533093000717
197	0xbf9d8c9a23b00aa3	-0.0288566669733067
198	0x3fb0683b1c1b5460	0.06409043728065589
199	0x3f942e7e0d30845a	0.019708604388260255
200	0xbf9f810854999ca8	-0.030765657580926004
201	0x3fb5adc0d4524d6e	0.08468251403455948
202	0xbfbc69f5b9bcb15f	-0.1109918192348167
203	0x3fb3b67dd47e6eef	0.07700334966505883
204	0xbfa2b316d50ab448	-0.036522592073517546
205	0x3fb3aa61a33cbf0e	0.07681856379781157
206	0x3fb6464478e1a8c8	0.0870096964951329
207	0x3fb8d27396bd9d34	0.09696123533432371
208	0xbfa41ac5d56dd715	-0.03926676016173595
209	0x3faea9b0703383cc	0.05988837594646376
210	0xbfb88174de3c9b40	-0.09572534967138058
211	0x3f994aa9b3f8c86e	0.024698878869636003
212	0x3fb0a48119adf03c	0.06501013638438818
213	0xbf80ab7b1376a3ea	-0.008139573604084977
214	0xbfa79bf9c80a49cb	-0.04611187521836121
215	0xbf9cd5b808d302db	-0.028159022844877462
216	0x3fa185fa21a8ef12	0.03422528897178102
217	0xbfb7068459e55494	-0.0899431914779874
218	0x3fb6423e687093ac	0.08694829988287606
219	0xbf95167564672b79	-0.02059348511992762
220	0x3f7c92eb4732c2fd	0.006976050429486899
221	0x3f7f66c6d7f5e83a	0.007666374905392509
222	0xbf9ddf800fcac2d7	-0.029172898258084636
223	0xbfa8e149369ac0e5	-0.04859379569586667
224	0xbfb0e712a45b68d2	-0.06602589142440543
225	0xbfb42dafee60ed61	-0.07882213182249621
226	0x3f88932341b20594	0.011999392931332044
227	0x3fb11e3974b0740d	0.06686743830546522
228	0x3f4d089151a82dd3	0.0008860311093611912
229	0xbfb3aaebffd33783	-0.07682681079606195
230	0xbf94b799c480799e	-0.02023163091518542
231	0xbfb72689d13c0b06	-0.0904317985369226
232	0xbfa9175fdef4c5c6	-0.049006458250356696
233	0xbfa45a8c141c6ef3	-0.039753320174183225
234	0x3fbc75cb53436adc	0.11117239744946111
235	0x3fb3329c70e12d02	0.07499101405953826
236	0x3fa2b28e8fafd670	0.03651853088369428
237	0x3fbe70d3ca958608	0.11890910812282851
238	0x3f90bd3adc1b6730	0.016346854862468507
239	0x3fa9657b56f9aa21	0.049602369658561914
240	0xbfba66b09e24f71a	-0.10312942372271686
241	0xbfb595cdf5e4702e	-0.08431708577376248
242	0x3fb1a49411fcc4d6	0.06891751708168967
243	0xbfbf51d6cc23992f	-0.12234251483787227
244	0xbf833e8920ff6a99	-0.00939662105513621
245	0x3f95689e923dff37	0.020906903911508592
246	0xbfb7f0476d5300cf	-0.09351011675881014
247	0x3f941e01bd3e5b4d	0.019645716834556116
248	0xbf8ff069f743fad8	-0.015595271929212215
249	0x3fa7f977e9e4632d	0.04682516794327394
250	0xbfaad06c70f0b7e6	-0.05237139586129995
251	0xbfb31802f72838cc	-0.0745851376925401
252	0x3fa54a63b79c1883	0.041583172000216904
253	0x3fc26a1446beceb4	0.14386228041040783
254	0x3fb762ed98788e0e	0.09135327312883865
255	0xbfb3220c0e48b154	-0.07473826740960493
