models/diff_mpo_sharpe.pth (torch, 565577 bytes, 18 tensors)

lstm.weight_ih_l0 f8 [256, 13]
000000 37 bd cb 5d a1 a6 c6 3f 18 3a a7 95 ab b9 be bf
       0.1769601543414667 -0.120020603214677
000010 bd 3d 9d ad 65 03 bd bf c0 15 84 8d a8 23 b4 bf
       -0.11333308685902117 -0.07866910414676109
000020 6c d3 ee 37 6d fe 9c 3f 47 be 7c 0a 93 bb 74 bf
       0.028314310587762945 -0.005061697367451829
000030 c9 eb 47 4a b1 d3 a4 3f 7a 35 1b 71 8d b1 c7 bf
       0.04067758590459609 -0.1851059725071698
000040 e1 81 08 8b 1e 20 74 bf 06 af 87 33 0f 3f a0 bf
       -0.004913443860033757 -0.031731104889187775
000050 e7 73 e6 16 0b 74 ae bf 1c b1 ef 45 17 3a c0 bf
       -0.05947909025710612 -0.1267727939115354
000060 d6 10 2e 5a e1 dd a1 3f bd 88 0c b9 c9 3d b9 bf
       0.03489593721227073 -0.09859905975148116
000070 f3 8a 87 09 fa 94 b7 3f 82 39 f2 46 42 c5 cb bf
       0.09211695416119507 -0.21695736374062952
000080 6b e4 42 65 de 2a bd bf b7 b1 2f 54 de b4 c7 bf
       -0.1139353749484983 -0.18520716772708365
000090 a8 a3 4d 15 ba a2 a0 bf 7c 46 a1 00 ef 9a 9e bf
       -0.03249150762605463 -0.029887899793101344
0000a0 7e b3 53 41 50 8b b7 3f 17 eb 27 09 8d 22 c0 bf
       0.09196950526138711 -0.12605441042963925
0000b0 e6 e3 70 f1 46 32 b8 bf 12 14 6c 6a ff 83 a9 bf
       -0.09451716799311746 -0.04983518766497509
0000c0 5e f5 e2 d5 62 42 b0 bf 2c 4a 61 19 4f f5 92 bf
       -0.06351297113265761 -0.018513904499125086
0000d0 be 67 3e b8 82 82 b6 3f 0e 0a c6 81 83 65 b6 3f
       0.08792893407954147 0.08748647611904678
0000e0 4b 54 89 71 f6 2b c6 bf 7a 3b 56 a3 4a a4 c1 bf
       -0.17321663421413044 -0.13782628035957228
0000f0 ae fc b3 c3 26 63 92 bf c8 c2 95 6b c5 08 af bf
       -0.017956357664840432 -0.06061379373830317
000100 93 f3 ae ac 63 9c c9 3f f9 8f 48 f2 39 c8 c1 3f
       0.2000851243191418 0.13892292337652615
000110 88 32 43 fe 78 76 98 bf d1 e0 93 42 2f 20 d0 3f
       -0.0238894372167118 0.2519643926784854
000120 70 8a 16 a4 3c 3f b0 3f e7 5d 69 98 46 4b c9 3f
       0.0634649181943503 0.19760973398182033
000130 5b 3d d2 30 08 7f bd bf 8e 5c f4 5f 42 2c b0 bf
       -0.11521960441517846 -0.06317534296646185
000140 b6 ca 31 65 a4 8b ac 3f ed 4d f4 9f b4 64 be bf
       0.055752885201305544 -0.11872414498457547
000150 85 06 e4 b2 cd 37 8a 3f 33 c9 de 3d 03 08 be bf
       0.012801749250232372 -0.11730976353172622
000160 97 2b 7c 36 69 55 b9 bf 90 f2 17 22 d5 28 99 3f
       -0.09895951824380088 0.024569826322464794
000170 7f 77 3a f3 e6 79 ad 3f 0d 8f 12 7c fa ab 63 3f
       0.05757066458794124 0.002401341655586259
000180 10 a8 e6 1f 98 fa cd 3f 99 c3 6a 54 84 0a 9c bf
       0.23421002919832334 -0.02738386883965269
000190 8c 3a 3f e9 50 e7 d1 3f d5 b7 95 67 d7 34 bb 3f
       0.2797434118082627 0.10627504614760082
0001a0 87 7a 24 1e cd 22 d7 3f 42 38 ef 55 6f 9c c4 3f
       0.3614990991936015 0.16102401443498776
0001b0 58 e6 34 34 fa af 9f bf 5a 67 ee 54 c5 8c ac 3f
       -0.030944737850609222 0.05576149617918587
0001c0 51 f9 86 4c cf 28 ae 3f d3 f4 6f b0 85 7e a4 3f
       0.05890510377092773 0.040027787959823556
0001d0 47 53 87 4f 67 f0 c0 bf a5 28 e4 78 4f 50 b5 bf
       -0.13233653434022072 -0.08325669003912368
0001e0 8e 54 3f db 1b 6f ba 3f f0 84 35 9c 9c 55 c0 bf
       0.10325788595885596 -0.12761266353030676
0001f0 32 49 e7 d9 65 ee d0 3f ab 3c 71 65 b4 72 c7 3f
       0.2645506504024012 0.18318800881613603
000200 95 90 39 b0 93 0e cd bf 09 8f 61 8e 98 85 c8 3f
       -0.22700735192041024 0.19157702400399781
000210 e4 ff 41 b0 fe 0b 5a bf 5e 4a ad 39 ae 86 c9 bf
       -0.00158977386402625 -0.1994226247430388
000220 cd e7 37 cc 92 0d c3 bf 15 70 66 f5 90 d4 95 bf
       -0.14885172816849349 -0.021318688371693
000230 c1 6c e7 97 e0 5a c0 bf 06 68 8d 96 c5 3c d3 3f
       -0.12777335564792305 0.3005842180479025
000240 96 f2 e8 1a 15 62 a9 3f 5f 35 94 a3 44 19 b9 bf
       0.049576434645563314 -0.09804181092859697
000250 fe cc e6 e4 57 ac ac 3f bf 50 ef dc 7d e6 c9 bf
       0.056002375309072136 -0.20234654701073926
000260 40 93 b2 aa a4 81 8f bf 39 39 58 99 8a 57 a8 bf
       -0.015383993586803535 -0.047542887896371906
000270 33 68 fa 2c a5 33 7d bf 4f 39 10 2a 85 35 ba bf
       -0.007129330842554227 -0.10237915303171018
000280 8b 2d 2d 99 60 75 b8 bf fb d6 ba f7 ce 33 c8 3f
       -0.09554103603038848 0.18908106895621998
000290 9c 03 ac 33 f5 2b c6 3f 8b 29 6e 50 d7 01 6f bf
       0.17321648619693242 -0.003785057578572897
0002a0 ab 50 7e 53 01 fb c1 3f 20 87 d3 55 89 e1 b3 bf
       0.14047257019831724 -0.07766016335838488
0002b0 48 41 ed 1c 50 9c b6 3f e0 db 26 ad 39 7c 9a bf
       0.08832264620037222 -0.025864506905886375
0002c0 de d9 2f 7b 69 cb a3 bf b2 d3 71 9b 59 59 8f 3f
       -0.03866128567453918 0.015307140404027784
0002d0 18 1e 7a a3 7e b2 c2 bf 57 1e bc 0c 7e 6f 91 bf
       -0.14607222540165377 -0.01702687218405993
0002e0 dd 14 d9 95 1f fa ae bf 13 a4 ae ec 66 1d 9b bf
       -0.06050203994940671 -0.02647934741586162
0002f0 32 ff b7 fa 20 2b c3 bf 66 d1 45 b5 fd 55 bf bf
       -0.14975368730665078 -0.12240586925128624
000300 64 2a 7e ab d9 76 84 3f 49 6b 58 ed 38 03 b6 3f
       0.009992313905759782 0.08598666948857416
000310 84 75 9a c6 2d ac b4 3f 53 a1 7d 5b 68 7d 90 3f
       0.08075224016871202 0.016103392204429422
000320 62 25 3e 32 3b 11 b4 bf ff d3 6e ba 3b dd bd 3f
       -0.07838792778615791 0.11665700246415155
000330 69 a6 5d db 96 05 c7 3f e4 ab 67 be c6 ee 98 3f
       0.17985807143422797 0.024348359462162864
000340 03 f4 db f1 c4 bf b1 3f d3 c5 87 db 60 cd d0 bf
       0.06933241753354484 -0.262535299668426
000350 e5 4a 0f a8 13 89 b8 3f 12 e1 cd e8 86 b7 64 bf
       0.09584162571926987 -0.0025289187382747736
000360 9f f0 f9 71 b3 7e c0 bf 3a f6 d7 f9 83 7d 7f bf
       -0.12886660638094313 -0.00768806031328278
000370 b6 7b 1b 16 f6 3a cb bf ed 88 75 bd 90 8d bd bf
       -0.21273685531101955 -0.11544136643854915
000380 ea 2d 31 df d5 fd c4 bf b5 6d 93 77 a8 b3 aa 3f
       -0.1639964427762231 0.05215193233172092
000390 6d 62 05 17 58 aa b3 3f df ae d5 9c f3 b3 8c 3f
       0.07681799470936719 0.014015105460848996
0003a0 5d 39 bb 82 e7 d0 c2 3f 7b 64 db e3 a9 96 b8 3f
       0.1470002544724122 0.09604894459643447
0003b0 aa 49 f4 23 43 1a a8 bf 82 42 c4 1e 99 0c c4 3f
       -0.04707536519903795 0.15663446428563438
0003c0 3b 55 69 7a 7b 7f cf 3f ee 9d 13 d6 15 71 90 3f
       0.24607795216676628 0.0160563861763005
0003d0 ca a3 4c 9a 69 22 bc 3f 37 3f ca e3 af 2e ae 3f
       0.10990009324144903 0.05894994407310466
0003e0 cc 35 c8 44 13 63 b1 3f bd e2 d6 5d a9 5c a5 3f
       0.06791801862001207 0.04172257681370215
0003f0 5c 47 6f 03 6b 00 c0 3f 09 25 2f 6c 87 45 c5 bf
       0.12501275699338066 -0.16618435652188904
000400 77 c8 74 8a ae c8 91 bf 2c 18 84 9d 57 ff c5 3f
       -0.01736710281438333 0.17185492697916638
000410 ad 03 63 90 84 f4 83 bf ec 27 3d 81 8c 35 92 bf
       -0.009743724495253259 -0.017782397640338773
000420 45 40 a0 4d 35 68 ca bf 6d 04 32 05 bf 65 b3 3f
       -0.20630518236476028 0.07577127339210828
000430 96 73 a0 6c 40 cf c4 bf a3 6c fb 62 fc ec c0 3f
       -0.16257481864968487 0.1322322352706112
000440 9b 8b 40 a0 13 fd c5 3f 37 eb 85 c7 60 3e ca 3f
       0.1717857868653397 0.20502862684573994
000450 1e 66 f1 7f 55 06 c9 3f 14 77 56 d8 d6 27 46 3f
       0.19550579783644734 0.0006761359260740473
000460 7c 49 50 de 48 b0 9b 3f f1 54 a6 49 f2 62 c9 3f
       0.02703966004271184 0.19833210560015105
000470 5c c0 52 41 e6 28 9d bf 50 6f 76 65 61 05 95 3f
       -0.028476331460013035 0.02052833730486664
000480 0d f3 53 f8 83 1c bb bf fe 8f 51 85 a9 23 c3 bf
       -0.10590386212056675 -0.14952582368562156
000490 17 64 5c d1 6c 4c 9b bf 51 8d 60 0b 6a d1 c3 bf
       -0.026658726004004842 -0.15482831531071864
0004a0 16 89 45 3d 7c bf cd bf f2 04 84 22 e5 a2 94 bf
       -0.23240616790560215 -0.02015264533202283
0004b0 5f 9d 2c fb 1c e1 a1 bf e4 54 d3 e8 d6 20 c9 bf
       -0.034920602475092315 -0.19631468170579247
0004c0 66 95 6c ee 7c 88 d1 bf 1e bb 71 3d 9e 46 92 3f
       -0.27395556720360614 0.017847511768589112
0004d0 95 90 06 11 ca d7 c9 bf d2 22 87 49 7a 6e ad 3f
       -0.2018978675015474 0.05748350284154004
0004e0 bb 17 a7 9e cf c6 cd 3f d1 2d f2 21 15 12 af bf
       0.23262973067011025 -0.06068483390216851
0004f0 1f fb 28 d8 0e 1c b7 bf 37 16 46 b6 73 34 b1 bf
       -0.09027188088746783 -0.06720660400431987
000500 bf 2b f7 a5 f0 18 d8 bf 8b 34 56 52 38 71 be bf
       -0.3765222187764116 -0.11891510019468592
000510 a6 44 a3 c1 9a 84 b1 bf b2 cd e2 33 ac b7 a6 3f
       -0.06842963435635116 0.044370061238989136
000520 56 fd 26 2f 34 93 b7 3f d8 1e 6f 61 1e d6 a1 bf
       0.0920899024122169 -0.034836720842177094
000530 dc 96 6d c7 e8 45 a2 3f 58 df 0d b6 9b a0 c2 bf
       0.03568961557793468 -0.14552637471546848
000540 15 c9 cc bc 00 54 b4 3f 6d d0 6b fe 57 29 be 3f
       0.07940678223966231 0.11781835519269786
000550 61 75 9a 66 4d 92 c0 bf f7 e0 51 2f 25 83 b2 bf
       -0.1294647932999551 -0.07231361775655275
000560 31 c7 db 4b 39 0c b7 3f e9 90 67 2c 1b dc b7 bf
       0.09003027059568748 -0.09320230325790003
000570 43 8e 76 35 be fb 93 3f 2e 8f ed 6d 25 0b b6 3f
       0.019515010846261182 0.08610757764614327
000580 9c c6 87 0f d2 e1 bd 3f ae 9e e7 04 e7 f9 c7 3f
       0.11672699813041237 0.18731391658297042
000590 95 d0 e4 50 7b d7 b4 3f e2 da 36 b0 98 e5 9d 3f
       0.08141298985430219 0.029196153407350496
0005a0 85 ec 48 0d ee a6 a1 bf 85 24 6e 39 fd 5f c6 bf
       -0.03447669899147691 -0.17480435661517305
0005b0 18 44 32 1a 21 93 c3 bf 95 3a cc 7e c1 3e db bf
       -0.15292753008955695 -0.4257053125628912
0005c0 f9 00 f8 c2 58 0e b6 bf 17 7f d2 3d a8 43 a3 3f
       -0.08615641365031824 0.037625558420812215
0005d0 d5 d7 4a d2 37 f7 ae 3f 08 45 2c d7 dc b7 a8 3f
       0.060479874058202356 0.04827776075956974
0005e0 2b 66 60 2a 06 28 ba bf 8e d8 67 61 72 a5 b1 bf
       -0.10217321905693015 -0.06893076780383664
0005f0 da a9 9f 25 82 dc c0 3f 1a f0 c7 08 03 97 cb bf
       0.13172938191503542 -0.21554601601371887
000600 e3 d9 6a d4 4c 3a b2 3f a0 64 3b 09 b0 64 9b 3f
       0.07120208917590491 0.026751280368305985
000610 6f ba 82 f5 03 a4 c2 3f 8b 2e 0c f4 0d 4a bb bf
       0.14563035476517736 -0.10659873207276342
000620 15 4d 29 6d e2 e9 a5 3f d6 d1 a3 58 b0 3b b5 3f
       0.042800021958692515 0.08294202961025773
000630 82 a4 d0 7b fc 81 b6 3f e0 1f 51 94 46 3f cd 3f
       0.08792093298747441 0.2284935211375787
000640 48 10 fe 77 1f 7d c2 3f 0d ba 4f 89 aa 8c b5 3f
       0.14444344862943326 0.08417764522867106
000650 ff 0a 4f c6 cc 6f d1 3f 96 b2 6e 94 b5 3d cd 3f
       0.2724487244233131 0.22844571826626198
000660 25 32 a2 94 65 7f a4 bf 11 e7 2f a6 c1 5a b6 bf
       -0.04003446044325568 -0.08732233340552066
000670 52 fe 10 58 85 fd a8 3f 3e 88 1e 16 86 5d c0 bf
       0.048809210777559855 -0.12785411911051087
000680 b6 e7 6b 16 a4 8c 90 bf 3c 24 9a 1f b9 20 b7 bf
       -0.016161502712726615 -0.09034306546722431
000690 ec ca 7e 03 c1 20 43 3f 62 2a ed 1b 94 8c b5 3f
       0.0005837385606269597 0.08417630845830495
0006a0 c3 5f 1c 45 e8 c3 c9 bf e5 7b 24 8d 1c 27 93 bf
       -0.20129111647179174 -0.018703886141448484
0006b0 23 28 9f d6 40 ca c1 bf b7 49 db 8c 44 b0 b5 bf
       -0.13898478011680124 -0.08472088278657607
0006c0 51 1a 2c 7d 92 bd 9d bf 04 c5 32 8c 11 41 b7 bf
       -0.029043473138722856 -0.09083661721048847
0006d0 a7 2a 8b c6 bd c9 b2 3f 2d 7a e0 a8 21 58 b8 bf
       0.07339082810646379 -0.09509477971048659
0006e0 da 18 80 8b f5 b7 86 bf 93 52 11 b7 c1 7d c8 3f
       -0.011093061752046319 0.19133778990603342
0006f0 a8 bd 2d 04 d3 f4 c9 bf 50 b2 31 83 b9 3d b1 3f
       -0.20278394416844248 0.067348093538109
000700 47 80 d1 7e 1d dd d6 bf ea 1c 6d 7e 2d 19 93 3f
       -0.35724580177884885 0.018650732842869035
000710 5c d9 38 81 a0 da c0 3f dc a3 b2 0a bc d4 d0 bf
       0.13167196569129203 -0.26298428578098565
000720 84 b2 d8 35 cc 14 c6 bf 84 2d 74 d4 ec 69 b7 3f
       -0.17250969533178673 0.09146003901348904
000730 ce 87 11 1d ba 1f b0 bf 4a 4d 6b d4 f8 44 c1 3f
       -0.06298411569289827 0.13491735813168254
000740 b4 9f 23 70 a7 50 be bf 46 71 0a cb 8f a6 a6 3f
       -0.11841818321010927 0.04423951486134796
000750 9b 80 8a 13 f7 1c b3 3f 52 88 5d eb 6a f7 dc bf
       0.07466072299075892 -0.45260117516420906
000760 6b 43 58 6c df 6d c3 3f 61 cf c8 b7 69 36 b6 3f
       0.15179055013916395 0.0867677758877199
000770 7b ea ea a7 75 d4 a5 3f 59 6a 78 97 74 98 a8 bf
       0.04263656306053051 -0.04803814267161916
000780 cb f2 c3 0d d6 70 b4 bf ae 66 3a 52 d1 17 c3 3f
       -0.07984674297399434 0.14916435732884764
000790 cb 8b fc 95 7c 59 b5 3f b7 5f 68 ba cb 6c b0 3f
       0.08339670812396986 0.06416009236306662
0007a0 5c 38 ee 6d de 66 c4 3f 33 c5 85 09 29 ff cd bf
       0.15938930862143053 -0.23434937443702494
0007b0 35 f1 8c 40 f4 50 b6 bf 73 a1 2a 0d 0f 36 c7 3f
       -0.08717276168767259 0.18133724348923472
0007c0 7c c2 5b 2a 26 18 d1 bf 1f da 50 12 f0 e9 a2 bf
       -0.26709894310537385 -0.03694105361539734
0007d0 c3 14 3d 3a 98 b0 d4 bf 7a 7c db 50 68 c5 a8 bf
       -0.3232784813629445 -0.0483810995772211
0007e0 e1 17 3c 60 57 d2 b3 3f 6e c7 7f 9e 2e 1b c0 3f
       0.07742830371361677 0.12582953204360642
0007f0 6a 9e 11 d1 5e 8b c7 3f ba 1b 3a 38 64 6b a7 bf
       0.18394074638785024 -0.04574120699276514

lstm.weight_hh_l0 f8 [256, 64]
000000 3b 32 19 49 86 d6 71 bf 9d bf 50 0c fd 18 d1 bf
       -0.004354977181332982 -0.2671501751201449
000010 74 43 1f d4 4d 8f b9 3f c7 9e 28 cc 71 4d be bf
       0.09984289578211564 -0.1183692096170673
000020 a0 21 5e 8b 71 5e bf bf d4 06 1b 8d cb d0 54 3f
       -0.12253484394580605 0.0012704837612748559
000030 fd 31 f0 72 1b 1e c8 3f 4d 56 b9 71 6a cc d1 3f
       0.18841879951686727 0.2781015501580882
000040 e3 af ed 71 1e 5d a4 bf 97 a8 45 27 6c b0 96 3f
       -0.03977294102409681 0.022157373330096233
000050 9b ba 87 ae d4 53 a8 bf 8a ad 15 45 f0 03 c4 bf
       -0.04751457815642831 -0.15637019513392786
000060 d9 eb c8 6d 06 21 b4 3f fb 9e 89 27 41 8e c8 bf
       0.07862892322820815 -0.19184126310869218
000070 34 b5 e3 bb 1e 8b 8a bf a1 bd 3f d2 5e db b8 3f
       -0.012960662945682523 0.09709732659370342
000080 40 26 ce e7 73 76 b5 3f fa 02 7b ff 66 c3 a0 bf
       0.08383869561489465 -0.03274080151232357
000090 bf fd c9 f7 13 92 b8 3f 9b ab d8 eb 7a 10 c6 bf
       0.09597897338425464 -0.17237793460784875
0000a0 1f 4c c1 34 7c f6 a5 bf a2 84 89 55 09 c0 98 bf
       -0.042896157684161766 -0.024170060964369917
0000b0 8e 17 7a 88 77 17 c5 bf 6a 6d 4b 0f a4 d0 a7 bf
       -0.1647786537543507 -0.04651367842390182
0000c0 cf 90 13 6f b7 66 a8 3f 4d c6 51 96 6b 65 93 bf
       0.0476586649981826 -0.018941575097818398
0000d0 c5 0e f3 8c 5b 34 cd bf d3 df 86 3f d1 a4 b2 bf
       -0.2281603277425487 -0.07282741356800608
0000e0 7e f7 e4 57 ce b4 c4 bf 0f ea 07 21 a9 5f 9d bf
       -0.16176776210516758 -0.028685228959128447
0000f0 c0 4c 10 52 27 a4 d0 3f 98 d4 c6 34 7d 08 ca bf
       0.2600191403773344 -0.20338406636225126
000100 0f 14 63 5e c4 b2 83 3f 57 4c 9b 96 53 69 a7 3f
       0.00961831486746159 0.04572545255145915
000110 f7 1d e5 20 a2 95 c8 3f 14 f9 6d 68 3d cf 98 bf
       0.1920664463634549 -0.02422805738341889
000120 86 d0 94 e1 b3 00 b2 3f fa 8c b0 ef 42 5c c3 bf
       0.07032322175365566 -0.15125309661480185
000130 9f f4 d1 fb aa 21 9c bf ea 77 e1 f7 49 2e a1 bf
       -0.027472182865029834 -0.03355628157508746
000140 84 4d 16 06 7e c4 c7 bf 64 41 12 46 7d a8 c0 bf
       -0.18568396851751967 -0.1301418869156904
000150 da af f7 d0 23 e6 63 3f 67 70 45 e4 12 af 89 bf
       0.0024290751969058113 -0.012540958014760585
000160 21 fb 2c ff 01 8e c8 3f 32 11 c4 ae bf 7e b9 3f
       0.19183373412848773 0.09959028259988115
000170 3e cf 7d 51 fa 3e c6 bf 35 bb b9 79 5b 3d 88 3f
       -0.1737969301135482 0.01183577981211457
000180 af c0 d1 73 76 c8 8e 3f 86 6f 59 94 19 f4 ca 3f
       0.015030789765859557 0.21057433837529177
000190 6b d4 cb 7f e9 19 c4 3f 4e 20 b2 ac c8 19 b5 3f
       0.157040774727338 0.08242468086439311
0001a0 07 3e 52 a3 0a b3 c6 3f 96 ec cd b6 ed 9c bf 3f
       0.1773389146296582 0.12348828995702585
0001b0 2f 1b b1 1b c6 b0 b8 3f 28 6d 6c e2 94 23 c5 bf
       0.09644735504217004 -0.1651483636459059
0001c0 3e b4 dd d3 9b 7d 63 bf 57 e6 6c 3a 7e d8 9d 3f
       -0.0023792308338017867 0.029146168056490698
0001d0 59 7e ad 4c 86 ea 9d bf 95 46 f1 3f a2 a4 bb 3f
       -0.02921495287898632 0.10798086224647314
0001e0 f7 d3 e9 44 8e 3f 95 3f 82 6b fb b2 84 1e c0 bf
       0.020750258403911172 -0.12593134631501007
0001f0 de fd b0 33 7d 74 c2 bf a6 d8 39 ff e3 a5 be bf
       -0.14417996429436547 -0.11971878987410153
000200 38 25 b5 4d a3 3e ce 3f 30 e7 fe 28 71 6b 46 bf
       0.23628655714336744 -0.0006841948070281708
000210 d2 a6 ba 2b 38 56 b0 bf c4 d3 4c 6a a6 c5 be 3f
       -0.06381560390095878 0.12020340056626738
000220 b5 d2 ec ca 8f f7 b5 bf a9 1b a3 1e 73 2c ae bf
       -0.08580874160981973 -0.05893287419308219
000230 ed e5 7c fa 68 77 a6 bf a1 9b 17 de 5e 7d c6 bf
       -0.04387977655137463 -0.17570100635859112
000240 9b 66 4f 2c 69 9d 96 bf b5 e9 cc 6e 31 b7 c5 bf
       -0.02208484967181921 -0.16965310964753902
000250 e9 d1 37 3f 7e 1b d8 bf 28 e6 fb 4c 92 8c a9 3f
       -0.37667804883611083 0.04990060033555849
000260 25 5c 05 e4 c0 ca 98 bf d3 4a fe 69 8b 51 a7 bf
       -0.024210943143170866 -0.04554401081909067
000270 77 2d 13 94 38 8b 9a 3f af 0f 1f da e1 b8 64 3f
       0.025921711004043026 0.002529564969309526
000280 b4 8c 5b c7 c1 e4 a0 3f 80 6a 2d d2 f0 be b4 bf
       0.03299527700962682 -0.08103852397236189
000290 83 60 17 23 60 e2 c1 bf 76 d7 f2 1b 87 01 b4 bf
       -0.13972093308871444 -0.07814831192339775
0002a0 d8 12 81 1c b9 3c bc 3f 23 1a 83 41 3e fc b5 bf
       0.11030156083968323 -0.08588017558495457
0002b0 6b b9 cb 64 ff 6e 9a 3f dd ef 99 f3 fe d0 c5 bf
       0.025814047362410813 -0.17044054884524842
0002c0 2d 11 b2 67 b1 55 a4 bf 4c 49 c1 a8 bc cf b1 bf
       -0.03971628561797256 -0.06957606430049629
0002d0 42 c3 50 21 12 be c9 3f dc f8 e6 40 9d b4 c3 3f
       0.20111300112469094 0.15394941014341768
0002e0 47 55 c6 6c 85 5a b2 3f 45 b6 ae a5 b0 35 c4 bf
       0.07169374375947256 -0.1578884896274976
0002f0 7a b1 31 6b df 27 a5 3f 64 6e e4 97 99 70 97 3f
       0.04131982978364852 0.0228904723127087
000300 b1 3d c0 91 d6 93 c8 bf 97 28 5a 97 91 e4 c0 bf
       -0.19201166264290984 -0.1319753636383367
000310 1f 78 42 ad 0f 10 c1 3f 6e e1 77 2a cd 80 b4 bf
       0.13330265006965278 -0.08009035384009675
000320 36 7e 73 62 66 88 b5 3f ff ec 39 69 04 b8 c0 bf
       0.08411254790871045 -0.13061576021195972
000330 9b 1f 6e 61 16 be d0 3f 73 1b bd 19 87 2c 90 3f
       0.2616020156351568 0.015794859834638197
000340 09 4f 25 b5 dc 10 b5 bf 16 d8 2c db ff 2e 93 3f
       -0.08228854582312918 0.018733976127997286
000350 75 6e 75 70 25 36 a7 bf 13 4e bd e7 7f 70 98 3f
       -0.04533497808253354 0.023866652030234258
000360 8d 58 cc 59 1f 98 a3 bf fe 23 54 09 2a a2 c0 3f
       -0.03826997729463342 0.12994885879041357
000370 0b 9e 0c 3a 91 eb c0 3f 1f d0 a2 f8 9e 53 ba bf
       0.13218894323766536 -0.10283845491613917
000380 fa 11 5a d9 29 39 a0 bf cc 6b 29 13 bf a8 b9 bf
       -0.031686122686583176 -0.10023111551110658
000390 cb b7 bd ec d8 bc b1 3f 63 a5 41 2a 38 47 a1 3f
       0.06928783206760085 0.03374648586106834
0003a0 4e b0 7a 4a 62 7b bb bf eb db 97 98 27 09 ba bf
       -0.10735143965092783 -0.10170218921108158
0003b0 87 dd 56 ca b7 95 c7 3f 44 e9 d4 96 86 07 4e bf
       0.18425652866219996 -0.0009164244817505903
0003c0 0e c3 26 b6 11 28 cd bf 14 5c e9 5f cf 0e b1 bf
       -0.2277853145037842 -0.06663223353949405
0003d0 ce 37 b4 e9 69 14 c1 bf c9 9f fb 0a 76 10 c5 3f
       -0.13343547736479738 0.16456485306048155
0003e0 7e 0c d4 f7 50 dd b6 3f 91 10 6a 37 81 c3 b0 3f
       0.08931451845642077 0.06548316576851422
0003f0 fd f5 30 6e 03 4a af bf 51 ca c1 e2 b8 0f b5 bf
       -0.0611115524302299 -0.08227115188655289
000400 07 9a 1a 60 5c 9e be 3f aa 7f 58 00 7e c3 ba 3f
       0.1196038946751302 0.10454547413291829
000410 46 8a 6a c2 1e 60 c3 bf b2 85 c9 2b f3 de c7 3f
       -0.15137085431077163 0.18649139059111303
000420 ac 89 d0 bc b1 db b3 bf f8 0b 07 f7 a1 b3 be 3f
       -0.07757101878863776 0.1199284771055743
000430 4d fb 4a 66 b2 3b b7 bf d3 da 07 8c 95 d6 c3 bf
       -0.09075465199837858 -0.15498608910976105
000440 82 1f ed 1e 88 ff bc bf 17 66 d2 ca 70 68 94 bf
       -0.11327410464320845 -0.01992965925146536
000450 02 f1 22 89 63 c6 8a bf 30 80 70 52 5d 37 c6 bf
       -0.013073709127973124 -0.17356459164966642
000460 f3 4e 84 08 9d 09 c8 bf fa 23 33 07 2b bc 9f 3f
       -0.18779337802754234 0.030991241754950473
000470 41 79 ec 1e 7b 83 a1 bf 51 23 04 b4 92 d6 b2 3f
       -0.034206244969242856 0.07358662505079151
000480 43 a3 70 c0 13 71 c2 3f 0c 1d bf 7b 8f bf 83 3f
       0.14407584091648049 0.00964271637339078
000490 23 4d 88 39 e0 9d d8 bf db e0 67 fc 95 44 94 3f
       -0.3846359788742168 0.019792884379030134
0004a0 7a c2 b4 7a 1b 50 cf 3f fb 1f 59 79 41 ad 86 3f
       0.24463218204029485 0.011072646632911179
0004b0 1b 80 4d 96 4b 4d ce 3f 92 ca 70 c6 ef 6c ba bf
       0.23673386420250683 -0.10322474093190184
0004c0 11 3c 80 ea 00 2f ad bf 75 69 86 da 4d c0 ae 3f
       -0.05699923384246842 0.060060913968487485
0004d0 3b 9d f4 0b f9 ea c2 bf 0d 8d 91 1d 08 27 93 3f
       -0.1477958019615729 0.018703581623765553
0004e0 b0 9d 11 01 18 1f d0 3f ec 42 c4 90 1b f1 c3 bf
       0.2518978128850575 -0.15579552239116568
0004f0 b2 76 ce 7f 5a 25 a6 bf 6c ac b9 18 17 0e d3 3f
       -0.043253734685305814 0.29773499884203747
000500 78 fb e5 dd 0b fe b7 bf 5e 25 93 1d 98 af 7b 3f
       -0.09372018973770746 0.006759256554866281
000510 1d 26 9a 4d da c7 b8 3f 2b d4 ae be 19 e6 80 bf
       0.09679951090415569 -0.008251381999665316
000520 e3 5d 38 aa 29 bf d1 3f e4 85 2e 57 c0 9c b4 3f
       0.2772926485353919 0.0805168354841253
000530 4c f2 e0 43 b7 b3 b2 3f ab 29 68 48 32 19 b1 bf
       0.07305474669642215 -0.0667907168173431
000540 94 23 26 e3 68 37 b9 bf 18 69 a7 83 c3 34 c0 3f
       -0.09850173516873745 0.126610221180109
000550 2e 8e d6 88 37 3c b0 3f 00 9a f5 0d 8d 4a b8 3f
       0.06341883745931717 0.09488755789571002
000560 1c b3 33 8a 15 80 c2 bf a7 87 28 2a 5a ad c5 3f
       -0.14453381775037932 0.16935278948318208
000570 d7 5a 7f 44 43 a4 ce 3f 13 30 4b a0 3e 53 cd bf
       0.23938790173152455 -0.2291029246028989
000580 2b 0a 1d e3 12 d3 c1 bf 08 cd 80 45 43 0b c2 bf
       -0.13925396050952207 -0.1409687127466912
000590 bd ae 60 5e e1 ef b0 bf 84 40 a0 0b 5a 00 c3 3f
       -0.06616028360502475 0.14844823424983045
0005a0 40 df 37 62 a0 74 9a bf 20 2f 17 95 3e dc c5 bf
       -0.025835519785658123 -0.17078382758915556
0005b0 ec 0c 2b 5b bf 99 82 bf 78 de 18 23 ac 3e b1 3f
       -0.009082312555057169 0.06736255509246714
0005c0 30 36 f6 e5 3f 57 98 3f cb 94 cb c9 f7 80 ba 3f
       0.02377033082080099 0.10353039433137494
0005d0 4d a0 6f a4 7e 6b 99 bf 9e c0 b3 9b 72 5b ca bf
       -0.024824122225169543 -0.20591576197285105
0005e0 d0 63 22 ab 23 84 a9 bf be 64 d6 e2 39 5b bc 3f
       -0.049836268082067314 0.11076700008415494
0005f0 96 f1 2a 61 c0 ce 6b 3f 28 d2 d8 86 c0 19 c2 3f
       0.003394485226946918 0.1414108904297262
000600 92 f8 3e da 98 ff b8 3f f0 f4 10 08 c4 3c ba bf
       0.09765010193129545 -0.10248971173219323
000610 60 06 09 3c fc b0 b4 3f 2d ae 21 e0 0e 96 b6 3f
       0.08082558122353012 0.08822720500909816
000620 f0 d1 ed 0e 3a d0 a5 3f 78 2a cb 53 83 37 cb 3f
       0.04260426933516104 0.2126316222332496
000630 7a e6 ab d6 37 95 c1 bf cf c6 c9 35 44 80 4e bf
       -0.1373662756157506 -0.0009308178956201843
000640 ed a3 d2 91 7d f3 ad bf cd af 96 1d 59 88 a4 bf
       -0.05849831013740201 -0.040102753507511225
000650 65 75 98 c3 ca 71 a7 bf f9 94 b2 a8 dd 81 8a bf
       -0.04579003942147145 -0.012943011961690664
000660 b6 79 b1 1f 5f 4a d0 bf 3d 06 82 b3 5f cb a3 bf
       -0.2545392808441663 -0.038660994207941425
000670 4f 4e 4c f7 66 3f c5 bf a9 be f5 ff 5a f5 7a bf
       -0.16599738192654676 -0.006581645458353749
000680 35 88 30 72 97 0d 82 3f 6f e8 ae 17 f4 6c af bf
       0.008814986393250826 -0.061378124133128924
000690 d6 48 f8 fe 63 18 c8 bf 8b 52 f5 22 8e ec bb bf
       -0.1882443423242594 -0.10907829621766944
0006a0 25 f1 62 6e b8 5c d4 3f 32 18 06 4a e3 80 c1 3f
       0.3181592061989867 0.13674584497874914
0006b0 07 3d bb 01 b7 4d bc 3f 2a 45 ee 39 51 db b2 3f
       0.11056083481092936 0.07365901626896645
0006c0 ef 99 1c 10 7c 31 b3 bf 93 e3 59 a6 62 d8 c5 bf
       -0.07497382539131768 -0.17066605684865674
0006d0 af 64 a2 96 d2 1c b9 bf 1b f2 8a 80 a5 db ce 3f
       -0.09809604814144522 0.24107807899953645
0006e0 4e 1d 4b 88 30 cc d5 3f a5 e7 1f 8a 39 da a3 bf
       0.3405877428999319 -0.03877429782001166
0006f0 83 2d 1b 50 e3 2f cb bf 39 e4 cd 46 91 04 c6 3f
       -0.2123989239829421 0.17201438863028942
000700 40 c9 c3 fe f8 18 db bf a3 18 86 93 2b 45 bc bf
       -0.42339920882581694 -0.11043045379310228
000710 09 6b 0d ec f9 0e c8 3f 89 fc 54 ae a0 e3 b0 3f
       0.18795703912731934 0.0659733224501783
000720 fb 88 ef 87 86 a4 d5 3f 40 c7 8c 76 c9 5d b4 3f
       0.3381668403145707 0.07955607551846544
000730 07 14 de 9c 77 2d b2 3f f5 bc bb 27 9e de 8d bf
       0.07100627498410016 -0.01458476599461143
000740 2c 8b d2 cb c5 3d d9 bf 71 25 b7 b3 c9 77 c5 3f
       -0.39439530281576896 0.16771813655058623
000750 c5 b6 e5 e6 14 72 b5 3f 76 f5 ae 19 ca 4f c2 bf
       0.08377199780599216 -0.1430599809081447
000760 c9 3f d7 d5 b8 cc 78 bf c7 7f b9 29 c9 da c2 3f
       -0.006054613125755234 0.14730181252798344
000770 49 f6 be 08 b4 df ad 3f e1 fa 63 2b 86 e5 bf bf
       0.0583473454166606 -0.12459600982036136
000780 16 01 ef 44 03 31 c1 bf 05 09 9f 46 f3 00 d2 bf
       -0.13430825105570737 -0.2813080014858687
000790 25 1a 74 f0 aa d4 c3 bf 99 f0 be e7 ec 6d c5 3f
       -0.15492760411162113 0.1674171573230339
0007a0 d2 cb a2 e1 f4 5b a4 3f ef 9a 21 5a 1d 79 cb bf
       0.03976407293648489 -0.21463362599316535
0007b0 b0 c8 b8 db 56 c5 c2 bf 24 b8 c3 5d 26 be c7 3f
       -0.1466473172054683 0.18549041345926398
0007c0 03 26 5c 62 49 21 ac 3f f8 2e be a3 9f 85 94 3f
       0.05494145703967137 0.02004098355204939
0007d0 a2 bf 71 a3 e6 5e a6 bf 32 c8 18 7d 68 a9 d6 bf
       -0.04369278664751099 -0.3540898534439548
0007e0 e4 f5 ee 1a 40 4e bb 3f 43 f9 34 16 c7 c6 7a 3f
       0.10666275651507068 0.0065372254205711714
0007f0 dd 6a 4a a1 44 b0 c6 bf d5 e9 5c af cd 02 c4 3f
       -0.17725427508852123 0.1563355547203417

lstm.bias_ih_l0 f8 [256]
000000 c2 b2 d2 c7 aa b1 a2 bf 1a b4 e9 5a 62 5b ad bf
       -0.03651174248930068 -0.057337831113592766
000010 9e 9a c3 42 86 f9 86 3f a1 fd a1 40 dd a0 b4 3f
       0.011218117630460708 0.08057959392498627
000020 0a e5 f5 3c ea 8f b9 bf e0 fb 29 d4 94 53 ba 3f
       -0.09985221851629347 0.10283785037789483
000030 25 e6 46 62 07 72 b2 bf 8b 76 d0 e7 dd 3e b9 3f
       -0.07205244206752377 0.09861552152184509
000040 cf 64 d2 bd 3d df 80 bf 2a 4e 0c 5a 2f 92 bb 3f
       -0.00823829875507656 0.107699355587379
000050 52 fe 99 88 29 cf b9 3f 7a 77 91 97 07 97 c7 3f
       0.10081729493139704 0.18429655934135863
000060 ba 17 d4 ee 67 bb a4 bf b8 42 56 24 ba 7d bf 3f
       -0.04049229421984486 0.12301219355709747
000070 f1 00 4f dc 5b 94 50 3f 74 04 af e1 22 2b c2 3f
       0.0010119340015393686 0.14194141406736416
000080 9a 26 67 3f 7f 8a c7 3f 10 5b 15 1d 9c 5e c1 bf
       0.18391409488531424 -0.13569976253594307
000090 f8 c7 66 83 30 13 81 3f 86 75 d2 dc 31 df bb 3f
       0.008337382326178741 0.10887443200268451
0000a0 58 be 59 49 6a 7a a3 3f 7f c6 50 b8 4d fe 92 3f
       0.03804332871811472 0.01854821622345648
0000b0 c8 73 16 41 61 a2 99 bf a5 64 f7 e0 53 ec bd 3f
       -0.025033492658270068 0.11688732378333329
0000c0 dc 36 02 39 4e 13 ac 3f 8b 75 bf ef b8 f8 b7 bf
       0.05483478971392028 -0.09363895276279359
0000d0 ce db 05 e8 12 16 ab 3f 9a 36 f4 83 07 39 a3 bf
       0.05290278513250933 -0.03754447446600047
0000e0 15 ab 08 89 c1 dc c6 3f 9c cf 37 e5 7f 70 b6 bf
       0.1786119383917472 -0.08765410753386366
0000f0 dc f5 e0 c3 fd 38 64 bf 60 4a d6 d0 ad 17 95 bf
       -0.002468581805287624 -0.020598140593913405
000100 15 6e 86 8c 35 20 a4 3f b5 5a 42 fd e2 23 cb 3f
       0.039308236507363294 0.21203267446681698
000110 de 10 30 1e ed ce 70 bf 24 b9 5d 5a 79 c0 b0 bf
       -0.004103590242270109 -0.06543692070201651
000120 32 a5 fc 0f e0 3a a1 bf 45 e6 ed ea 20 19 9c 3f
       -0.03365230746414695 0.027439607943483563
000130 a7 6a 62 df b5 d1 ca 3f 5e 19 a5 7b 92 6f bd 3f
       0.20952485473101953 0.11498370665240062
000140 0b 8c 63 39 d8 21 ab bf a4 c6 bd 49 dc 2d b2 3f
       -0.05299258900210909 0.07101227569890028
000150 bb 4a 07 05 f3 dc bb 3f 42 64 5d ca c5 03 b6 3f
       0.1088401686932156 0.08599506559893746
000160 6c ae 86 32 85 f0 ac bf d5 79 78 60 cf 4b aa 3f
       -0.056522524278389635 0.051359634901235
000170 d9 32 83 ef 94 d1 be bf 88 13 69 53 dd f7 85 bf
       -0.12038546416733754 -0.010726670368180327
000180 56 6b b6 b6 d3 06 c9 3f 23 9b b2 1c bf 9a a9 bf
       0.19552084371101824 -0.05000874734223817
000190 e2 06 b6 c7 b4 28 9c 3f 81 25 5c 53 63 3f af 3f
       0.027499031724352536 0.06103048698976022
0001a0 dd b9 74 51 8a 66 b3 3f be 25 31 77 89 90 8b bf
       0.07578339089079784 -0.013459276151610019
0001b0 df 93 54 b4 60 bc b7 3f a9 3c 04 27 f2 f3 c0 3f
       0.0927181663760872 0.13244463830094347
0001c0 33 38 3b 2c e3 53 a5 bf 71 9f 04 a2 af f6 b2 bf
       -0.04165563502247984 -0.0740766306449794
0001d0 78 6f f7 e3 b1 30 bf 3f 7b 00 b9 e0 64 a4 b2 3f
       0.12183677497472256 0.07282095419304994
0001e0 60 4b ab ff 25 5d 86 3f 93 dc bc 71 33 27 c8 3f
       0.010919854035284338 0.18869631818390484
0001f0 7d e4 27 64 d0 f8 a4 3f 52 7d d5 2c fd 6d c1 3f
       0.04096080038647985 0.1361690968433132
000200 d0 c7 d1 e1 01 7a a5 3f bc 54 b2 e1 dd dc a0 bf
       0.04194646722397943 -0.03293507938466564
000210 68 bd f5 11 7f 74 70 3f f5 41 92 43 e8 12 a6 bf
       0.004017349593922283 -0.043113001106693284
000220 fa 72 f1 0d 7d a6 b1 3f 03 6d f1 df 13 ff a0 3f
       0.068946662811367 0.03319608791999864
000230 2b 8d 44 b3 ee 88 b4 bf df 77 1c 93 6c 66 a3 bf
       -0.08021442295698893 -0.03789080901900354
000240 73 4a 59 89 9e 3c b4 3f d2 72 f6 8a 7c e9 98 bf
       0.07904997685663222 -0.024328180295571773
000250 6d 4f 08 0a ed 46 b8 3f 5a b1 50 68 c5 bf b6 3f
       0.09483224387105134 0.08886369511373485
000260 84 80 92 bc 04 b3 b4 3f 64 21 df c9 c6 c9 95 bf
       0.08085660556617041 -0.021277528830780837
000270 2a 6a b5 a5 27 29 b2 bf ec 3d ff fa 8e 97 d1 3f
       -0.07094047351476065 0.27487539779119063
000280 40 d5 95 8e 6f 2a d1 3f f6 16 62 ac e8 12 c3 3f
       0.2682150738176752 0.1490145532335913
000290 c2 f8 ee a3 78 66 94 3f 0d 18 04 98 f0 7b b4 3f
       0.019922146802621617 0.08001617156341485
0002a0 9a 54 14 c1 8a 7a a2 3f b5 f7 f2 48 97 21 b4 bf
       0.036091171330704344 -0.07863755732520768
0002b0 80 24 36 ab 6a 86 a5 bf 8a 82 14 e8 01 15 bf 3f
       -0.04204114284500182 0.12141429821032027
0002c0 20 65 96 82 9c c2 bd 3f d3 0a 2a 63 e5 b2 b5 bf
       0.11625078380747711 -0.08476098700524952
0002d0 62 24 c7 ff d9 31 bc 3f b1 df a1 4d fc e1 c5 3f
       0.1101356744249116 0.17095903196945764
0002e0 ca 8e f4 80 f3 96 be 3f 0e a6 3b 53 f9 44 b7 bf
       0.1194908323128018 -0.09089620859199263
0002f0 79 ec 97 c8 39 d1 c0 bf 8a 60 28 2f 2d 35 6d 3f
       -0.1313850621662345 0.0035653955940340753
000300 f8 93 f5 80 09 c3 cf 3f fc f9 f5 f8 e7 b3 c1 3f
       0.24813956066932952 0.13830279976168913
000310 8d 3e 14 1e 6b 05 7b 3f 36 19 bc e6 0b 68 b0 3f
       0.006596964290352181 0.06408762343571514
000320 d3 97 91 d3 7a 63 a9 bf b4 a6 aa 52 12 9c a5 bf
       -0.049587095571766014 -0.04220635661233754
000330 2d e0 29 48 fa f8 96 bf 3f d4 b7 2f 62 b6 8a bf
       -0.022434149412646476 -0.013043181496849353
000340 ba 01 15 1c 20 fc ab bf cc 5a 8e c5 3f 36 9a bf
       -0.05465793936537318 -0.025597568924775868
000350 68 39 a3 01 1b 12 a1 bf 47 f7 c6 a1 5c a6 be 3f
       -0.03334125895490808 0.11972598027838642
000360 82 80 f9 57 cc ee a8 3f 2b bd a6 b2 f6 a5 c2 3f
       0.048696885813797955 0.14568980906686
000370 55 78 48 ba 76 54 a2 3f 82 a3 46 f5 ee cb 96 bf
       0.03580065750087217 -0.022262319298224316
000380 7d f5 2e 05 79 b7 c4 3f 86 dc f1 90 30 f3 82 3f
       0.1618491435346349 0.009252910064090136
000390 a1 4d 4f cd 59 d6 c2 3f 77 0f 35 95 7c c8 99 3f
       0.14716646695033567 0.025178858382119054
0003a0 22 ae 7b 71 21 17 b9 3f 3a c1 8d 24 4a 1e b6 3f
       0.09800919552406431 0.08639968292641678
0003b0 3e 91 2f 6e a2 f1 b1 3f c4 ec 63 30 77 88 a5 bf
       0.07009329977114917 -0.04205677476599015
0003c0 ff 22 6d 49 4f ec d1 3f a4 f0 c0 0c 5c af a5 bf
       0.280048200326334 -0.042353512341351235
0003d0 cb 5a 6e ea a7 74 34 bf d9 28 49 d1 86 e8 b3 bf
       -0.00031212901597525423 -0.07776682481304266
0003e0 e0 a3 62 ac ac ca be bf e3 28 12 0a 12 be a9 3f
       -0.12028006752610976 0.05027824757515178
0003f0 fa da 11 a3 42 3e c9 bf 5e e2 84 95 43 2c b2 3f
       -0.19721253359212892 0.07098791504257337
000400 f8 19 f3 41 63 fe 96 bf 66 81 2a fa 58 05 b0 3f
       -0.02245478715919977 0.06258159740037214
000410 3c 7a 27 e0 35 14 b8 bf df 82 a2 a2 9b 95 be bf
       -0.09405838701739183 -0.11947033615662005
000420 c4 ab 47 af 03 24 a1 3f d0 0e 24 02 5b a0 b2 bf
       0.03347789301536566 -0.07275933077113028
000430 be 51 5e c4 82 7f ae 3f a4 6c 9e 37 3f 63 af 3f
       0.05956658026767368 0.06130406907978994
000440 55 d6 db 2c 25 9d b3 bf 57 e6 e1 91 2b c8 a0 3f
       -0.07661659569915831 0.032777177389061656
000450 e3 62 bb fe c7 34 b0 bf ba 76 7a f8 94 78 b4 bf
       -0.06330537766497062 -0.07996493402830654
000460 7a c3 d6 26 e1 31 b9 bf fa e8 0a a8 fe 19 b0 3f
       -0.09841735075202776 0.06289664843180623
000470 de bd 87 d2 57 2c 99 3f e7 e2 93 16 77 a2 b7 bf
       0.02458321783518424 -0.09232277203762927
000480 b0 55 ed a7 8e 50 b8 3f 88 f1 da c5 b3 8e a9 bf
       0.09497920608313026 -0.049916856672527266
000490 72 d1 7b 94 30 9b b2 bf 38 fb 4f 74 68 23 b0 3f
       -0.07268050789918393 0.0630402835813414
0004a0 d5 74 de 67 07 2a 96 bf 00 80 81 b5 b5 4e bf bf
       -0.021644702639254405 -0.12229476624770541
0004b0 f6 37 45 1a 88 8b b2 3f dc f4 9b 86 01 90 c2 bf
       0.07244158402792764 -0.14501971314158524
0004c0 1a 48 97 88 ff 12 c3 bf 0f a2 6b 0e f1 e3 61 bf
       -0.14901727838020024 -0.0021838863498155957
0004d0 69 b4 6e bc 35 dc 92 3f 30 1d 62 1f 2d 6e b2 3f
       0.018418159128192366 0.07199365631287402
0004e0 8f 30 aa 30 9c ef af bf 5e 98 0a da c1 4c a6 3f
       -0.062374955120589985 0.043554361215954115
0004f0 3a 30 e2 81 61 b4 98 bf 8b e5 1a 80 fc 0e a8 bf
       -0.024125598480665846 -0.046989336622071574
000500 09 92 1d 5e 5e 21 c1 bf 47 31 7a 4e 82 9b 90 bf
       -0.13383082957729212 -0.016218219795107982
000510 a4 fa 61 50 13 22 b1 bf 86 b5 4a 91 47 a0 b6 bf
       -0.06692620003193867 -0.08838317200816989
000520 63 4e 0a 31 31 26 b0 3f a5 78 f4 2b 57 a5 a0 bf
       0.06308276603004397 -0.03251144801673548
000530 6d d7 56 a3 0f 28 87 3f 2a 7e 70 76 99 90 be 3f
       0.011306879207818555 0.11939391271197822
000540 32 27 df f6 74 19 96 bf dd 5e 25 6e 09 9a b5 bf
       -0.021581485336162838 -0.0843816656027871
000550 c1 0c 8b 46 94 a4 bf bf 26 95 02 e7 b6 d4 c0 3f
       -0.12360502931828689 0.13149153022565335
000560 a1 31 21 c3 25 5f b4 3f d2 68 9b 43 4f 5a 8e bf
       0.07957683576495934 -0.014820689440444932
000570 96 c6 b4 cb ee f8 b1 3f e3 26 af 2f 2f 5c 7e 3f
       0.07020466302199177 0.007412132569649651
000580 5a 31 97 5c a2 1b b4 bf b0 29 88 e6 af 56 ad bf
       -0.07854666481506936 -0.05730199517354906
000590 4f 20 1e d8 2f cd 8f 3f 6e e1 e8 c9 ce f7 bc 3f
       0.01552808168686695 0.11315624646602426
0005a0 77 57 9c f2 e0 43 a9 3f 19 d4 57 d7 77 dd 86 bf
       0.04934599839741243 -0.01116460443425109
0005b0 a8 df 2b cf 03 db 54 3f 81 58 af 7a 4b 72 a9 3f
       0.0012729203414760613 0.04970012543314884
0005c0 fc d0 4e 3a e6 6a b2 3f 52 1a b3 85 f4 85 9a bf
       0.07194365428478372 -0.02590162340200159
0005d0 bf 37 27 8d a0 1d 85 bf d2 9a f7 53 08 29 98 bf
       -0.010310415561345708 -0.023594026684714837
0005e0 5a ff 6a 0f b9 82 9b 3f c2 d2 2b eb e7 4a b0 bf
       0.026865855756795433 -0.06364297381862641
0005f0 08 e7 1d f0 f6 c6 a3 bf 57 59 f1 0f 8a cb ab bf
       -0.03862735444177018 -0.05428725666631589
000600 c6 1c 2b 80 7b 8d a5 bf 01 bf 18 bb df ee ab bf
       -0.04209505023532638 -0.054556838597248365
000610 c6 f1 49 b3 60 e6 71 3f fc 07 b8 66 84 61 cd 3f
       0.00437009595463817 0.2295384885365478
000620 50 3c 3a 25 59 55 ab 3f 4e 3c d1 85 86 b8 c6 3f
       0.053385530275698145 0.1775062707333483
000630 20 9d c1 e0 36 7f ac bf ae a8 87 2d ed 34 c2 3f
       -0.055658068595955124 0.14224018786564357
000640 3d 91 c7 ba e0 cf b2 3f b0 3c 52 d7 ef 03 b4 bf
       0.07348446426437234 -0.07818507201067137
000650 72 88 29 44 33 02 34 3f 3e 38 b9 5e 77 b8 bc 3f
       0.00030530692689557167 0.11218973219476511
000660 5c 9a 2b e5 a8 e3 c1 3f 97 3c a5 52 f8 8b c7 3f
       0.13976012411076766 0.18395904574797292
000670 a0 d0 71 19 cd 9a b9 3f 56 ab f9 15 db da b7 3f
       0.10001832839208413 0.09318322454934722
000680 58 36 96 20 ce 92 a8 3f de 08 23 7c b8 61 c1 bf
       0.0479950346735733 -0.1357946973931296
000690 16 6e e0 78 cf 4e b9 3f a0 d4 20 52 42 af ad 3f
       0.09885880185213866 0.05797774555723234
0006a0 8f c8 07 e1 67 8b b0 3f 90 75 43 ad 87 52 b5 bf
       0.06462716335207318 -0.08329055767122484
0006b0 41 b8 80 bf 76 2f ba 3f 57 fa e0 82 be 90 b8 3f
       0.10228674102174386 0.0959586209801072
0006c0 c0 b5 01 b1 b3 45 9c 3f 1b 2a 3c 2c 7b 8e 90 3f
       0.027609641722326606 0.01616852242936249
0006d0 5c 8d b4 58 dc cb 97 bf c2 9a 21 49 cc d6 a2 3f
       -0.023238604463711496 0.03679502861705465
0006e0 15 51 21 7e e5 8f b6 3f a0 83 e4 2d 96 16 bf bf
       0.08813318566655355 -0.12143839474130269
0006f0 20 d4 3d 31 4a 89 b4 bf 63 0e 37 95 2a 4d a5 3f
       -0.08021987631021021 0.041604357447366146
000700 6c d7 a9 46 b1 4b b0 3f 3a 4e 7a 1c 93 c0 7b bf
       0.06365497565442774 -0.006775450375829767
000710 a2 db bd 72 4f 1b 6c 3f 30 84 26 e6 3e fd 93 3f
       0.003430991337093529 0.01952074317671676
000720 8e a4 cb 34 f8 b1 b1 bf 3a 43 a3 93 0f ec b1 3f
       -0.06912184990837231 0.07000825266301272
000730 f3 ee 27 5b 36 26 c7 3f 92 9e 06 69 a8 26 60 bf
       0.1808536477182013 -0.001971558500560474
000740 a2 2e 14 e8 7b 4e c5 3f 24 44 b3 c9 83 e8 b8 3f
       0.16645764190649454 0.09729789423296659
000750 00 b4 ae 8f a6 e9 a7 bf cb cc 7e 20 a5 a0 92 3f
       -0.04670448783813441 0.01819093714557311
000760 51 5e e1 f7 79 20 bf bf 3a fb 8b 29 44 98 c4 3f
       -0.12158930112615819 0.16089679745342683
000770 bf c4 73 0f 0d 36 bd bf 3b 43 9f 4d 99 cc ca 3f
       -0.11410600306750761 0.2093688611044174
000780 25 b6 c7 97 84 69 c3 3f 19 7b cd a7 c1 22 96 bf
       0.1516576520074732 -0.02161696039854197
000790 01 d8 4e fb 5c c2 a0 bf 93 38 45 81 db 62 c3 bf
       -0.03273287360882194 -0.15145438968687994
0007a0 1a de 61 16 f8 7b c0 3f 4e 0d ce e0 70 7a b6 3f
       0.128783236435752 0.0878058003273072
0007b0 ed 82 cc ed 7e 61 c4 3f 76 c4 36 04 33 59 b2 3f
       0.1592253361823376 0.0716735730445793
0007c0 2b 0c 8d 40 ab c7 c1 3f 82 38 bd d4 6d e0 a6 3f
       0.13890591289427454 0.04468100759423611
0007d0 43 cd 12 5a 90 de 7a bf c8 a7 7e 9e 3f 2f af bf
       -0.006559909700786295 -0.06090735254049623
0007e0 a4 72 3d 87 3c e4 bb 3f 32 16 ba 93 fa 17 b1 3f
       0.10895136167295988 0.06677213770498083
0007f0 a9 4a a5 89 79 4c 97 bf d8 6b 93 46 61 1b 8c 3f
       -0.02275266554472447 0.013724098173431828
