models/diff_mpo_sharpe.pth (torch, 565790 bytes, 18 tensors)

lstm.weight_ih_l0 f8 [256, 13]
00000000: 2b3d ff5b 2c1c c1bf a222 86a8 5a03 d73f
00000010: fddf 321b c9a3 b3bf 505f 3fb9 f55c b63f
00000020: dc17 73a0 f3c1 bf3f 5a18 7aa5 d352 babf
00000030: 432d 2772 818c ae3f 2c89 188c b2ec 8d3f
00000040: 17a4 4ffb feac 8bbf a5e3 8a47 b141 d23f
00000050: 4586 9c92 ebb1 983f d4ca 19c8 849e c93f
00000060: 0a9a 86fd 4edc 88bf 91bd 03a4 75ef a03f
00000070: 0c3e 70d8 47a7 d9bf 4ac5 feed 622a c0bf
00000080: 8616 ac07 aecc c1bf 0275 316b 9fec 873f
00000090: 7659 cd68 3719 cb3f 64d0 4b48 44d8 bc3f
000000a0: 48c3 df49 4edc cd3f 1b61 7edb 6f68 d23f
000000b0: ad5c c0b2 8251 b53f fc4c 2641 8345 9c3f
000000c0: 4093 ca3b 86cf 943f 0cd7 48dc 1537 c9bf
000000d0: 6966 8850 8d43 d43f 69ce d119 4dfe ba3f
000000e0: d226 e635 36ea babf 4a23 3ba9 cedd cfbf
000000f0: 4d60 5b8d c381 a2bf 61be 5873 ee66 bbbf
00000100: 26b7 f9e7 2cf2 2c3f 30a5 9c01 842f d3bf
00000110: 8d92 02d8 b880 bebf f391 563e 15d1 a23f
00000120: b050 b8a0 edc4 a33f db72 5fdc 883e a3bf
00000130: aa7c 037f 8c9a b43f 2347 2a7f bd56 c83f
00000140: 266e d7b9 2295 cc3f 800a 04e4 a24d b1bf
00000150: a204 128c 0bd9 b3bf 4e74 3b05 2c50 a53f
00000160: 5725 8bdb d7f4 ae3f a15a 5e26 8242 c3bf
00000170: 0b84 179d 9a76 ad3f 217d e100 3c8e a2bf
00000180: 2c8f fb6a 3ae8 c33f 85f4 b7cd 3fbd c33f
00000190: 93ff 0ed9 7ab2 b03f 4dfa b321 2c03 c13f
000001a0: 2dfc b7cc ac67 cfbf 27f3 7278 51f5 d63f
000001b0: 43b2 bd08 6ad2 c53f d8b4 e302 db60 c73f
000001c0: 4422 1a7a cfce 3bbf fc79 31e1 e475 bf3f
000001d0: cf04 9b74 7b0a d33f c1f6 ba65 2ff0 a5bf
000001e0: 3143 b992 830d 90bf 91e1 3192 30d2 693f
000001f0: c559 c2ca f1f8 b93f 61ce d4b9 e758 aa3f
00000200: 7166 8862 984e acbf e9e8 8adf b2db 99bf
00000210: 3abd 558d 404b 953f a49c 4eeb 1408 c1bf
00000220: 630a 71a1 d45f babf 6f2f 6b12 d67f 913f
00000230: 77c5 17d4 1d33 96bf f346 a15c e41d c5bf
00000240: 4737 e80f ab76 8ebf f4b0 6c4c e506 bc3f
00000250: e340 e391 5e2b cb3f 87fd fd14 c0cd a53f
00000260: bd7c b28a 9f20 b0bf 1f6b be17 4264 a83f
00000270: e743 a470 1411 c7bf e050 f6a7 69fe c73f
00000280: a603 fdda 20b6 b93f 8b1b 66f0 0bae 5f3f
00000290: c318 8625 d21e 7c3f 74ac 982e 3b59 b7bf
000002a0: 5780 2d91 bd1b b73f ebc6 785f faa3 96bf
000002b0: cca7 6c09 196b abbf dd8b 53bc 886b cf3f
000002c0: 2139 c633 e197 c6bf 7db6 7e9a 67f0 b53f
000002d0: eaa6 70c7 b4c8 cabf 2d38 aad5 51ba c7bf
000002e0: 966b f79c 68f0 b93f 03f1 eb0e 9362 bf3f
000002f0: 78e0 7a78 6b4d d53f 97e0 5b05 efcc acbf
00000300: fd7b 6e09 019b 403f b043 7e7f 7ca4 c23f
00000310: c018 07b0 11b5 c3bf b77f d2df 78b5 5a3f
00000320: e852 5194 e4d0 cc3f 9d5f ffcf bac6 a1bf
00000330: 2669 af8b 7471 b53f 0d28 7262 125a b53f
00000340: ed00 da93 b761 b0bf b4a8 0fd3 9d83 87bf
00000350: 0d31 e1f6 6b3b b2bf c868 2e09 993c a63f
00000360: 33cf 2833 fef6 a3bf 6b33 fd0f c630 c43f
00000370: 0404 d452 785e b93f 7c48 cf1f 5062 bd3f
00000380: 70e5 5529 0c18 933f 7d7b f793 b078 a23f
00000390: b212 63da 800b bdbf 2248 683f 08dc af3f
000003a0: 8d55 bab8 a632 b2bf 1264 a48a 73d5 c53f
000003b0: 18ac 01c3 5c75 c7bf b045 ee14 f73f b33f
000003c0: 0c36 c5b8 49e1 b8bf db4c 9c70 421d bf3f
000003d0: 9599 e568 7d06 a2bf 20b4 4ad4 992c d1bf
000003e0: 68b0 3dfc 408a a73f 2e25 4f13 44e1 b23f
000003f0: 7a27 ace2 8835 a73f c0fe b96a 1522 9cbf
00000400: 7362 f5b6 ea89 a33f 34fe 9860 a954 c03f
00000410: c72e c403 6ace a43f 420f 2614 2fae b3bf
00000420: 33c0 0e40 b569 c23f 427d ab13 77a2 ad3f
00000430: 7690 d40a 0a06 cd3f 904f a2f0 5bf4 c4bf
00000440: 7df5 0b0f 1719 ad3f 0c00 83eb e3d8 c8bf
00000450: 55df f7d5 104d a9bf cd9c 07ea fd89 b53f
00000460: f58e 21a0 a709 c43f f065 906b 92ce b93f
00000470: e0c9 e2e0 f49a be3f 2691 8aa7 889d d93f
00000480: 1b03 6765 826b 59bf 03b7 bf16 b678 b23f
00000490: 99ae 0c9c a478 c5bf 8673 b17b a0df b83f
000004a0: dc89 4a9a 19c1 cd3f 82d6 f121 d922 b9bf
000004b0: ceb3 a743 1442 cf3f 11c4 a1b9 1f1d a33f
000004c0: eba4 7234 2de1 a63f fbe3 1ce5 fc7d 96bf
000004d0: 7dbf 2510 c5e1 b2bf 2806 784f 2638 d6bf
000004e0: 2307 0d99 d219 cbbf eede ce5d 6715 b83f
000004f0: 8e93 d228 22ff cd3f 5626 3d47 22d3 b33f
00000500: 8b14 520e 07fe cf3f 083d e574 43c5 d0bf
00000510: 74d5 2670 7b70 d0bf 7fba 78ad b59f c2bf
00000520: 0dbe 1310 3b66 c5bf a1b2 5f10 e61e c4bf
00000530: df1e b96f 7b55 bc3f 9e84 a8b3 65b4 c8bf
00000540: 25d6 5316 4abe bb3f 04b6 1c8d c1bd c8bf
00000550: 26aa 0892 5c32 ba3f 7f2d 92a8 15ff c0bf
00000560: 34b1 a7c7 a4ab 9bbf a3d8 8145 c069 c33f
00000570: e489 f59e 8030 c73f 5052 2d72 9db1 a13f
00000580: 83f3 02da 49bf a1bf ff71 3cba 5385 91bf
00000590: 403f adac f59f 9d3f a921 5f3c 78c7 c23f
000005a0: 308f 033a 0ccc 713f b2a8 e697 f00a b1bf
000005b0: 3017 963a 320e c0bf a95c 1afb 7378 a63f
000005c0: a6e3 c700 b861 aa3f 1d6c 846c 994d c5bf
000005d0: 4ce9 1b11 5a5a b63f cc35 7db9 a664 c43f
000005e0: e1db a17b 4bf0 b9bf 4f2f a50a 29c5 a63f
000005f0: df5e 0817 85f5 a0bf 1144 97ce e206 39bf
00000600: 2839 74d1 84f9 aebf 3965 9738 8228 d2bf
00000610: 2755 aa30 f4cb a73f 6c4c 47db 01a9 aabf
00000620: acb5 0144 88ba bd3f 9b8e 3242 d877 a9bf
00000630: 413c be8d 7a34 95bf aa66 36cd 166e b0bf
00000640: 4b9e 89a5 2f9f c03f b927 9245 d407 d23f
00000650: 4152 aae3 1220 bf3f 3993 3993 412a cc3f
00000660: 06b6 3dc7 e036 d43f 9fb4 bb08 861b bfbf
00000670: 0808 3677 545f d43f 76d7 be9e 2e2d d5bf
00000680: ea04 0f8d cb6e bbbf d0f2 6308 3840 bf3f
00000690: 6223 6a93 8db6 bfbf 4a12 c8d8 0d7f cbbf
000006a0: 0d0a 8a05 0604 bd3f a6df ecb3 cadf c93f
000006b0: 7555 4043 32dd b33f f20a b473 71b1 adbf
000006c0: 5665 7592 0b43 77bf 07b3 232a 0c24 b7bf
000006d0: aa79 22f4 89d1 c0bf daca 29ba 3359 a03f
000006e0: 07e1 dd66 f6a0 6b3f 6522 a75c 98ac b13f
000006f0: 3b39 4779 7a4c c5bf d0f0 4906 9032 c0bf
00000700: a68a 259e 1552 c0bf 3e16 3a29 1fae 97bf
00000710: 4a81 c3b0 5a31 a7bf 35c2 b82e 9f35 d13f
00000720: a233 f43f 4b50 acbf 1bd3 8d3d a3d1 bcbf
00000730: 1dea 5cf9 2b92 c83f 4a46 3157 19fb d2bf
00000740: 1981 db0c e881 d13f e396 9ed4 f1c3 4cbf
00000750: 7ead ef9b 293d b03f 1439 4f64 6ed1 a23f
00000760: b952 9751 ee70 c63f ed4c 05d3 41fc a73f
00000770: 0d55 3087 8033 8b3f 0f3b daa3 4565 c3bf
00000780: 5f5e 1ff7 da31 c9bf 3a4a e3b6 16e4 c1bf
00000790: a568 fa59 bf09 cabf e0fa 7173 101b c13f
000007a0: 9291 789c b474 c03f 88b5 984a 3539 ccbf
000007b0: 5746 bafb f792 c63f dd56 b5a2 7f5e a5bf
000007c0: 121c b6b2 5d8b d0bf 3b0d 8bf5 2e2d ce3f
000007d0: d739 8e78 0e07 a2bf 1eff 8293 b917 d23f
000007e0: f52c f967 398d c23f fad0 3184 91d4 d8bf
000007f0: 3313 31a5 16dd d1bf b619 aa8f e438 b3bf
-0.1336722802356943 0.359579720091043 -0.07671791948348523 0.08735595486302583 0.12405321757532256 -0.10282633581127368 0.05966572302312525 0.014611620808015667
-0.013513557476430944 0.2852595518739299 0.02411621172280422 0.20015010614914408 -0.012138955223076859 0.03307693125850187 -0.4008350003868777 -0.1262935316167762
-0.13905883192653706 0.011681790789391137 0.21170704476635266 0.11267496838610352 0.23328569991238113 0.2876243251316894 0.0832750021366901 0.027608919955651054
0.02032289256989661 -0.196993572769934 0.31662304749042974 0.1054428279911065 -0.10513628784078868 -0.24895652068360113 -0.0361462698035103 -0.10703935924606746
0.0002208404366572044 -0.29977512509738613 -0.11915164254839734 0.036751426562918875 0.03861181818879922 -0.03758647623155805 0.08048322773855668 0.1901471014903616
0.22330125879567325 -0.06759088579932815 -0.0775305954903325 0.04162728847379836 0.060461755323170045 -0.15046717523064948 0.057545501400234476 -0.03624141226532119
0.15552454208147404 0.15421292824604307 0.06522338675767818 0.1329093136373153 -0.24535140987424722 0.35872303736305117 0.1704838316612883 0.18264329567992976
-0.0004243141685056665 0.12289267061121473 0.2975147856451032 -0.042848092239621056 -0.01567655165701182 0.0031519840863973377 0.10145484161544178 0.05145954268882914
-0.05528713419716958 -0.025252146619757197 0.0207948766960133 -0.1330591343841877 -0.10302475873417331 0.017089218973338868 -0.02167936903965059 -0.16497473261784243
-0.0148747791509113 0.10948021999201157 0.21226102946685108 0.04258537536861256 -0.06299779068148133 0.04763990917054727 -0.18020873546677693 0.18745156003263386
0.10043530794520325 0.0019335857956279425 0.006865330586498244 -0.09120530974966973 0.0902670363843766 -0.02210990150178464 -0.05355146637005212 0.24546918101904583
-0.1765100004963154 0.08569953462457565 -0.20925006616862812 -0.18537352497918516 0.10132459480466446 0.1225978766851235 0.33285033002494613 -0.05625101986328323
0.0005067591726976014 0.1456447241330614 -0.15396329016784271 0.0016301803982869797 0.22512490503381533 -0.03471931256325365 0.08376243982585105 0.08340563682045872
-0.06399104461343415 -0.011481507304740603 -0.07121920373282738 0.04343107449604272 -0.03899378180031334 0.15773845463482003 0.09909774801418797 0.1147813871059799
0.018646421454353967 0.0360770397780845 -0.11345677692140546 0.062225587597041235 -0.0710853768344661 0.1705765177692063 -0.18326911470225649 0.07519478093151721
-0.097187621698332 0.12154021500855398 -0.03520576386908939 -0.2683472226297585 0.04597666815865936 0.07374978515067163 0.04533031241415038 -0.02747376884371877
0.038161597093396525 0.12758366791421027 0.040637314758070135 -0.07687658540640732 0.1438509524136876 0.05788013568030205 0.2267468026049106 -0.16370724916179968
0.05683204706836429 -0.1941189670524185 -0.049416090125247315 0.08413683856598482 0.15654464072132837 0.10080828786922047 0.11955194940927738 0.40024010049298153
-0.0015515111350483171 0.07215440802948696 -0.1677442323647156 0.09716227550366172 0.23245544465778678 -0.09818799093940281 0.24420407584639608 0.037331572923797414
0.04468671097976958 -0.021964980586947274 -0.07375747341370516 -0.3471771026671342 -0.2117255446738052 0.09407659569012214 0.23434855454720743 0.07744039763670094
0.24993980597733798 -0.2620400086934329 -0.2568653674346344 -0.14549895258229026 -0.16718233380332528 -0.1571929531050005 0.11067935445418751 -0.19300528786064758
0.1083723358641114 -0.1932908953689748 0.10233095708159876 -0.13278456431394756 -0.02702195614431098 0.1516647662535365 0.18116767656017807 0.034558220088602654
-0.03466254030488527 -0.017110164873075814 0.028930510200836368 0.1467123312743415 0.004344985733243864 -0.06657317837258139 -0.12543323383959537 0.04388773384305839
0.051526784987749694 -0.1664306430692201 0.08731615941716092 0.1593216329296595 -0.10132285850873714 0.044472963857144714 -0.03312316805039272 -0.00038188016204993106
-0.06049742752849091 -0.28372245337012064 0.046477919521900106 -0.05207067300548193 0.11612750683135314 -0.04974246795725642 -0.020708002950012853 -0.06417982587881946
0.12985797484292258 0.2817278556254866 0.12158315714106839 0.2200395554420085 0.3158494897569145 -0.12151372636044976 0.3183184780283459 -0.3308826971291333
-0.10715934938254504 0.12207365231365519 -0.12387928818692509 -0.21481488308940505 0.11334264407381785 0.2021420839826053 0.07759393827321566 -0.057994408964097036
-0.005679173663645306 -0.09039379147334269 -0.13139461918485767 0.03193055770397786 0.0033726513419730683 0.06903984319718288 -0.16639643594539585 -0.12654304797241034
-0.12750501844410173 -0.023125159159937285 -0.04529841811904818 0.26889781534831353 -0.055300094181894424 -0.1125738168028189 0.19196080852437172 -0.29657586588755136
0.2735538602410244 -0.0008778506100852425 0.06343326622998366 0.03675408339005251 0.17532137855473254 0.04684644413887349 0.013281826139101694 -0.15152807713135316
-0.19683396402864425 -0.1397732155806624 -0.20342246907677466 0.13363843571638423 0.12856156959709303 -0.2204958547821827 0.17636012832058398 -0.041736591922626444
-0.2585062260845358 0.23575388898289326 -0.035210087028747665 0.28269805341186494 0.1449348218614898 -0.3879741469347803 -0.27911916858674884 -0.07508686549599627

lstm.weight_hh_l0 f8 [256, 64]
00000000: 7cd9 3086 ea18 cbbf eb63 4041 d310 c4bf
00000010: 65b7 cd6d 0ea0 a93f eb27 2c6f 7d00 be3f
00000020: 7f1f bb35 2026 d03f e69c f581 208f b2bf
00000030: fd1d 5d23 6d0a bb3f 3ae5 77c5 0a62 8a3f
00000040: 3341 3960 49a7 a4bf 1a29 4800 9190 b13f
00000050: 32ce b76d b183 ccbf 985f c2ac 28d0 d5bf
00000060: 6236 d49f a1c6 a83f 0e4e 71a4 88f1 c33f
00000070: 3f52 12cb aa9a d1bf 77c9 0403 2fb1 92bf
00000080: b562 2bd7 0823 bebf e363 9270 a1ad b3bf
00000090: 89fc be35 537d 6e3f 90c2 d60e edff db3f
000000a0: 5493 5257 e659 bd3f 61c0 650e 7e28 d5bf
000000b0: d049 9100 0f2a a73f 8c1b 8df1 e3ad abbf
000000c0: 5718 840d 31c3 babf ae81 da16 33c4 c1bf
000000d0: ddcc ea9c dff6 b53f 2789 a666 e39b b53f
000000e0: 184a aafb 4f6f 9ebf bafa 557a 2f78 81bf
000000f0: 03b1 7f8a c931 b33f e31c f5f9 613e bdbf
00000100: b5d4 16fc 8f14 8c3f 139c f188 922f c6bf
00000110: 0afa fcd4 97df a33f 7e24 f0fe fa6a a3bf
00000120: e48b cfe5 c161 cabf a3a0 35fc 6e37 bc3f
00000130: 7f02 0706 63ef b93f ab7d e46b 3a05 d13f
00000140: 5e67 ee8b 0813 ca3f 2f79 79d3 31e7 c13f
00000150: 038a a689 f148 b9bf 6e47 dcab 2a3d 9b3f
00000160: 3d9a 1534 a9bb a23f 683f 7edd d0e1 ab3f
00000170: eadb 4088 838c c9bf 0354 71df 3178 b03f
00000180: 30f9 fc9d 157e b93f cd6d 7328 9f4d d1bf
00000190: c1a5 b37d fe06 c1bf a936 32aa 04e9 c53f
000001a0: bb40 c0c2 400d 973f d802 46ed 80f7 c6bf
000001b0: 052b e3e4 5a22 b83f 2700 62bd dbf4 b4bf
000001c0: 09d0 bb12 937e d33f f690 a636 a58e c23f
000001d0: efc5 631c e67c b3bf 904b ab76 df0c b8bf
000001e0: c072 cca0 9a09 c63f 417b ff8f 09cf bfbf
000001f0: 666e 7126 7a9a b2bf 7333 e476 3ec8 cf3f
00000200: 7ea8 3c8e 7a6e 71bf ca29 5165 60f3 c73f
00000210: 5a43 a55d 5b88 c1bf 72be 2a36 4948 b33f
00000220: 158b 9f30 637a bf3f 2056 50fc aeea 973f
00000230: c465 7bfd 7eb7 bbbf beca d8f1 f1b0 c33f
00000240: b87b 5465 faaf b3bf 0218 7e54 c021 a13f
00000250: a566 eda9 f9b4 b7bf 366e 5a63 651b c83f
00000260: f495 432f 630c b83f 427d 3ba7 9f09 a1bf
00000270: f1ee ce5e aaea b5bf f71f 0749 65e4 b63f
00000280: e531 aa0b 16f2 c53f dfab 2d22 84b3 b8bf
00000290: 360b 3338 37c7 a63f dc9f 6177 7cbe 853f
000002a0: 944f f622 4746 a8bf a2ab 8bd6 7a7f c03f
000002b0: 2aae 1362 a46a a7bf e1d1 bd64 0a6e b2bf
000002c0: 0ace 1c8e 50a6 ad3f 73f3 13cd f7a9 babf
000002d0: 7fc6 c07d 5e34 b53f 563e fd45 238a c23f
000002e0: f445 21bd ebbb ca3f 4d4a b364 3a2b c23f
000002f0: fd74 e371 f676 c6bf d9b1 e0f6 249a a6bf
00000300: a43b fd29 8afd b83f b5bc 1307 d801 b43f
00000310: f88d 42a8 518d b43f 28c2 7d83 1522 a0bf
00000320: 4ef7 fd96 cbf7 d5bf 8a90 f4fe 473b b6bf
00000330: f67a c513 d0a4 b23f 776f 6472 05d6 ca3f
00000340: 4787 6885 b624 cabf 3475 3019 ca40 c63f
00000350: 55a5 2507 b2a4 8b3f 2fdb 3be6 d00a 903f
00000360: a139 d580 4701 b2bf 7ca9 54e6 de14 a8bf
00000370: d1ed 599e b160 bd3f d523 f0e7 1f49 79bf
00000380: 853f 4ff7 1324 993f f3c1 7d84 67ea b8bf
00000390: a1c6 0584 d82c ccbf 68ea 8418 3cdf 903f
000003a0: 5507 6a18 2784 ae3f ced3 9f10 d107 b6bf
000003b0: 3569 d1f9 9393 bb3f bcbd 3a92 5238 903f
000003c0: 4091 b206 6f3a b43f 6bd2 23a5 68dd d03f
000003d0: 24c4 1343 5db0 ca3f 1408 77ff aa01 a4bf
000003e0: 4fa1 6500 bded cb3f a936 a06c f631 ccbf
000003f0: 4d12 6cce 2459 99bf 33a7 c062 fe99 82bf
00000400: 43cf f8fb 4d23 c0bf b0cb 5a07 cc62 c2bf
00000410: 7203 d247 c72f a73f 4513 49a6 3e90 a2bf
00000420: 2b33 bdd2 b057 c13f 5f49 5ac8 64c2 b1bf
00000430: b3b7 7786 fd8b bfbf cd4f d6db 5fb0 c0bf
00000440: c588 6286 b9d1 b03f 8d54 921f 0a7f 8c3f
00000450: 3c93 3bdb 201d c7bf e62b c3a3 6ee5 883f
00000460: 253f e3da eeae b93f 9227 9a92 bbac a03f
00000470: 65a4 0113 b3e8 bfbf c658 30c7 0242 aebf
00000480: 86bf 4c1b 6f93 a73f e690 f866 06fa 9bbf
00000490: 27ee 6727 e037 a43f 56a6 d3b3 eed5 d33f
000004a0: 23e3 fccb d2fa c43f 66a9 fb43 746b bc3f
000004b0: 9a5a 66ad 316e c7bf ffbd ce9e 309a ac3f
000004c0: b516 7152 5f43 aabf 1004 79f3 c99a d2bf
000004d0: f8c9 4570 ad79 96bf 5220 e5e1 6f75 89bf
000004e0: e189 b2cd 1703 b23f 7e8d 62c7 ed21 c3bf
000004f0: 63ea 8f69 16c4 7d3f 8082 2f04 c40d c93f
00000500: cc18 1b28 122f 7dbf a617 48f8 eec7 a13f
00000510: cdc6 224d eb0b a43f fc65 4750 7c9b ccbf
00000520: 9a35 36ed e72d c43f 86b6 acfd 642d c13f
00000530: ffec 50ff aa95 d03f ccc3 290a 97b5 c6bf
00000540: 7c59 5c1b cdcd 87bf 7ab0 4681 4635 b33f
00000550: 0b9d 3ebb eaa5 9d3f 9f5b 5293 e847 ae3f
00000560: 3311 1a32 eabf a2bf f211 ca52 b820 bfbf
00000570: 2dcb a293 c96c bfbf 6bbb ccbb a31a b1bf
00000580: f9de f1c8 c801 c1bf d583 bcd1 6a50 bd3f
00000590: 6448 4e46 2910 c53f 475e dd2c bff6 c5bf
000005a0: ea00 ad0d 05c4 9f3f 9065 6a53 79d0 c0bf
000005b0: f62a dbef bd47 c33f ce3e 33f2 879e 8fbf
000005c0: 8f4f 3b78 f26f c1bf 28c6 67b6 5ea6 5ebf
000005d0: 4e39 9216 8a00 b1bf c980 eb18 3451 a9bf
000005e0: 0ea0 00b7 c6e4 abbf 130c 975d db34 c43f
000005f0: 9c1b 5aaf 0c56 a43f 8dd2 a8f4 53bd d13f
00000600: 0ed9 748a 0c6c 843f 702a b326 575a babf
00000610: bf35 bc11 7b86 973f 3e27 353d 07a3 b83f
00000620: d5c0 66e0 4bed 99bf fce4 f8e4 f1ad cabf
00000630: 7fb1 c27c 6af8 a83f a962 e4df 84fb b0bf
00000640: 1d9d 89e4 9103 a63f 048a e351 401d c7bf
00000650: eda0 a112 766b 503f e4dc 5675 e94a b53f
00000660: 488d 2775 5725 c3bf 6d12 5ccf 7a1d b63f
00000670: 8456 89a5 648c b7bf e288 4e1e bcfd b93f
00000680: cc2d acbf 737c d0bf db64 8f25 664f c33f
00000690: d31c c0e7 2c35 d03f bbc3 ae7d 0d53 a13f
000006a0: 8600 73d1 5170 ba3f f63a bb47 bcb7 ce3f
000006b0: 95f7 348e 2991 8c3f 7317 51cf 2a00 bc3f
000006c0: ec8e 3e67 c22c c4bf bb47 f681 90d9 6a3f
000006d0: ccc4 0827 102a b23f cee9 1e9e 8c36 c63f
000006e0: 6071 f716 0459 b7bf 4d0b 681b 13e8 b3bf
000006f0: e47f bcfb a4bf 91bf ed58 6a08 43fc a2bf
00000700: 9d5a d390 baca ba3f 93b7 116c 5746 cdbf
00000710: dcdc 2f36 f777 c2bf 7b4c 0882 0218 c13f
00000720: 6bbf 0e9d 988a 8cbf 66a1 a70e 8178 a83f
00000730: fc6e 1883 5838 b03f 33f2 fdb9 e87b b4bf
00000740: 51ae bfaf 93db d03f bb2c 8716 bb77 c53f
00000750: 283b 0fcd 6f7e b73f 0048 25b8 3de4 b53f
00000760: 658b f004 e48b b93f 9683 d22e 19c4 b0bf
00000770: 4b5f a7d3 77a5 b23f e229 4645 72d2 a83f
00000780: 93ff 3e75 24f8 bf3f 654c af65 77c3 b9bf
00000790: 0e63 275e 216d ab3f 90e8 b939 8298 c8bf
000007a0: 7ee5 480f 335a 99bf a17f 4ea9 ea2f cbbf
000007b0: e261 603e 26b3 c63f 9408 31a5 9f3e afbf
000007c0: 8f12 7a5b 06c4 c8bf 166a 88fb 0f05 b5bf
000007d0: 3799 0996 e686 b9bf 3a53 5b5d b080 a63f
000007e0: 2171 dc22 a252 bc3f 8a6d 984d 1159 923f
000007f0: 1557 8bf2 7a3a c3bf e8da e79d 1776 a73f
-0.2116978793362242 -0.15676346479520417 0.05004925814033249 0.11719497646495795 0.25232701537287733 -0.07249644444310696 0.10562784303066759 0.012882312918906725
-0.04033879565816036 0.06861215836412207 -0.22276895387004597 -0.34083001013777325 0.04839043689763113 0.15580852536605544 -0.2750651343460823 -0.01825402694630315
-0.11772208455239304 -0.07686814306579452 0.003721869010376692 0.4374954838668055 0.11465301162622882 -0.33059646039965257 0.0452427566712178 -0.05406105350134913
-0.10454088764171963 -0.13880003562827653 0.0857982404802899 0.08440991645924055 -0.02972149823706091 -0.008530016823667597 0.07497844344442588 -0.11423313477017731
0.013711094742442457 -0.1733267944975699 0.03881525492623801 -0.037925571079605355 -0.20610831948496788 0.11022084863145891 0.10130900284912946 0.2659441045415984
0.2037058528192643 0.1398680002775534 -0.09876927958115549 0.026600519885568934 0.03658798943324768 0.05445721343778481 -0.19960064080234413 0.0643340273393989
0.0995801459039043 -0.27036265325815806 -0.13302594316273367 0.1711736517940399 0.022511493574768986 -0.17942821107501206 0.09427421653814967 -0.08186124204257848
0.30460049466569267 0.14497819107521764 -0.07612455552204954 -0.09394642493434291 0.17216809131141098 -0.12425288930488156 -0.07266963423301717 0.2482984619640792
-0.00425575135504108 0.18711476275559696 -0.13697378227746065 0.07532174656329874 0.12296123444643244 0.023356184148800918 -0.10826867760206144 0.15383743580749426
-0.07690396283986345 0.033460626901657534 -0.09260521315209276 0.18833606101257921 0.0939390173330919 -0.033276547588452235 -0.08561196150452212 0.08942254097848933
0.171450381942477 -0.0964891990130776 0.044488645181920125 0.010617229836682833 -0.047411177652207176 0.12889037586077473 -0.0457354898188352 -0.07199158629902726
0.05790950522205314 -0.10415600544724928 0.08283033914701753 0.14484063069766034 0.20885988936292643 0.14194421689042472 -0.1755054527374468 -0.044144778381766954
0.09761870885016194 0.07815313504009931 0.08028135641011847 -0.03151004057042811 -0.34324922318761686 -0.08684205984588025 0.07282734377575281 0.20965641103327545
-0.20424539102628556 0.1738522170061657 0.01349772533713415 0.0156662598155563 -0.07033202071509105 -0.04703423082021893 0.11475668064115686 -0.006173252709239703
0.024551689118936366 -0.09732672676705771 -0.22011858412183918 0.016476572987111388 0.05960199521088209 -0.086056772764848 0.10772061204025792 0.01583985345376758
0.07901662744058502 0.26351371886202085 0.20850721144918893 -0.03907522552937351 0.2181926967562142 -0.2202747373962002 -0.024754119013794363 -0.00908278216236944
-0.12607741168323558 -0.1436400447761037 0.045286395566114815 -0.03625674991466225 0.13548860826485884 -0.06937246219084646 -0.12322983296300442 -0.13038252100216
0.06570014506226858 0.013914183701027727 -0.18057642655107908 0.012156357166892517 0.10032551616609149 0.03256784596039987 -0.12464446271919057 -0.059097372832341885
0.046046707231993486 -0.027320957217072193 0.039488797006893166 0.30993239937979433 0.16390452347129622 0.11101462039701956 -0.18305035559452137 0.05586387575692341
-0.05129526025170376 -0.2906975629485382 -0.02194853780515335 -0.012431024628895813 0.07035969516667918 -0.14947292552561103 0.007267081783533943 0.19573259548544186
-0.0071249684567133535 0.03472849636823065 0.03915343586539919 -0.22349504394405517 0.1576509388218426 0.13419783007104885 0.25913500722136 -0.17741668697592983
-0.011623003385051282 0.07503166824489141 0.028953235319616726 0.05914236830101704 -0.036620443931527545 -0.12159301778053314 -0.12275371412651444 -0.06681273779825651
-0.13286695300825338 0.11450832005040408 0.16455570156955723 -0.17159261408481738 0.03102119346590452 -0.131362119417457 0.1506268902943117 -0.01543909271131785
-0.13622885580718644 -0.001870720379539734 -0.06641448069624298 -0.04944765857885753 -0.05447979911724597 0.15786306447816453 0.03971900597121378 0.2771806611301962
0.009971712088923581 -0.10294098563023524 0.022973940808744816 0.09623761410071283 -0.025319276400922092 -0.20843337707791665 0.048770263413959285 -0.06633787599674669
0.04299598612561282 -0.18058017729261178 0.0010021832518081711 0.08317431559304428 -0.14957707615313098 0.08638732492915731 -0.09198597947519188 0.10152793636237648
-0.2575959560205916 0.15086056550970892 0.25324556953314675 0.033836766807673745 0.10327636111742508 0.2399821615458319 0.013948750164327875 0.10937755166477618
-0.1576159481165783 0.003277570954829804 0.07095433190331163 0.17353971215000147 -0.09120202599246374 -0.07775992793180571 -0.017332628121152896 -0.03708085515715873
0.10465589557439121 -0.22870915200058714 -0.14428606172416536 0.1335452208446418 -0.013936226170556862 0.04779437354938203 0.06335976791927672 -0.08001570263690709
0.2634019104286596 0.16771639442445072 0.0917730212815796 0.08551393266432683 0.09979081268879282 -0.06549222367404037 0.07283734242753075 0.04848057838087862
0.12488010275319388 -0.10063883049524376 0.0535669734414964 -0.19215419596350047 -0.024758146102816785 -0.21239979998517547 0.17734220548369622 -0.0610246552610231
-0.19348220316546302 -0.08210849657954386 -0.09971467173599967 0.04395056857689501 0.11063588477231125 0.0179178908930289 -0.150222176008065 0.04582284739074344

lstm.bias_ih_l0 f8 [256]
00000000: d0c3 5a2c bcf4 99bf 8a72 9a3a a388 9f3f
00000010: c271 0978 4e70 b4bf ccb1 6d5b 1f41 7bbf
00000020: 5820 85df 48a1 b0bf 80f4 5467 2dc3 7bbf
00000030: 0e70 7b63 02d6 b1bf 0597 949f 0ead a7bf
00000040: 338f 9da7 f533 b3bf 7f5f d556 ea31 803f
00000050: 3dba 2616 ba8d c6bf acda 240d 2cab cb3f
00000060: 4d42 619b 09c7 b63f d2d8 707a 0605 653f
00000070: ef7a 801b 4311 b0bf 4739 75f2 a627 64bf
00000080: ef73 0689 e6db b33f 2a06 1458 e00d c13f
00000090: 4bdd 4704 c8d3 bb3f e2d6 7d9a 1243 b43f
000000a0: d6ed 0a3a 8597 b73f e10b 3202 bfd7 b6bf
000000b0: 07ea 62ef 919e b6bf 1e47 25a0 7128 c53f
000000c0: d60c cff5 0a5d c53f d827 12f5 bcd0 a03f
000000d0: 4ecf c5fb bdb9 c43f 084e d9ce e5f7 c53f
000000e0: 0baf deb5 4966 b93f 270b 9437 7150 b8bf
000000f0: 6eea e97e ff8a bd3f c52b 53cc 2fbb c33f
00000100: 6737 90ea 1065 b4bf 1bbd cb39 3f74 c13f
00000110: 3bf1 bc8f be93 c03f 26b9 0303 73aa b43f
00000120: 74e0 0bb1 82d6 a83f ad41 ffc2 230e 823f
00000130: 952b 0d74 9188 c0bf 66b3 be1c 3116 bebf
00000140: e43f 6ae6 de05 63bf 7ce8 7c95 e47f a23f
00000150: 75b5 dace 7ec2 b63f 9d13 654c f4e2 a6bf
00000160: 2d8d 558b cfa4 b53f f0d2 74d2 80e9 bb3f
00000170: 66f4 9305 efce c03f 875c 7d72 a317 953f
00000180: 0a55 39d3 edba c73f 14c2 cccf 2723 81bf
00000190: 2519 0e56 5442 b8bf 20ce ac9e 6944 ab3f
000001a0: 28d4 635b 5e64 a6bf 7d46 941f 8ea0 c3bf
000001b0: bf89 e0c6 3095 783f 5da7 2be9 dbd3 a6bf
000001c0: 2df2 64e5 feca 9cbf 04cc e6b0 687a a5bf
000001d0: 4f45 924c 284f 56bf ce9b c138 64e2 c13f
000001e0: a319 c8e6 14fd a93f e60e f162 1c37 923f
000001f0: 219c 3642 2d42 963f 5c89 c7f5 dc86 bc3f
00000200: 3d88 3af2 a454 a93f b04a 1a59 cbe9 bc3f
00000210: f5f8 f308 6260 bfbf 6364 a555 1213 b6bf
00000220: f8db c55d d73e b93f 412e a369 7d00 a9bf
00000230: e0d2 b5bb 7d13 be3f 2109 2836 f946 bcbf
00000240: 75ec 156d dad3 b73f 046c 3b63 c410 c53f
00000250: 6b77 fa14 fc83 a33f e978 c802 f3af 95bf
00000260: c21f 6ecf e0ab bebf cd5f c5bc daaa 933f
00000270: ccdd 7a68 1f2a b4bf 4d59 0cdd 2732 963f
00000280: 418a bb04 2e2f c43f eca3 95e7 9fe1 be3f
00000290: 60d1 12a3 b695 963f c166 6c39 d9d3 7b3f
000002a0: d6ee b81d 07dc bc3f a5a3 a771 6f5e bbbf
000002b0: 6e5e 21fa d964 98bf d5d8 97b3 1737 c6bf
000002c0: 61a5 072f f1c3 c03f cfa8 609d 6f3b a73f
000002d0: 3e95 f3e4 82cd c93f c26e e7ea 8ea6 96bf
000002e0: 04c7 6f45 caf3 5c3f ff9f f3a1 2702 7bbf
000002f0: b48a 8c4b c5af 973f 0276 7eef a863 703f
00000300: 7d9b 3336 2c79 aabf 9a37 e475 7455 b03f
00000310: e1d2 e469 e294 903f d549 5eb1 b7ce bc3f
00000320: a553 4dcf 51eb a53f df2c f96f 5405 a0bf
00000330: 1697 f688 6d1e 663f f98a 5554 ad28 b2bf
00000340: 6169 d26f 3c3b a63f 2265 a483 e06c 6c3f
00000350: 0835 e585 f9d8 ac3f 4718 4db8 b845 7f3f
00000360: ab78 c90d 5578 af3f aef2 54c3 5e49 b73f
00000370: e561 ddae 0de1 70bf d535 178d 6e27 b2bf
00000380: dd49 c032 8c78 c83f 27a0 090e 3344 c43f
00000390: 38bc 71a5 7d7e b43f d7e7 1268 7a42 913f
000003a0: 55f1 c579 b326 b23f b93a 5df2 bd7d 963f
000003b0: f111 9fc1 e91f 703f bfae 0ab4 ce5a c0bf
000003c0: bfaf 268f 3a9a b13f ff2d 7de7 fa07 93bf
000003d0: 9ca1 8d67 7535 b9bf 76eb e59b 89d6 4ebf
000003e0: ef93 f1d9 e418 a6bf 3e72 c28f 7673 b5bf
000003f0: 7e47 6441 e331 d03f fae1 c3de 72e9 aebf
00000400: 8d64 c9a1 5108 aebf 4b62 7098 e285 b03f
00000410: 7ef8 a00a 5042 b7bf 04c2 8aed 6534 bfbf
00000420: 7df4 65b5 6239 9a3f 1ec4 d27d a61a b0bf
00000430: 090c a9c6 18de b2bf 89f8 6776 cd7d a1bf
00000440: c667 c622 ec8c aebf 0d7e 1568 2c89 7f3f
00000450: 4b8d 0bb3 5e96 b13f c532 1984 fdbe a7bf
00000460: b053 20dc 6041 bd3f a8de a74b 37e6 9e3f
00000470: 2e68 31ae 7157 b4bf 41e7 deaf 6361 babf
00000480: fd94 ea52 adbc bf3f c45c 4ce3 068c 9a3f
00000490: 832a 10ae 8e32 74bf 373a 724a 27b0 8b3f
000004a0: ba61 df0b 5b22 a5bf 0ef6 819f 04ad b33f
000004b0: 038d f6ee 4434 bf3f 3460 2150 2196 b6bf
000004c0: fb7a 8aeb 4cf3 a6bf 6f4f 6b76 0e33 9ebf
000004d0: 346e fdc6 6bde b13f 0bce 4099 252d a23f
000004e0: 1f7f c99d e124 b73f 25e0 3954 3aa2 ad3f
000004f0: 2be8 6eeb b171 8dbf c4b8 f1fc bd98 86bf
00000500: 3f60 61bc a7ab b23f be77 def1 7359 973f
00000510: 43f7 f6fb 6232 ba3f 1b05 a783 76b7 c13f
00000520: 4947 46c9 8ba3 bebf 6082 3f04 4fda a63f
00000530: cb09 094d 4f14 85bf 4aac d86c 0aab 163f
00000540: c797 bba6 03fd 573f 3a6c 97a0 29ce be3f
00000550: f766 6f74 5dd7 c13f f051 a847 ba17 bd3f
00000560: d34c f09d 8275 ad3f e98a 2102 00a8 c03f
00000570: cadb 33e0 58f4 a3bf f4c5 0b0e e5ba 953f
00000580: fbdc b139 867e b5bf 9d33 58b4 6f02 b2bf
00000590: e98d 89db 5cc6 b0bf f65c 9272 9652 a63f
000005a0: 9840 5c0a 4f7c b2bf 3474 23f1 018d 9ebf
000005b0: 687c 19d6 6d23 ab3f f388 8319 45f0 afbf
000005c0: ce8c 7ddd 7054 b53f 6025 a153 d35b a5bf
000005d0: 06de 8cfa b7f8 c3bf 24e2 1340 c351 c0bf
000005e0: 4f6b 6fe4 8e7f 913f 418c e05f d2bf 9fbf
000005f0: 48fd 5f72 ca52 bb3f b281 037f 9756 b6bf
00000600: 33df 87c6 0ca4 a7bf 7443 8902 2434 bf3f
00000610: 412e 387e 8429 96bf 17e0 bb12 b4dc bd3f
00000620: 5bec 7d7d 0359 b8bf 8d95 86a0 569a bcbf
00000630: 512f c94c f4bb c23f 3057 2425 9664 a5bf
00000640: 31a2 d825 37dd c6bf cc4d 4f68 8911 5ebf
00000650: 5e4e 446b 80e9 b33f d83c 404d 618f b63f
00000660: 6d2d e55c 8dd5 8e3f ece1 1268 8739 793f
00000670: e15d 57fb f157 acbf 73df 5867 862e b3bf
00000680: c790 d351 4326 78bf e21b 449b 2276 ca3f
00000690: d7a5 cb2a 4738 aabf d513 82f8 6786 ba3f
000006a0: c0f0 32bf 3296 83bf 1a42 7e5b 2eec c3bf
000006b0: b9d0 ad0c 0051 8b3f 3ad0 98bb c686 893f
000006c0: 520b 0071 7729 a2bf f451 4044 3fb2 b5bf
000006d0: 8549 9a06 1423 b6bf 8d43 ff6c 1ebe c23f
000006e0: 537a 07d7 fd98 a2bf dc55 4bdb 83ad 703f
000006f0: 8a22 a700 0970 b7bf bfb0 cc84 af99 b73f
00000700: 432b b622 0419 babf 4866 41da dcac c63f
00000710: 5708 a16f 11f9 a4bf 043d 47d7 d166 673f
00000720: a6e1 1af7 50fa a1bf 8d74 3e62 6bcb b13f
00000730: ebfb 5488 202d b3bf 334b da33 9abf c03f
00000740: 714b 12c3 f69f a03f b7f6 b8ce 486f 97bf
00000750: e5e8 1c26 b0ec c33f 7b17 9504 144b bb3f
00000760: a71e b257 3ac7 bd3f 6a49 1739 82ab c13f
00000770: 4883 991b 0fcf 82bf 315d 8488 2b4f 66bf
00000780: 2556 5c35 70d0 b93f f124 dfa8 3ef9 9abf
00000790: e7ad 8266 4ded b53f 1344 6e9d 5d7f cb3f
000007a0: 8b40 902b 2fbc b23f 4dee db84 ca3c aebf
000007b0: c414 70c3 372b b1bf 5aac aaab 4838 a73f
000007c0: 1348 ed00 e2b4 bd3f 4b62 1c33 97ab bfbf
000007d0: ca16 a665 aa73 b23f f08e dad4 92f8 b2bf
000007e0: 9a3a bcbd 4bf4 a4bf afb8 6b84 6584 86bf
000007f0: 486b 92d1 fcc6 c03f b445 8b8c dc57 b5bf
-0.02534765263289157 0.030794668628561207 -0.07983866148555932 -0.006653902520025356 -0.06496100861579757 -0.006777932508439055 -0.06967177323116422 -0.04624219606402672
-0.07501159040617437 0.007907706046054617 -0.17620016175847467 0.21616125718874935 0.08897457164244678 0.0025658728150360433 -0.0627633993285419 -0.002460313862378136
0.07757416577665287 0.13323597241110124 0.10870027641782547 0.07914844772116283 0.09215576808030987 -0.08922952464676782 -0.08835708708185318 0.16529674834833313
0.1669019413221579 0.03284254542911896 0.1619183997496471 0.17162773704568246 0.0992170399683198 -0.09497745139018986 0.11540219162444895 0.15414998509217362
-0.07966714598316359 0.1363600761610336 0.1295088006826378 0.08072584937665236 0.04851158534251079 0.008816031826342685 -0.12916773001265072 -0.11752612067966836
-0.0023221353070041906 0.03613199543765774 0.0889052634253938 -0.04470027382425388 0.08454606200898658 0.1090317262467797 0.13131511471138707 0.020597986090561207
0.1853921204916918 -0.008367835072562925 -0.09476210690454374 0.05325632154417925 -0.04373450151062058 -0.1533372549243274 0.006001654181121584 -0.044585106099318074
-0.0281181170951063 -0.04194953116839176 -0.0013616460367170296 0.13972142001440918 0.050758984729373034 0.01778835634128386 0.021736819425907442 0.11143284798121073
0.04947390992062182 0.1129424183402914 -0.12256443708972482 -0.08622850981682144 0.09861513175370351 -0.048831862588113235 0.1174849112774825 -0.11045796940019105
0.09307637370322815 0.16457419247930727 0.03811633831104085 -0.021179005665651927 -0.11981015266621767 0.019206445476214463 -0.07876774121074631 0.02167570387526867
0.15768981200297286 0.12063025859755755 0.022055486396042823 0.006793831379377558 0.11273235774654763 -0.1069097187497748 -0.023822217838043995 -0.17355629224011318
0.13097967907314526 0.04537533565628992 0.20158420733711496 -0.022119744384197622 0.0017671084694907422 -0.006593851866661281 0.02313144944776964 0.004001293091190574
-0.051705724350362005 0.06380393865785408 0.0161929490215752 0.11252925949364763 0.0428109708360929 -0.03129066340314934 0.00270005601460611 -0.07093318280162099
0.04342068543447187 0.003469885353422201 0.056342885584493685 0.007634851038181684 0.061464937146170705 0.09096328991740663 -0.0041208776945826685 -0.07091418213459318
0.19117882230837227 0.15833128152303397 0.08005509652296972 0.016855156519092276 0.07090303156832552 0.02196404258512061 0.003936684714009862 -0.12777122298336072
0.06875959391498919 -0.01858512914559007 -0.09847196367412042 -0.0009411022108872641 -0.043158675770236125 -0.08379307756190088 0.25304490457448725 -0.06037482232381204
-0.05865721797881305 0.06454292508750219 -0.09085560092441544 -0.12189328240743441 0.025609533616706138 -0.06290665218217881 -0.07370142793756441 -0.03416292257678417
-0.05966890263080375 0.007699178183741673 0.06870071288317552 -0.04637901532678294 0.11427884458710369 0.030175079338703142 -0.07945929053076448 -0.1030485443469873
0.12397273325276 0.025924785254656482 -0.004931027739994878 0.013519579848687886 -0.04127773780755058 0.07685879606466292 0.12189131578502459 -0.08822830396945919
-0.044824985268169436 -0.02949164006970711 0.06980012519982709 0.03550069328084867 0.09040651418899558 0.05787832525396678 -0.01437701225028228 -0.011033520013566174
0.07293175076608892 0.022802173268807506 0.10233133937341869 0.13841134479847814 -0.11968301452568854 0.04463431288582309 -0.010292644060545883 8.647204523330832e-05
0.0014641318948007563 0.12033329172793197 0.13938491998015198 0.11364330529642763 0.05753715684854801 0.13012695411733624 -0.038973595970609745 0.021220759374903822
-0.08396185787738723 -0.07034967568342983 -0.06552677497671024 0.04359884403782559 -0.07220930102289669 -0.029834776251721887 0.05300467718620255 -0.06237998901794297
0.08331971557122417 -0.04171619792811998 -0.1560277913465457 -0.12749519947807741 0.017088158314304377 -0.031005179502369144 0.10673203747136484 -0.08725878573341708
-0.04617347644301475 0.12188935338896362 -0.021642751888107496 0.11664891679163279 -0.09510824025885382 -0.11173001689038227 0.1463609099322363 -0.04178303912537584
-0.17862595890007207 -0.001835235774014221 0.07778170222109668 0.0881253064728641 0.01505575599426009 0.006158379489697979 -0.055358468943889745 -0.07492866538166058
-0.005895865409204676 0.20673019963598366 -0.051210617040691346 0.10361337487309126 -0.009563824138574595 -0.15564517466965883 0.013338089358264292 0.012464096641544232
-0.03547261480709686 -0.08475108543672843 -0.08647275124739025 0.14642696687817783 -0.0363234829890088 0.004071726860919136 -0.0915532709688113 0.092188806459208
-0.10194421622706522 0.17715035111432287 -0.0409627388730917 0.0028566454368285105 -0.03511288658541227 0.06951018475088429 -0.0749073345987054 0.13084723979826549
0.03247042781108334 -0.022885453812924363 0.15566064702017637 0.10661435233950371 0.11632122651109943 0.13804652965206837 -0.00918399622895695 -0.0027232980975317113
0.10083676626921852 -0.026341418320758817 0.085652196433038 0.21482439219519786 0.07318396390496866 -0.05905754920783277 -0.06706570168906284 0.045351286845595154
0.11604130289677554 -0.12371201513122647 0.07207741719875141 -0.07410543152451132 -0.0409263295278965 -0.010994713882123667 0.13107261879926058 -0.0833719103932456

lstm.bias_hh_l0 f8 [256]
00000000: 92a7 747a f2b5 c13f 574e 5307 7b58 c13f
00000010: 6fe3 12f0 32eb aabf 2cdb b675 f1e8 b7bf
00000020: 95bf f5c0 1109 a73f 9c9e ea2c 2911 abbf
00000030: 1270 7b23 29de b5bf c025 e5e7 1642 c7bf
00000040: cfe1 c4b0 dc74 ab3f dd57 b515 4ca1 a83f
00000050: c974 4d2c 3bbd b8bf afb5 495a 9602 b33f
00000060: e724 14b6 59ec 733f 5a0d a7e7 a3a6 ac3f
00000070: 1b85 7fa4 e54b b53f c88c 151b 52bc 583f
00000080: 623f 6790 40e6 753f d964 4081 6b1b 823f
00000090: b7ee 23c2 f993 c03f b15a f769 726b 933f
000000a0: baed 0aba e92f bc3f 3718 6484 80e3 a0bf
000000b0: ee74 b137 ddeb c0bf cb8d abfd 4db5 81bf
000000c0: c219 9e2b 91bc b23f d089 449d 0837 c03f
000000d0: 899e 8b37 f112 b13f 094e d9ae 36f2 c83f
000000e0: 0caf de35 7100 ba3f bef4 6b08 8b60 ba3f
000000f0: 6bea e93e fe16 be3f 9257 a698 3fa5 bb3f
00000100: badd 40aa 0241 9ebf 1dbd cb59 4f22 c43f
00000110: 0d76 1882 e04a 95bf 87dc 81c1 d7fd c83f
00000120: de0f 7ae7 70cd b1bf 3de8 5f78 9c51 be3f
00000130: 3f57 1a68 6e46 b4bf 824c 4123 2b93 bf3f
00000140: 0fa4 66ee b5f8 a3bf 7ee8 7c15 294f a23f
00000150: e694 4ae2 b9a5 abbf 2d27 ca98 0d0c 90bf
00000160: 50e5 5469 6117 a9bf f0d2 7412 6b12 b93f
00000170: b1e8 270b 2794 ba3f 1c57 9f5c 0b08 ba3f
00000180: 0955 39f3 0af7 c13f 0c9f 1918 50df 963f
00000190: 2c19 0e96 1950 bfbf 0e72 66f5 08b3 753f
000001a0: 8d50 8f6d cd85 84bf 1034 a2fc a143 93bf
000001b0: eaee 2367 3396 a2bf 9a58 d496 947b ae3f
000001c0: dc86 4d0d 7a47 a33f f8b2 394c 1329 c0bf
000001d0: 9524 9950 2f3b c1bf ce0f 99cf 51c2 68bf
000001e0: a5f9 4d86 b2ba c4bf 8778 87ce e766 a0bf
000001f0: 84d3 4688 b638 c63f 66da e128 cb7e 9abf
00000200: 5521 eac8 0de4 813f 896a cbcd 263b abbf
00000210: 86fc 79e4 c138 c3bf 6764 a555 19e7 b4bf
00000220: 06dc c55d 42e4 b83f 87cb 687a 185a c1bf
00000230: 4a5a 9488 1d4a a4bf d8f6 d7c9 d4d8 b43f
00000240: a94d a84b 6c68 9dbf ad4f 12f3 6444 a7bf
00000250: 5a62 c15a 0625 c1bf 210f 6ffa f3cb 873f
00000260: 8481 47c2 9748 953f 1f50 9da1 2679 a3bf
00000270: 0c22 8557 a188 b13f ab2c 86ee 0577 a73f
00000280: 7c14 7709 4397 b13f c647 2b4f 19af ae3f
00000290: 8e4b 3b97 b84d b6bf 9839 69ac 1b4c b3bf
000002a0: eeba e376 cd1b 953f 0a48 4f63 7a5d a4bf
000002b0: 03bd 42f4 87ce 8dbf c739 4163 7fe2 9d3f
000002c0: ff95 1ebc 683c a93f 6c54 b04e e9b1 b03f
000002d0: 3795 f3c4 668d c43f 2f12 a3c2 74b4 c03f
000002e0: 0ebf 15e9 d61a b13f e6cf f9d0 adbe 89bf
000002f0: 35dd 1c2d aaa0 b8bf 6be7 f78e 1ee2 b33f
00000300: a6cd 199b 35d2 b8bf be0d 79bd 9466 d13f
00000310: 59cb 86e5 53e9 b2bf fa24 af98 39b5 c83f
00000320: f854 d3b3 df20 c63f 9469 0348 8481 ba3f
00000330: 9896 70a7 ec71 a8bf a756 aca2 d4dd 83bf
00000340: b334 e937 be36 b03f 7746 3a88 2c25 a23f
00000350: eaca 1a7a f861 a2bf 98d1 844b b96f ba3f
00000360: 265e 7283 159f c03f b0f2 5403 f2d3 b33f
00000370: 7d58 b76b 41ba 96bf d935 170d 9c89 b8bf
00000380: 3427 014b af4d a03f 7602 34c1 01ab 7e3f
00000390: 33bc 71a5 c318 b33f e673 09b4 e13c a73f
000003a0: b3e2 8b73 a184 ab3f 59b1 6803 4c54 b7bf
000003b0: a53b 988f 0aa1 95bf 64a2 ea57 93da b33f
000003c0: bbaf 264f 214f bb3f 91dd d277 ceb4 50bf
000003d0: 3d43 1b4f 1419 a0bf 3d68 90d9 cc0c a63f
000003e0: 27d8 1c4c 440b 963f 60e4 841f d5d6 a3bf
000003f0: 111e 9105 2b05 b93f ff0e 9e90 679b b33f
00000400: dc36 6dbc eafa 9d3f 3762 70d8 fd34 bc3f
00000410: 8907 5f35 8e0a b73f 0208 2bb6 4d0b 92bf
00000420: 317d 592d 74a7 bc3f d23b 2d42 5154 b53f
00000430: edf3 5639 b671 b53f cd0e 3013 c549 903f
00000440: 2366 4eb7 e747 c33f c2af 020d a87e a03f
00000450: 5fe5 e819 c828 a1bf 0b6a 36df 1b6b 733f
00000460: 4cac dfe3 46d8 b5bf 4d08 162d daa5 b8bf
00000470: 297c e91c 6db3 783f b518 21d0 e17c b63f
00000480: f1d5 2a5a 1685 a0bf 98b9 98c6 5b66 823f
00000490: 4705 c2d5 b442 afbf 2f1d 39a5 0ac2 903f
000004a0: e7b0 ef05 629a b3bf 8461 1ff8 e136 733f
000004b0: 06e6 12a2 17c5 a0bf cf9f deef 1f34 b33f
000004c0: 9ceb 29ae 0bc0 8abf 252c 65e2 be3a b33f
000004d0: 1747 0ae4 e3f1 96bf fccd 4019 2108 ae3f
000004e0: de80 3662 816e b1bf c90f e395 a9ea bbbf
000004f0: 2cd0 ddd6 ab76 75bf bf46 0e03 f072 803f
00000500: c480 85f1 3316 933f d577 def1 c1ca 9d3f
00000510: c708 0944 61d0 b8bf 4e14 9c0e 0b6f ab3f
00000520: 4347 46c9 b574 bebf 997d c0fb 48f4 adbf
00000530: eb84 84a6 13e8 92bf 46b1 d914 f451 8b3f
00000540: a011 65f1 bf2e b2bf 456c 9760 2aab b63f
00000550: db31 2157 8ba7 b6bf e251 a847 537e b03f
00000560: 90d9 0771 44d8 b5bf d256 0c11 4cb1 9f3f
00000570: 2912 e64f 4205 be3f 940e 7d7c 6b1b bcbf
00000580: 0923 4ec6 106a b73f 1c67 b0e8 63d9 a6bf
00000590: 1a72 7664 7891 b13f 1ba3 6d8d e3f4 a5bf
000005a0: d27e 47eb 8e2f af3f 0c23 b743 56dc b73f
000005b0: e241 f3d4 d26d b1bf 923b 3eb3 2b79 b53f
000005c0: 2373 8262 c686 b9bf b292 d029 288f b3bf
000005d0: 14f8 2173 c5c1 423f b73b d83f 927d b13f
000005e0: 3a4a c88d b1fa a8bf 2d32 827f a969 70bf
000005f0: 49fd 5f32 2ddf b03f b081 03bf 5031 b0bf
00000600: 15be 0f8d bd9c 95bf 1879 edfa b954 acbf
00000610: 0817 1c3f 36ce a6bf d81f 442d ca18 babf
00000620: 1b8e bdaf c79d 61bf 806a 791f f478 b03f
00000630: 572f c9ac 24b6 c63f ba2b 92d2 fa89 b4bf
00000640: 2c89 6217 0a41 acbf cec2 5e1a 59f0 bb3f
00000650: b39c 88d6 b736 a53f 063d 40cd 8666 be3f
00000660: 725a 63d4 8790 bcbf 9fb8 04da 3688 9b3f
00000670: 7ea2 a804 ec27 af3f 2890 530c ba4f c03f
00000680: 60c8 e9a8 49d2 8dbf a937 8876 cdbf be3f
00000690: 8e16 4d55 3e11 c73f 86d8 fb8e a807 a0bf
000006a0: e987 66a0 506f 9d3f 2984 fcf6 6ce9 bfbf
000006b0: 11ba 9541 e31c b23f 008d b9eb 7ebf c73f
000006c0: 36fd bf43 8342 c23f eda3 8088 4b88 a3bf
000006d0: 8db6 6539 ed33 bf3f f986 fe19 922a ba3f
000006e0: 6e21 3e8a b396 c63f 2955 5a12 2284 86bf
000006f0: cc75 63fd c192 963f 3c4f 33fb 4e91 b2bf
00000700: 56ea a40e 5833 c13f 8fcc 8274 ccab be3f
00000710: 9ef7 5e90 7779 ab3f f039 ba4e a5a1 ba3f
00000720: 8d47 3942 ff46 c03f 8b74 3ea2 d329 b23f
00000730: 1a04 abb7 2bbe b03f 5d96 b4a7 a4b1 b63f
00000740: 72d2 b6f3 04df 86bf 69c2 514c 6a9d b13f
00000750: 32b8 18cf f577 92bf be8b 4ac2 9604 c13f
00000760: 4b85 37a1 85b0 9fbf 7749 17d9 2fe4 c93f
00000770: f860 e646 a4c6 a2bf f722 44dc 11f4 b3bf
00000780: ca53 4795 e038 a0bf aa36 c855 aefd bd3f
00000790: a823 d597 a978 78bf 4e88 dc3a 2fd6 b73f
000007a0: 75bf 6f54 834e b9bf 8cfb 3661 508e ccbf
000007b0: b7d6 1f79 3067 a73f 2556 d5d5 cf24 b63f
000007c0: be20 b503 45c2 903f f6c4 3866 ad18 a9bf
000007d0: 42e9 595a 4327 b4bf 168f b892 9507 443f
000007e0: 950e 6f8f 31e6 c1bf 0c89 720f e2aa b73f
000007f0: a8d6 2463 8d90 b33f c545 8b8c 441d b9bf
0.13836508731156677 0.13551271302877652 -0.05257567577922983 -0.09339818118938287 0.04499106865375705 -0.05286530183121593 -0.08542115322364932 -0.1817043907451943
0.05362596185517853 0.04810560002321982 -0.09663743812184857 0.07425822929663782 0.004864073214102072 0.05595886423864256 0.08318934694354534 0.0015097429098538829
0.005346538737697278 0.00884136188692468 0.12951585750112368 0.018964565007844218 0.11010609428460941 -0.032985702668199605 -0.13219800204652848 -0.00864659243001755
0.07318980517275178 0.126679493704684 0.06669528585518426 0.1948917726282249 0.10156924786741345 0.10303563075645436 0.11753834758739294 0.10799024082947842
-0.029544870034639216 0.15729705700457766 -0.02079344553032141 0.19524666737172344 -0.06954103137292075 0.11843278826555177 -0.07919969598364406 0.12333936320037434
-0.039006886817624424 0.035760196564710064 -0.05399876487107651 -0.015670978975811756 -0.04900650416170527 0.09793729019731834 0.1038231279598303 0.10168524752893088
0.14035164714974993 0.02233624598593935 -0.12231597817853829 0.005297694201001691 -0.010020832925796941 -0.01881268600896041 -0.036302191105247975 0.05953659382991923
0.03765469944370434 -0.12625352117483835 -0.13461867747745218 -0.0030223462934219963 -0.16194755132523855 -0.032035106621820346 0.17360574392446548 -0.02587430417085059
0.008735759443212624 -0.053185665723238414 -0.1501695981605488 -0.08165129033058492 0.09723295964600717 -0.13556200005549732 -0.039627955362608505 0.08143358161757008
-0.028718654744876258 -0.04544368235761396 -0.13394240790764195 0.011619478302129562 0.020784732087010052 -0.038033683040936454 0.06849106203765859 0.045829949728692775
0.06871432286341589 0.0599296483175205 -0.08712342922380698 -0.0753800674367312 0.020613870984500453 -0.03977568113590742 -0.01455408300566186 0.029184332306891905
0.04928901001339269 0.06521471186745637 0.16056522957584615 0.1305070829750021 0.06681578817892506 -0.012570722522674726 -0.09620154954324252 0.07766905775488701
-0.09695754086151584 0.27188604834756436 -0.07387279847789098 0.19303054766923095 0.17287822990935076 0.10353876836908277 -0.0477441744226727 -0.009700452055351262
0.06333531250966722 0.035439864758825594 -0.03590370646033654 0.10326727002831715 0.12985485952661796 0.07745277959197483 -0.022194883536791544 -0.09584975547405551
0.03184268751699762 0.0074873035948718105 0.07459662236372892 0.04538636515346876 0.05374626670340401 -0.09113001902796238 -0.021122136129686848 0.07755394836807167
0.10667617971802106 -0.001019670132604709 -0.031441340118937046 0.04306640773593571 0.02152735437922373 -0.03874841699366338 0.09773510824117461 0.07659003525446549
0.029277484655998318 0.11018358740000954 0.09000481417663599 -0.017621244662912268 0.11193014247100021 0.08331783166543907 0.08376635455984145 0.015906409546018452
0.1506318707513837 0.03221631201571952 -0.033514264262019415 0.004740818857863714 -0.08533137381861983 -0.09628070450529087 0.006030489180004963 0.08784304934769945
-0.03226537562060717 0.008984295843302445 -0.061055804341786195 0.01636520989839346 -0.07657444615296392 0.004691012089061867 -0.03275369504394736 0.07501411062423745
-0.013061610462718858 0.07511513735987359 -0.022407112878290194 0.05865577157274157 -0.06809242866302465 -0.10904941472386932 -0.005240126845695452 0.008031725972418411
0.018639384857465982 0.02909377135039633 -0.09692962561624362 0.053581567319306175 -0.11896835483483152 -0.05850437234061729 -0.018463427580290775 0.01333990753774884
-0.0710258449881338 0.08854927881422821 -0.08849402310551772 0.06442757129145307 -0.08533122787034686 0.03094977239660219 0.11726774645473682 -0.10979339398641691
0.0914621814864739 -0.04462730613177099 0.06862595036222566 -0.04288397885722458 0.06090971586286077 0.09320582535941585 -0.06808202456455306 0.08388016820957336
-0.09971275239008696 -0.07640315075748097 0.0005724157438320465 0.06832231577594326 -0.04878764014951682 -0.004007017232777116 0.06590540389878642 -0.0632524935094867
-0.021105729803762758 -0.05533391178208741 -0.04454202194578555 -0.10194076161508236 -0.00215043069140265 0.06434560554900237 0.17743357121286848 -0.08023040429013309
-0.055183711390116436 0.10913617032816633 0.04143309110468731 0.11875193129548131 -0.11158036170250243 0.026886803681173018 0.06085145527714973 0.1274330673396673
-0.014561248271295735 0.12011417526102143 0.18021372952550901 -0.03130842919738179 0.028744945325918456 -0.12465554265919877 0.0707532916182816 0.18553148756027582
0.14265480812171355 -0.0381492237214117 0.12188608790685347 0.10221207747101947 0.1764740395558521 -0.010994211373410128 0.022044211474044492 -0.07252973206351226
0.1343793937210928 0.11980893940453739 0.053661095021637836 0.1040290181356125 0.1271666596754212 0.0709507247069771 0.0654017756851463 0.0886481198727664
-0.011167563140454837 0.06880821574464736 -0.018035736813708243 0.1329525421798205 -0.03094681545724613 0.202276211739967 -0.03667176595189575 -0.07794295909492265
-0.0316839391922837 0.11715211481370127 -0.005974447701483955 0.09311194598242986 -0.09885426341474875 -0.2230930781060717 0.04570914724892588 0.08649920435467402
0.016366079665460324 -0.04901639817070162 -0.0787241073211691 0.0006112556779424873 -0.1398374510155135 0.09245121838697318 0.07642444296365147 -0.09810284072161497
