models/diff_mpo_sharpe.pth (torch, 786398 bytes, 18 tensors)

lstm.weight_ih_l0 f8 [256, 15]
0.16928581500749965 0.05108905032297806 -0.001626260920662233 0.027582953860857344 -0.002825044176454176 0.11343304455185362 0.20312086413621724 0.10800082442400706
0.003439547066191374 0.025100695976730324 0.09193000282853232 0.04732494341899945 -0.0024945819883040845 0.024846468400749604 0.14148877957919453 0.08388468912301736
-0.020035683708037537 -0.07422871952775902 -0.005362736467979845 -0.04426798637993425 -0.003910864509264753 0.025346555326272065 -0.09083091186254089 0.030263299854864895
0.15048462957460038 0.2692684327655219 0.10849679511820712 0.1540188662064693 -0.11606997044524607 0.20046336863964795 -0.15298625273949645 -0.028622880593954705
-0.16013414713661558 -0.18896335301515063 -0.004131777279463009 -0.08106653239701027 -0.08934145278236814 -0.1307796856932689 -0.08545236814706755 -0.10048500453454497
-0.018326077910481946 0.04773206864022826 0.15744287663177073 0.0597087289997804 -0.01447554160491091 -0.04468398681438692 -0.11643076984657959 0.06679638813248923
-0.08471696187860105 -0.0022321078027466652 -0.0890060271107111 -0.02879316479332095 -0.013026770241754205 0.03828842283180693 -0.1005973766426142 0.279055852752516
0.01785158150810315 0.047840184810200984 0.10255314647443696 0.04569346313003747 -0.029444033996392973 -0.12206124021969839 -0.07454715045734119 0.04842693198629247
-0.15332178124876036 -0.06301430089433115 -0.059596164631942415 0.009956462841527397 -0.08240700487811178 -0.09926894776958343 0.043946849688928716 0.06055553645496247
0.1658644772233048 0.11508480243841704 0.0857941434617279 -0.09868011950546096 -0.15474752774224326 0.1527424352986249 -0.08026693434759492 -0.14975812229598132
-0.062418895927183346 -0.21506614623372963 -0.12630943829801455 0.10632740306439444 -0.07468785528187255 0.2145023930981114 -0.003915881321070216 0.014991996085465885
-0.00037813984315474605 0.08584015794954603 -0.023657851773688583 0.05371566233218375 0.05922520810669858 0.013853651388562004 0.015241221876637089 0.0848436678928866
0.0607345611850924 -0.07409514872055083 -0.12375165513091448 0.045403399046634485 0.030519196289584903 0.1704525280512258 -0.14735012127329733 -0.059720008530940054
0.191658325727095 -0.05626323469544698 0.19068973252681345 0.1027914855447415 -0.052918320394250644 -0.030714942601766028 0.04748841339127933 0.08063678995117525
-0.019561159956104766 0.09607915508599832 -0.021436797504511208 0.14896006000195794 0.03687025069917575 0.12618385589352538 0.1451385360403959 0.027958466156201754
-0.04288030030986714 0.19385049417166209 0.007563053513033653 0.1410408996540589 -0.14312479586120624 0.15353672526054296 0.03145670857006361 -0.032574808497187614
0.10494747619555667 0.1344789176428481 0.11418996296720936 0.14981153888253856 0.16060542259265242 -0.08273296993470586 0.06012903394071115 0.16261858637819512
0.04307190032711882 0.19208085969683056 0.18622789627188382 0.13784455622068859 0.040338900646655663 0.1312224214335181 -0.01628516799822199 0.09380047227471101
0.12268951275141257 0.09566795447130194 0.10040597705832956 0.1648454773091742 -0.16379283694694477 0.030406687021851665 -0.11701304226566335 -0.03092304595232225
-0.008773328514750075 -0.1575276666505655 0.040819366217251206 -0.21387839853980883 -0.11030099938234027 0.07920724027051186 0.062484623603763 -0.17708026244559608
0.20114343418887767 -0.15774842196961725 0.1691390234917616 -0.1099041541192353 0.08781764055997147 -0.029087632342457266 -0.08086826012092393 -0.2363767496827736
0.08511623281864268 -0.2001521440561022 -0.0382525392214771 -0.05889720324088914 0.01886316500447463 -0.15164856005180846 -0.16954406466306698 -0.0037846291366479758
-0.1868067572583024 -0.00877494921996414 0.004249223876205507 -0.09598200286507332 0.0058510829272058265 7.03807389860305e-05 -0.11403044935299525 -0.026055685467134094
0.0355566682752474 0.011108561787486832 -0.06654131205223542 0.10083385280988721 -0.011698296480013097 -0.07440083429221063 -0.00425512194252015 0.08474341421635086
0.06541842464820262 -0.14350595288559595 0.027508833464817705 0.03053403338852989 0.17596904157481194 0.1794687731012272 0.012702068204302542 0.0020917783868657793
0.19531000459400363 0.12956357823290723 -0.053905869501880394 -0.05038770708477632 0.07828488360563529 -0.05192464053623823 0.09828273813658871 0.026465144875575292
-0.006486251144948685 -0.06979695800948259 -0.1565845659378139 0.019300795113804694 -0.04313971715340777 -0.08220940856082476 -0.10009179277570715 -0.17433939920277905
-0.03074969859184229 -0.062131346883951985 0.038545564242826125 -0.11434007289766987 0.13787423198963344 -0.03509309234162675 0.16592942539780864 -0.07204611047372508
-0.01476272465108871 0.06087923477461006 0.01744055158088985 -0.0005254877253222059 0.19079750256836348 -0.059080652058052754 0.16797639152362814 0.16511489851307792
0.049158779759325 0.02438905954801609 0.15958330903689438 0.12705646162803935 -0.009635521894555832 0.06446090722886445 -0.06146725799346963 0.0490587551226129
-0.19786392546539547 0.07268231936350199 0.12007254604900863 0.011596437180408006 -0.30049067930603685 0.06905938899603946 -0.1944909179070954 -0.08505749109441212
-0.07636663784679176 0.052335882702994184 0.21860609658577485 0.03160830943397039 0.0023778402064864868 -0.07593604527940738 0.0441724934860762 -0.026495623447439626
00000000: 3124 9157 28ab c53f 904b a410 5828 aa3f
00000010: 8736 045e 08a5 5abf aeaf 09b3 b43e 9c3f
00000020: 6fc0 1f0b 8c24 67bf cdcb a2b0 f209 bd3f
00000030: 09d7 4c4e ddff c93f 0997 d728 f1a5 bb3f
00000040: 82ed 31c5 402d 6c3f b3bd 4e31 ffb3 993f
00000050: ad73 ab83 b988 b73f f70f 8a98 f93a a83f
00000060: da96 d281 846f 64bf 2e2c cf44 5a71 993f
00000070: 7694 85e8 4d1c c23f ee21 6b8c 7779 b53f
00000080: beb7 1df9 3b84 94bf c9b1 cb42 a700 b3bf
00000090: 33e0 f39b 3cf7 75bf 43ef 8523 4baa a6bf
000000a0: 3d7d a9b2 d604 70bf 2237 c588 72f4 993f
000000b0: 585c ead3 b140 b7bf c82e 95ac 57fd 9e3f
000000c0: 2b6b 4991 1443 c33f 88ad 24aa b13b d13f
000000d0: 2ae6 c02a 72c6 bb3f cb71 a9e4 e3b6 c33f
000000e0: 2b2a 1cf7 c2b6 bdbf 4738 2d9e c8a8 c93f
000000f0: 267a 20b4 0d95 c3bf 27fd 4500 514f 9dbf
00000100: d159 7696 467f c4bf 7fd9 ab7e f32f c8bf
00000110: 7d67 a284 7bec 70bf 1bfe 71b9 c6c0 b4bf
00000120: 3f9d e0d9 14df b6bf e351 8484 63bd c0bf
00000130: 3eb2 8ed6 34e0 b5bf 35db 36a0 62b9 b9bf
00000140: 4b6a 2845 12c4 92bf 5e77 8f73 5670 a83f
00000150: 2d91 0f93 1627 c43f 1ef8 ad7c 2492 ae3f
00000160: 71a3 474e 5aa5 8dbf a39d 0bcc d1e0 a6bf
00000170: bd39 bd2c 68ce bdbf 581c 856e 9119 b13f
00000180: c360 afc4 02b0 b5bf 5139 72c0 1149 62bf
00000190: 6c5f 9657 19c9 b6bf 61e8 8a94 f47b 9dbf
000001a0: a766 4981 c7ad 8abf 368d c147 8a9a a33f
000001b0: ec50 beea bfc0 b9bf ac15 5514 0ddc d13f
000001c0: d966 095b af47 923f 9a89 633a 827e a83f
000001d0: a3a8 354a ec40 ba3f 08a9 9133 2265 a73f
000001e0: e7a9 4eac 9326 9ebf 6451 daca 673f bfbf
000001f0: e169 39a5 8515 b3bf 64e4 4032 6acb a83f
00000200: 8f2b 1d52 0ca0 c3bf 217e 8589 b421 b0bf
00000210: d358 1f74 6383 aebf 7d3b 4ed2 0d64 843f
00000220: 6ead e91e a018 b5bf d3be 2d94 b069 b9bf
00000230: d233 5a94 3380 a63f afe3 54a1 2201 af3f
00000240: 6d01 9f14 0c3b c53f e257 bd96 3276 bd3f
00000250: 8a40 5be0 9af6 b53f 6094 0aae 1943 b9bf
00000260: c217 6559 c4ce c3bf aad4 286a 108d c33f
00000270: 091d f9b1 5f8c b4bf 752a c92e 462b c3bf
00000280: 96c1 5199 5ef5 afbf cb7a 4698 4987 cbbf
00000290: d842 555d e82a c0bf f586 d4ce 4538 bb3f
000002a0: ec11 d847 be1e b3bf 7193 a27d d074 cb3f
000002b0: e91e 5863 190a 70bf 0c56 1ca7 1fb4 8e3f
000002c0: 6f5a 7942 22c8 38bf 80a7 13df 9ef9 b53f
000002d0: 957c a58e c339 98bf c4d9 ff89 9e80 ab3f
000002e0: 7a89 d537 c452 ae3f 4c08 279d 4d5f 8c3f
000002f0: ec02 172c ca36 8f3f e364 df8a 50b8 b53f
00000300: 97c3 0db4 9918 af3f a309 8c50 e6f7 b2bf
00000310: 49f7 9c3f 30ae bfbf 20a8 1044 1d3f a73f
00000320: 661b db97 6c40 9f3f 9c11 c070 63d1 c53f
00000330: da18 f767 5edc c2bf 0f4d 1df7 9e93 aebf
00000340: b282 8090 4288 c83f 39de f7e1 88ce acbf
00000350: 055d 716a 8568 c83f d9cf b8f4 8a50 ba3f
00000360: 77b5 e72e 1c18 abbf ea74 e4e7 bc73 9fbf
00000370: b5b0 e8bc 6650 a83f 1dd9 b1d7 9ca4 b43f
00000380: 0618 2239 d707 94bf e2f2 ebbc a498 b83f
00000390: 5df5 d920 87f3 95bf 842e 0f8d 1f11 c33f
000003a0: 1685 e551 a8e0 a23f 6a45 2ce7 ca26 c03f
000003b0: 9266 d748 e693 c23f 361a 26e7 24a1 9c3f
000003c0: 9473 f21e 68f4 a5bf dfee 63ce 17d0 c83f
000003d0: 7b29 f1b7 6ffa 7e3f 19d0 b4d1 a00d c23f
000003e0: 363b bcce e951 c2bf dc4e dd66 17a7 c33f
000003f0: 18b1 18fd 171b a03f ed77 5632 a5ad a0bf
00000400: 70c2 0e7a d6dd ba3f 7385 a3ec 9a36 c13f
00000410: edc1 79ac 8d3b bd3f 0a2f 0846 062d c33f
00000420: f43f ccee b78e c43f bca6 2be8 fc2d b5bf
00000430: d57f a194 3bc9 ae3f 23a9 1b93 afd0 c43f
00000440: ef26 9026 850d a63f 15f0 4a09 1b96 c83f
00000450: 7b99 0bd2 50d6 c73f 8422 73f2 e3a4 c13f
00000460: bd65 11e6 4ca7 a43f b289 4774 e5cb c03f
00000470: 9f52 d91f 0fad 90bf d1ec c4c8 4e03 b83f
00000480: 9659 d474 9468 bf3f d0bd baef b17d b83f
00000490: f9d7 c9c3 34b4 b93f 64dc f716 a819 c53f
000004a0: c7ca 00e7 29f7 c4bf 9daf 5a39 ee22 9f3f
000004b0: 998a bc15 91f4 bdbf cd51 3b7c 4aaa 9fbf
000004c0: b121 6238 c0f7 81bf f45b 3dd8 dd29 c4bf
000004d0: 0ba1 e4a5 46e6 a43f 8c50 860b 5e60 cbbf
000004e0: 4f32 10b1 af3c bcbf a979 91fa ec46 b43f
000004f0: 9816 c30d fcfd af3f 8147 fce7 90aa c6bf
00000500: dbbb d26b 11bf c93f 6074 adac 1931 c4bf
00000510: 59ef 2ff7 58a6 c53f 1bfc a2bb ad22 bcbf
00000520: bb8a 3786 377b b63f 2205 84f6 25c9 9dbf
00000530: 56f8 8044 c8b3 b4bf a20d b6e4 9741 cebf
00000540: 3996 506c 2dca b53f 9efd 78e0 959e c9bf
00000550: 72f1 e339 d695 a3bf 16b0 7d33 c627 aebf
00000560: 084f 2c93 dd50 933f a739 f452 3869 c3bf
00000570: 5eb9 7ab2 9eb3 c5bf b10e d24b f100 6fbf
00000580: eb50 8ca8 48e9 c7bf c3f4 63bf 99f8 81bf
00000590: f094 4e59 a267 713f a160 4fcb 4692 b8bf
000005a0: 08b6 181d 4ef7 773f 04e3 8be3 2b73 123f
000005b0: fa23 b87a 1931 bdbf fd26 d373 57ae 9abf
000005c0: 9137 cbce 7b34 a23f eaad a9ec 15c0 863f
000005d0: 75e7 18f7 d908 b1bf b8ec 2554 3fd0 b93f
000005e0: 4990 67c6 46f5 87bf 5d85 14de ee0b b3bf
000005f0: c57d 5699 d16d 71bf d550 9c90 beb1 b53f
00000600: a37c 6b0a 43bf b03f cf64 362f 675e c2bf
00000610: 837b 5490 462b 9c3f 605b 464b 5044 9f3f
00000620: 530d 564f 2786 c63f f7be 8f2f d5f8 c63f
00000630: c779 3bbc 8a03 8a3f c3dc 62f8 c622 613f
00000640: a50b 2811 ebff c83f 69ac a111 8a95 c03f
00000650: e462 25d5 8c99 abbf 8b5d 19e4 6acc a9bf
00000660: 9c7c db66 7a0a b43f ae5d ebd1 dd95 aabf
00000670: cfd7 0eba 0e29 b93f c5e2 e5ce ad19 9b3f
00000680: 5abe a8c8 5391 7abf bfd1 02a4 36de b1bf
00000690: 2c71 e18a f60a c4bf 47cd 336f 96c3 933f
000006a0: 7a47 aab4 6816 a6bf f436 3101 ad0b b5bf
000006b0: fad5 91a0 9d9f b9bf ff77 fde0 c050 c6bf
000006c0: 005a 4157 d97c 9fbf 2694 d80d aecf afbf
000006d0: 2859 a883 3ebc a33f 56be b719 6445 bdbf
000006e0: d4a4 ade2 dca5 c13f 9478 d8c7 b8f7 a1bf
000006f0: 5c8a c3e7 2c3d c53f 1ee5 4928 9d71 b2bf
00000700: 2d38 9c5c eb3b 8ebf da93 b924 902b af3f
00000710: dc0f a89a efdb 913f d966 1f4c 1c38 41bf
00000720: b844 d874 0d6c c83f 8ad5 d4b8 d13f aebf
00000730: a20a 0c1a 4080 c53f 7817 9928 7c22 c53f
00000740: 8b50 c1ee 562b a93f 8642 8e14 72f9 983f
00000750: a284 a6d2 396d c43f 5e0d b8d9 6243 c03f
00000760: f308 56db c9bb 83bf 6120 6b90 8280 b03f
00000770: 7fa7 b6ed a278 afbf 7c0e aba9 3a1e a93f
00000780: 954d 77e8 9a53 c9bf 2fe6 a9f8 4e9b b23f
00000790: e08d 6d0a 13bd be3f 6e0f 8573 dfbf 873f
000007a0: fbd2 1742 3d3b d3bf 5740 3849 e0ad b13f
000007b0: e5d6 e311 14e5 c8bf 7bc2 87e6 53c6 b5bf
000007c0: d0b4 0e94 c38c b3bf d3b9 3bd1 c4cb aa3f
000007d0: 3264 c5d9 48fb cb3f 0cfc 99de f62e a03f
000007e0: 40ce 803d b17a 633f 8308 106f 8b70 b3bf
000007f0: ce99 cfed c69d a63f 8589 c630 ab21 9bbf

lstm.weight_hh_l0 f8 [256, 64]
0.007337800764242363 0.2875508107878042 -0.136587625290552 -0.030767411149526424 -0.07179968248455096 0.042979052976591735 0.012535093322288528 -0.044546573298551176
-0.14585568260396684 -0.22007761909849424 -0.13404364792935988 0.06883179070821292 -0.11907715539847093 -0.16993985641541196 -0.012972931062028804 -0.22687688607398046
0.043426742744214604 0.021434942597833677 0.040960569802351646 0.052870453855963964 0.17055611101755436 -0.17077138741194137 -0.35517339313389135 0.14069630254258614
0.16838406164260922 0.10925419162489751 -0.016898889851977333 0.01694917071470191 0.035932369760646135 0.02257305783917253 -0.0029800926121155533 -0.2135885414885419
-0.14888866200520504 -0.13769242715515306 0.17887507057147656 -0.0662445296616374 0.08888447324219034 -0.12313426714713066 0.025485816176799025 -0.11923267627721988
-0.09792654045505207 0.015917974944757097 0.054927619255751 0.08313514938572704 0.11835343140686404 -0.2058348638946043 -0.02980793271485941 -0.07068603494696246
0.03067320611466583 -0.19029436450976503 0.16945033957142316 0.1368550443739362 0.07723927547560493 -0.02617896327231644 0.07549892903409926 -0.06931387192134886
-0.018957467912861122 -0.07691267106399821 -0.16794427143488028 -0.0047900400907459895 0.01728321774027684 0.04539054968965796 -0.09316978031141097 -0.19235513814716373
-0.007795469717129044 0.165171460004465 0.19866039360717366 0.07672784305744688 0.005069464577355873 -0.21083653185312926 -0.14746214451448966 -0.08931300940573303
0.19014818216555782 -0.09459498330692512 0.027394068434215234 -0.05912597266171912 0.10235367802968663 -0.042162932613731566 0.13390717093191043 -0.047641797985176815
-0.12093341491550469 -0.027930712205301977 -0.07592756853509844 0.181892142120455 -0.31968175612849864 0.22944232249384916 -0.029612558562306386 -0.04204828057758296
-0.08418112273669055 0.16486608695528696 0.0668861214258182 -0.09668608900418245 -0.2368606962526517 0.009948075187487559 0.25354773163087496 -0.00933110852792328
0.04740020638230713 -0.06550301101766158 0.07091375696415343 -0.10596481580829735 -0.019709235289477798 0.1965505962516887 -0.20598321918512655 0.27388402467617357
-0.19065580748519995 0.12135747115875259 0.1435259677454237 0.40485991488390405 -0.36277429496753016 0.06475745838179857 -0.13792199004439587 0.23264674901519497
-0.057182587175241766 -0.10714024810582247 0.3755154562420192 -0.17282877957825102 -0.2609707237113821 0.10829742639780153 -0.005356893680368012 0.15997785082434218
0.21440265334003736 0.13169655990905246 0.12089337367156919 -0.07576362045737689 -0.1587867470381371 0.24439810484029065 -0.10440743040053312 -0.02993583865493664
0.02734464005992494 -0.17373684858374366 -0.0324020172939498 0.04923565802104711 0.10818826600443232 -0.06517706325177054 -0.01711682404289634 -0.06107017301103173
0.0849135210718965 0.05985640040656099 -0.022376451542217436 0.26551196594321425 0.017857329497025044 -0.0635932440535776 -0.059357263014481305 0.022573751428814126
-0.08830593508388844 -0.04194586583283826 -0.10603524413372724 -0.08268729768802717 -0.06243400424733899 -0.08590224891917284 0.22119444804456767 0.036247541822935554
-0.10093919816302385 -0.2107497680938189 -0.0033560081307950924 0.13095861677587695 -0.003509062671632937 0.17633376019632385 -0.0452688116608162 -0.13996100187985347
-0.10001857389801523 0.060497718667850586 0.021860528161212416 0.04294503929459323 -0.00488739171610991 0.0806182359549431 -0.1123466959873462 0.12808156219481348
0.18378523044130876 -0.12361587132983189 -0.09717776726797644 -0.026799059008331766 0.03919802653025294 0.1423923209977556 -0.22725903889015575 0.05906068460047124
0.08591057188224753 -0.02220375486688779 -0.06733735426655743 -0.0012831092665343128 -0.15281907866413674 -0.1321444579881828 0.026731421371661575 0.01674952843306216
-0.1415257663106781 -0.08259059582154113 -0.1773452931362781 0.14562253886998125 0.021082018746611312 -0.01111581650447698 -0.05433730678782191 -0.1876277937994139
-0.02764039239378782 -0.14271423682494702 0.24360092152148538 0.08586290356787174 -0.010571171026082063 0.019951595269232514 -0.12028217620740315 0.04764736116643135
-0.03151500125227394 -0.02160580013574353 -0.06089561175802414 0.13635015872981424 0.06773446716073717 -0.15260968242213238 0.15030692953474553 -0.07021884005506629
-0.28830615381179475 -0.06753544052169277 -0.061744369880538344 0.0342194073831069 0.00910227294016136 0.008684239037582503 0.11230236781033337 -0.04004390309153596
-0.0658989200861414 0.008368162078074838 0.08386961352456035 -0.04031249420777438 -0.03516032587182352 0.049486545647473706 0.06260832873456787 0.02179889622310651
0.24181368146581034 -0.018733224839747452 -0.03960236119640851 0.01436939536860821 -0.006120104213060903 0.16183418048046205 -0.08498829893634444 -0.0488758417282802
-0.13706548570278498 0.05884895262960638 0.0031839849679113933 0.0640400275240035 0.0032845241111646366 0.10176012053097934 -0.06333387909622906 0.17067737928776222
0.15007504194437826 0.07742242394783488 0.03588650380800812 -0.020695911447221587 -0.1492296951637638 0.03638164443972932 -0.07953073050316095 0.14318979048746
0.03149952658518436 0.11626695625593976 0.022303252649092973 0.07700778533903722 0.08429447743186967 0.021521745684038033 -0.18499920833836833 0.0137363080931176
00000000: d968 e9e4 3d0e 7e3f dc66 1184 3b67 d23f
00000010: f7a2 d40b b47b c1bf 83e0 ad02 7e81 9fbf
00000020: 7a63 22c8 7661 b2bf 6b20 e5b5 5901 a63f
00000030: 81e8 f8be ffab 893f 72aa eef6 cece a6bf
00000040: 3322 5c25 66ab c2bf a506 4ee0 802b ccbf
00000050: f9eb 0b9e 5728 c1bf fb52 04d2 f59e b13f
00000060: c51b 2328 d77b bebf 27aa cbd6 96c0 c5bf
00000070: 074c 2855 8d91 8abf e7f9 f342 4d0a cdbf
00000080: e966 b7af 073c a63f ee1d cca5 0af3 953f
00000090: 4208 74a7 c8f8 a43f 8ada 780c d611 ab3f
000000a0: 1607 7a5b c8d4 c53f 4e6f 033a d6db c5bf
000000b0: afd7 fa2e 29bb d6bf ec54 0b21 5602 c23f
000000c0: 8c19 f6e2 9b8d c53f 93d7 fa2b 15f8 bb3f
000000d0: 0b05 034d f14d 91bf 9ce6 a797 1f5b 913f
000000e0: 1ac1 fa41 ba65 a23f 8485 c244 641d 973f
000000f0: 59da db09 b569 68bf 282f 3f8c de56 cbbf
00000100: e95d 079f c80e c3bf 34e5 c4cb e79f c1bf
00000110: a84b 16d9 60e5 c63f bf85 6fc8 66f5 b0bf
00000120: 7488 b201 22c1 b63f 4cf2 6932 ba85 bfbf
00000130: 4302 f72b f418 9a3f a7a7 395d 0886 bebf
00000140: e534 aab8 b611 b9bf 3da1 3937 cd4c 903f
00000150: 9680 b310 791f ac3f 6d80 c25b 5848 b53f
00000160: 4709 4315 694c be3f 65e7 66fc cb58 cabf
00000170: 6acf af80 f885 9ebf e090 61e0 7a18 b2bf
00000180: ddfa 8004 cc68 9f3f 995d 17d4 905b c8bf
00000190: 8baf 6079 8cb0 c53f be78 f051 7784 c13f
000001a0: d76b 2202 f4c5 b33f 8e21 647c a8ce 9abf
000001b0: 8fa0 15d7 e553 b33f 10b3 0fcd 8dbe b1bf
000001c0: 5f86 cd22 9669 93bf 3e2d de7e 8cb0 b3bf
000001d0: 8282 aea8 327f c5bf 609d 9498 b89e 73bf
000001e0: 7b46 db1b b1b2 913f b2d8 ed1c 6e3d a73f
000001f0: 57bb 6987 f9d9 b7bf f7a1 c7d9 179f c8bf
00000200: 5958 df77 24ee 7fbf ebd2 79a1 5624 c53f
00000210: 7bd2 c62a b46d c93f bbd5 9f98 6fa4 b33f
00000220: d76b 1609 b8c3 743f 853d 8e04 b1fc cabf
00000230: af3b 0b20 0ae0 c2bf 4e45 81a6 37dd b6bf
00000240: fbbf e58f c656 c83f a43d ab77 6037 b8bf
00000250: 660b 1ed0 300d 9c3f 8c40 da6d c245 aebf
00000260: 0748 c3c3 d933 ba3f 1ade 5b41 6196 a5bf
00000270: a91c edc3 de23 c13f d8b6 8978 8164 a8bf
00000280: c841 0e06 7ef5 bebf a32d e75d de99 9cbf
00000290: 9219 b937 fd6f b3bf 3443 e7e0 3d48 c73f
000002a0: b1c8 ec77 aa75 d4bf 82f5 b6b3 5d5e cd3f
000002b0: 82d0 4d2a c152 9ebf 9614 de2b 5a87 a5bf
000002c0: d93a 18e1 e48c b5bf 31a2 d8f9 541a c53f
000002d0: 4a86 14e8 721f b13f ab48 4066 6bc0 b8bf
000002e0: 7374 0e88 7351 cebf 530f b50c a85f 843f
000002f0: 0c18 d543 203a d03f 78ee b32f 301c 83bf
00000300: 60a8 7800 d744 a83f 2342 1c2a cec4 b0bf
00000310: 355e ff6a 6727 b23f 735d 6c9a 8220 bbbf
00000320: 696a fd63 a82e 94bf d084 74e7 9128 c93f
00000330: b963 f67a a85d cabf ac62 38dc 5087 d13f
00000340: fc7f f8d4 6867 c8bf fe89 c081 4811 bf3f
00000350: c0f2 cb14 0f5f c23f 44d0 788f 39e9 d93f
00000360: 8dc2 2dad b137 d7bf 0702 ecdd f193 b03f
00000370: d4e8 5182 6da7 c1bf eb3e 4561 5ec7 cd3f
00000380: 77fc a23b 0947 adbf 4928 b315 8b6d bbbf
00000390: 6eed ecfa 7108 d83f a74f 0ce2 401f c6bf
000003a0: 1472 e38c beb3 d0bf 2b99 9e50 61b9 bb3f
000003b0: be30 a532 1cf1 75bf 42fd af7a 277a c43f
000003c0: efb2 22d0 8b71 cb3f 070d e7d0 6edb c03f
000003d0: 92f5 383e def2 be3f 244b 17a0 3e65 b3bf
000003e0: 3c94 c8c6 1f53 c4bf a328 bfe5 6f48 cf3f
000003f0: 7f99 0703 72ba babf fc50 0120 80a7 9ebf
00000400: 93f2 1cbb 3b00 9c3f 027e 6351 023d c6bf
00000410: 9631 3449 ff96 a0bf 1eb0 fe89 6a35 a93f
00000420: d8cb 4ce8 39b2 bb3f 119d 1dab 71af b0bf
00000430: 930a e79d 1287 91bf c7d7 aff7 9644 afbf
00000440: ddf3 fd7b e4bc b53f e9a8 6784 7fa5 ae3f
00000450: 1a23 4c3e dae9 96bf ae0e 9be6 25fe d03f
00000460: 8a06 bc18 3149 923f d1e7 7497 a547 b0bf
00000470: d1c2 da3e 1364 aebf 6006 8ad0 921d 973f
00000480: 335e 3abf 379b b6bf e7ac e8b3 ed79 a5bf
00000490: 9919 c731 2025 bbbf 875c 5da7 fe2a b5bf
000004a0: 7b21 cd8c 59f7 afbf 26bd c295 b0fd b5bf
000004b0: 8c3f 3484 1950 cc3f a13a 61ad 098f a23f
000004c0: 6ea1 feba 26d7 b9bf ea1f cd30 d9f9 cabf
000004d0: 440a 5725 0f7e 6bbf d844 1780 40c3 c03f
000004e0: a0c3 41ad 09bf 6cbf 54a9 9cca 1a92 c63f
000004f0: a056 3943 792d a7bf eb09 e5fa 3dea c1bf
00000500: dd70 e237 d19a b9bf 2072 5296 8ef9 ae3f
00000510: 9e4f 1a36 9b62 963f ac67 9766 e4fc a53f
00000520: 3dbe 5539 cd04 74bf c73f e38e 65a3 b43f
00000530: 6c4d 14c9 c0c2 bcbf c874 6c04 fa64 c03f
00000540: f7da 1d41 4686 c73f e1cf a02c 4aa5 bfbf
00000550: 3873 5064 a4e0 b8bf b876 0468 3671 9bbf
00000560: 3fc5 0784 c311 a43f c185 f15c e939 c23f
00000570: 5476 e0fd d216 cdbf 1542 adb9 333d ae3f
00000580: c36a 9d38 3cfe b53f 6cb9 01c4 94bc 96bf
00000590: 72c0 5f56 053d b1bf 3fbe 9015 c005 55bf
000005a0: e69d 8858 938f c3bf 0215 b40e 1cea c0bf
000005b0: b27c 4452 7b5f 9b3f 91aa 5fd3 c926 913f
000005c0: ee3f ec2c 841d c2bf 7ebb 0244 a824 b5bf
000005d0: 2b57 0f25 40b3 c6bf 49e7 0065 c2a3 c23f
000005e0: 2190 3354 8696 953f ab2c d7a2 e3c3 86bf
000005f0: e27b 3677 19d2 abbf e634 1803 3004 c8bf
00000600: 480b 8555 c34d 9cbf 811a ebc9 7544 c2bf
00000610: 38e9 9aa3 502e cf3f 007c c37a 1cfb b53f
00000620: 7b16 b38e 56a6 85bf a0ce bce4 306e 943f
00000630: d33d 1a0d d0ca bebf f5aa e623 3c65 a83f
00000640: 3480 6cf7 bb22 a0bf fe9d f2b3 d41f 96bf
00000650: fdf5 f0a9 b52d afbf 5b44 4608 ec73 c13f
00000660: 3071 44c9 0b57 b13f 292b 87cd b688 c3bf
00000670: 5b61 5be9 413d c33f 107d 99a5 dcf9 b1bf
00000680: 6fdc 76a7 9b73 d2bf 5e93 5cac 004a b1bf
00000690: 52b5 b242 f59c afbf eea8 32c7 3485 a13f
000006a0: a02f c764 36a4 823f 70aa 41d5 0ac9 813f
000006b0: 1c3d 0215 d9bf bc3f b35b 5d6c a280 a4bf
000006c0: 0898 9c6a c0de b0bf e1a8 9fb3 5323 813f
000006d0: 5855 379f 7a78 b53f 7f33 7cd8 d6a3 a4bf
000006e0: 34ed 78c3 8800 a2bf f4ba 4bee 4c56 a93f
000006f0: 9647 5f74 1907 b03f a6f3 7729 7352 963f
00000700: 7a7d cf2e c0f3 ce3f 962d 2470 cd2e 93bf
00000710: 25ac 5dbc c246 a4bf a229 5f99 b36d 8d3f
00000720: af61 17f7 6411 79bf 14ef 4480 fbb6 c43f
00000730: d269 790c cbc1 b5bf c22a 931b 4106 a9bf
00000740: 147d 40a1 5c8b c1bf e861 e52d 7321 ae3f
00000750: 063e dce9 4c15 6a3f a8bc d95f ed64 b03f
00000760: eff4 7d74 25e8 6a3f f5b2 b785 f30c ba3f
00000770: 9476 722b a636 b0bf 569d 1aa1 c1d8 c53f
00000780: 4c68 8cb2 a835 c33f 5c3f d5ba f4d1 b33f
00000790: e843 7240 b75f a23f fb91 4e1b 4f31 95bf
000007a0: 5b03 296a f519 c3bf 5b30 166a 9da0 a23f
000007b0: b0be 893e 205c b4bf c2e2 a105 0b54 c23f
000007c0: eab2 0bb9 b420 a03f 8187 b9d6 abc3 bd3f
000007d0: 499d e3f2 a9d6 963f b38c 913f c8b6 b33f
000007e0: 6fa4 cda7 5294 b53f 118d 76e7 cb09 963f
000007f0: 03b2 ccd6 0dae c7bf 60c5 3810 c821 8c3f

lstm.bias_ih_l0 f8 [256]
0.03506395089889004 -0.047568715817527904 0.05658733519596066 0.09302047546122015 -0.07396306396798799 -0.15774394846705728 0.07869473654114213 -0.07211601640973367
0.021774920889674726 -0.10331133211652102 0.056288516008986315 -0.11389326391450784 0.0917940369266795 -0.09108287812936229 -0.09037283343430422 0.07472396503506558
-0.051447397813717065 0.11976863765280163 -0.07589885916729966 0.18042205002984296 0.02918282519940127 0.04026485147743356 -0.06896886311568191 -0.00822946029762795
0.03413392966059459 0.04069929010826752 0.07096073839120279 -0.048315154531054595 0.032067306803950084 0.05047191982868162 -0.033503775038015965 -0.056817277789504836
-0.07800524553897183 0.06006261113045022 0.09723056756418713 0.05931145670159402 0.2301598592276097 0.07292799946014766 -0.024250938203541468 -0.053563292720001
0.1558591659035304 0.14282377227105655 0.056710999688580316 0.055435300322696654 0.19080311524395405 -0.05174929985082387 0.12086861448018107 0.2360290468937695
0.024600021216475115 0.05654122407927485 -0.004369219128426547 0.0498931306840495 -0.05212366298102405 0.06723713837529527 0.07404289404170968 0.033845114418100966
0.11117998082048891 -0.006975642635324084 0.1463558547199915 0.16449096770101646 -0.048454880579812565 0.013740815821738583 -0.04422732700067555 -0.029293860060181667
0.0015913225750583957 0.10481962125835578 0.08014914065363148 -0.11032005963427567 0.07515774706981825 -0.13111915703486465 0.030035965700739242 0.010377981468675105
0.026230419458169382 0.09514853617027579 0.05672123134266424 -0.04851228861442344 0.058178909908220854 -0.052209810173379556 0.014309366377155824 -0.017915171081256065
0.02037291620788629 0.014063349418915351 0.10008502048235286 0.10620550252831377 -0.051425273779047875 0.028885912660420877 0.03981243679900777 0.12436216550873301
-0.05353168324742391 0.03977394028263583 0.15061902178776257 -0.09701575138388199 0.009354840057580164 0.023556790595973213 -0.06899536204690832 0.0645114005314476
0.1807208619216455 -0.03371052500714732 0.023463559721900968 0.02261959943772545 0.14206723425125956 0.015090081054465205 0.09923665495790893 0.20334147345380077
-0.1515407247914597 -0.12850331531884893 -0.004711121257445085 0.013574118540685798 -0.07757453235766018 -0.0009155694209578252 -0.025492237094381368 -0.018792188967254517
0.1168170512790411 0.044039929733098684 0.031339490840212814 0.14118921686766728 -0.16515858195024136 0.11719105560230303 0.02491739412552409 0.05378779238552912
0.11383205417795435 -0.04242165027491769 0.02150084489016796 0.04850576119955119 -0.13293931033094925 0.003992152224187373 0.10860860486166621 0.00608369520706282
-0.0475602671074063 0.03334856971437835 -0.01890071391120811 0.11595402604491502 -0.08697371509361222 -0.04541014142603092 0.10517510350337779 0.03157366829812021
0.13116033991286258 0.033622120399984586 -0.07934618624847199 -0.09024863514015811 -0.06775464977471275 -0.10792647212168689 0.07689920429429463 -0.006766259889448612
0.13028494133904517 -0.0677580203287172 0.04439712995157625 0.11108808541644177 0.04486845918815526 0.04442440251572509 -0.015520464969338656 0.04750272435309713
-0.02030938481029864 -0.004950492376962112 0.07315414492963959 0.10871337060665234 0.06743417669731673 -0.08550542013263246 0.12209001559303664 0.09546790015331795
0.0884253317427788 0.11671915947666249 -0.09233272881695054 0.13178056840887378 -0.12364671950466108 -0.035535330451348074 0.006541195354672328 0.08887485317798931
0.11743944526966302 -0.07325982589806608 -0.09501728315146234 -0.03735368316461393 -0.009055388938673322 0.005611624504630431 0.11840089305258085 0.026422323109665673
0.04642461317750973 0.15576166276701825 0.12593721398629448 -0.07220209511298052 0.04946333982690353 0.08704948296696821 -0.017271854942320454 0.038731264343137624
0.031886981281354275 0.1127699608138396 -0.07028288453037866 0.13237297822382446 0.054715624876224694 0.11306416480643407 -0.12714391820737175 0.11821375040630736
-0.025179967244861157 0.16223501169757823 0.07638818080515392 -0.0699634359110287 0.03181623113954041 -0.06349262497731223 0.15416021758596968 -0.034327750321547446
0.019266913586153345 -0.0003223177976998545 0.027720317911894728 -0.03786703219634797 -0.030540022078779996 0.007090659425769796 -0.0650279972434954 0.034378232563157696
-0.07334324119496236 0.11698856941717331 0.07016049197171147 0.20318770549129456 0.08032938757361119 0.05556295858791832 0.019983515717406843 -0.03534032400451774
0.0791439439831891 0.08921908967809516 0.007378150022915001 -0.03698704523779189 0.035019535362845945 -0.06107182752146012 -0.15496697253314548 0.06416627606267618
-0.09379459969250656 0.04568745744900916 -0.051902813409572146 0.062013703870285784 0.022133026020817112 0.008294203696225284 0.12296311058320064 0.09831372440274808
0.029645675738175704 0.09935455685040347 -0.06986308348217973 0.0672937851350111 0.12685565217875247 0.019050646313974004 0.08531042375546068 0.19663591786537596
0.07102927595262411 0.1878214604927567 -0.03633623130770657 -0.08569756512222922 -0.09865351841887884 0.06397235933263919 -0.06885701626855724 0.03377781225010359
0.13181779308592173 0.1434993216185484 0.06691430858811132 -0.05765601486080283 0.07779593973833492 -0.14148780818524181 0.055973055950290874 -0.11539429778339362
00000000: 5231 c2f4 e6f3 a13f f67c 7f3d ed5a a8bf
00000010: 39a2 11e4 03f9 ac3f 17dd f69b 30d0 b73f
00000020: 2ebe da4c 3eef b2bf ef69 e725 f430 c4bf
00000030: 31c1 cf97 5625 b43f 1263 fffb 3176 b2bf
00000040: 4866 6034 2a4c 963f 9a24 bf88 9c72 babf
00000050: 9f45 cc2e d9d1 ac3f b15c bfe3 1b28 bdbf
00000060: 3662 9162 d07f b73f c589 ca1e 3551 b7bf
00000070: c614 0c8c ac22 b7bf f594 0d1a 1c21 b33f
00000080: bbff 2536 5057 aabf 5625 ce4d 28a9 be3f
00000090: 0861 ed8d 1b6e b3bf 6e7f 2dda 1118 c73f
000000a0: 7862 583f 1ae2 9d3f 4539 8c38 989d a43f
000000b0: fd2e 8683 f1a7 b1bf c380 bc76 9bda 80bf
000000c0: 1106 279f 007a a13f aa89 f88f 89d6 a43f
000000d0: c2b2 b0a2 7b2a b23f ad60 3991 c3bc a8bf
000000e0: 9fce fc43 206b a03f 83a0 0f9a 74d7 a93f
000000f0: 3461 2924 6827 a1bf 7e47 e87b 2717 adbf
00000100: 199f 81da 26f8 b3bf 5409 09cd 86c0 ae3f
00000110: 7015 dc3b 1ae4 b83f 8478 9f3d 125e ae3f
00000120: a705 1ed6 e075 cd3f ccdf a4cc 68ab b23f
00000130: 9215 ede9 3cd5 98bf aa38 ffdc a56c abbf
00000140: 3f33 2b72 31f3 c33f d76d 7fa3 0c48 c23f
00000150: 54ca f861 3909 ad3f 861e dc03 0462 ac3f
00000160: 4a4e f989 3c6c c83f ce7e e65c e27e aabf
00000170: 3a22 4eda 3ef1 be3f 0d4b a826 3336 ce3f
00000180: e833 6c7a bf30 993f beb3 97a8 f8f2 ac3f
00000190: d719 4054 75e5 71bf 1985 2aa9 978b a93f
000001a0: a7d3 b3e7 f3af aabf 6405 66fe 7336 b13f
000001b0: cd0b 69a0 79f4 b23f ea38 1c97 2554 a13f
000001c0: 4c0a 988d 4a76 bc3f 4afb cbcf 7d92 7cbf
000001d0: e1dc cce4 c9bb c23f 70b2 613f 0a0e c53f
000001e0: b800 d8fe 13cf a8bf 400a 9914 2524 8c3f
000001f0: 6f63 1dd6 f6a4 a6bf 6773 baab 35ff 9dbf
00000200: ff6c b49a 7d12 5a3f 7aa3 486d 75d5 ba3f
00000210: 03ec e871 a784 b43f edd3 3878 ef3d bcbf
00000220: 77b6 b4c1 893d b33f b002 ac35 83c8 c0bf
00000230: 90c6 8d89 bfc1 9e3f 8f37 0d18 0d41 853f
00000240: dccb eea6 25dc 9a3f 6315 1d8b a75b b83f
00000250: 4c10 36b3 900a ad3f ec2a 1b4a 9ad6 a8bf
00000260: a3d7 be46 a0c9 ad3f 9037 7386 3ebb aabf
00000270: 7051 eea4 3a4e 8d3f e0bf 95c7 5a58 92bf
00000280: c21b 5943 a3dc 943f 2198 9cce 3ecd 8c3f
00000290: cd8b ca01 2c9f b93f a3ac 03a8 4830 bb3f
000002a0: 3841 23da 6954 aabf 0a38 c4c8 4494 9d3f
000002b0: 5a36 0db4 4b62 a43f 5f41 b8e9 32d6 bf3f
000002c0: b8ed b139 8168 abbf e373 7ef9 3f5d a43f
000002d0: 21f2 5dee 7b47 c33f fa00 6437 06d6 b8bf
000002e0: 4f5a da60 a128 833f 716d d574 451f 983f
000002f0: cc30 9117 aea9 b1bf 0471 80b3 d183 b03f
00000300: 6c46 d477 dc21 c73f 8f95 df84 8142 a1bf
00000310: a5fc 9cd6 d406 983f 8ea8 559f 9729 973f
00000320: 4c9e 7856 422f c23f 0abc fb64 8ce7 8e3f
00000330: d2d0 9bcb 9267 b93f 86c7 33e9 1707 ca3f
00000340: 06e8 7ebc af65 c3bf 8b6b 5cf0 cb72 c0bf
00000350: e8c6 a6fb f74b 73bf c059 a259 bfcc 8b3f
00000360: 6e88 7aaf ecdb b3bf dc8b 305c 5a00 4ebf
00000370: 112e 7d12 a31a 9abf d970 2374 423e 93bf
00000380: 9acf dbe6 b8e7 bd3f c2f5 d7d3 668c a63f
00000390: 70c9 76d0 ba0b a03f 344b 7ffe 7c12 c23f
000003a0: 94a4 109a ea23 c5bf 7013 32a7 3b00 be3f
000003b0: 8590 7b03 f283 993f d294 70d2 128a ab3f
000003c0: d549 eef5 1824 bd3f 1a70 2561 4ab8 a5bf
000003d0: d0fd 8e46 5104 963f a010 0a44 bfd5 a83f
000003e0: 4eb3 1cc3 2704 c1bf 8d88 e533 135a 703f
000003f0: 56ee f105 c6cd bb3f ca2b 407f 37eb 783f
00000400: 8973 a1bf d159 a8bf ab50 9550 1013 a13f
00000410: 4c90 7a70 b55a 93bf 41d3 b3bd 29af bd3f
00000420: bb4d f0cd e843 b6bf 4cbf a980 ff3f a7bf
00000430: 1982 e66d c1ec ba3f baa6 8281 6c2a a03f
00000440: 5c9f 3aad dcc9 c03f 1189 1427 eb36 a13f
00000450: 07e0 ff1a 0850 b4bf 7f84 6fd8 881a b7bf
00000460: ed2f ef64 5e58 b1bf 15a3 22bc 11a1 bbbf
00000470: 8f4c 888f aaaf b33f b40c 100f f0b6 7bbf
00000480: 7632 1b4d 2dad c03f d481 5af1 9658 b1bf
00000490: c947 5b7a 38bb a63f 50c0 d6cd 4470 bc3f
000004a0: 0b8a aba9 fff8 a63f 0e15 e697 cbbe a63f
000004b0: 3439 b28b 31c9 8fbf 7489 22ef 4652 a83f
000004c0: 3e9a 3fbe fbcb 94bf 0cfb baad f746 74bf
000004d0: 4226 0ae4 3aba b23f 62bc 64b3 a3d4 bb3f
000004e0: 7d33 8cbf 5d43 b13f 94b3 19e7 aee3 b5bf
000004f0: 9ee5 2390 4a41 bf3f 67ee f994 9570 b83f
00000500: b222 f9e3 0aa3 b63f ebd4 c48c 4ee1 bd3f
00000510: 7886 9e22 1ea3 b7bf 613e c887 2fde c03f
00000520: 7ebb 87b8 4fa7 bfbf 543d 48d4 af31 a2bf
00000530: ea43 00c2 f0ca 7a3f 8315 d69b 80c0 b63f
00000540: c28e b1f0 8210 be3f ddc4 57ec 27c1 b2bf
00000550: abb7 b07b 0d53 b8bf dc81 279f 0520 a3bf
00000560: 0bd8 c0ba a18b 82bf c1dc 98fb 36fc 763f
00000570: 1160 7a5b 854f be3f 4bba 8f16 740e 9b3f
00000580: 8859 a786 f7c4 a73f c207 c787 ffef c33f
00000590: 92d2 b5eb b51e c03f c382 3625 d67b b2bf
000005a0: dea1 d045 4253 a93f 0612 7afa df48 b63f
000005b0: ea5d 7990 b6af 91bf d97d 5f93 95d4 a33f
000005c0: a30c 8b8b 7d53 a03f 17a9 aafd 7dde bc3f
000005d0: 0fca 8622 0ffe b1bf 9537 2c06 99f1 c03f
000005e0: ace0 d8b6 af03 ac3f cd74 31ea c5f1 bc3f
000005f0: c200 4b7d 4046 c0bf aabe ee9f 4143 be3f
00000600: 80f9 52ff c6c8 99bf 6bee c0ea 1dc4 c43f
00000610: 14ec 5b02 2d8e b33f 4756 27ad 1fe9 b1bf
00000620: f8dd 7390 374a a03f 6093 d07b 0d41 b0bf
00000630: 3d20 70a2 85bb c33f 90dd f329 6893 a1bf
00000640: f052 fdae b4ba 933f 19ff 6866 981f 35bf
00000650: 321a 770b b762 9c3f 6981 c2c1 4e63 a3bf
00000660: 149e 3030 e245 9fbf f3bb 7365 180b 7d3f
00000670: 7835 7cc1 aca5 b0bf a828 1b11 069a a13f
00000680: 0ea4 5066 9fc6 b2bf d20f a77f f6f2 bd3f
00000690: a761 7dba 09f6 b13f e266 0403 0e02 ca3f
000006a0: 784f 897c 7790 b43f e81a 0284 bf72 ac3f
000006b0: 7a88 dc09 8f76 943f 56ad a87f 2018 a2bf
000006c0: 9d91 150b c742 b43f c4a7 58f0 0fd7 b63f
000006d0: 9dbb da10 8d38 7e3f e80e 584b f7ef a2bf
000006e0: 1d86 359e 14ee a13f 60c0 d27b ce44 afbf
000006f0: ffb7 7e2f f5d5 c3bf 4dff 3179 336d b03f
00000700: 9681 3842 ec02 b8bf e169 29af 5864 a73f
00000710: b039 546c 0193 aabf 6bac 0d9c 42c0 af3f
00000720: 5c07 af3b 0aaa 963f 9723 f92c 8dfc 803f
00000730: 38bc 91aa 827a bf3f 5ec9 0e97 162b b93f
00000740: aa9a 0d9f 6f5b 9e3f dd8c 61dc 4c6f b93f
00000750: 28f1 c00a 8ce2 b1bf 2301 615e 2a3a b13f
00000760: b7d2 b556 ce3c c03f 1c73 8b3b 0382 933f
00000770: 7da0 0968 e7d6 b53f 95b1 39a2 5d2b c93f
00000780: a16b 4681 f92e b23f 0bd4 269b 880a c83f
00000790: 6fc3 409a a99a a2bf 65fb 8b8f 46f0 b5bf
000007a0: 3292 3e63 5b41 b9bf 5580 2e17 7e60 b03f
000007b0: 693d f908 9da0 b1bf a3a5 e34d 534b a13f
000007c0: f2de 2acb 67df c03f ecc7 ac8e 2f5e c23f
000007d0: 4838 05cf 4b21 b13f 6d5b 7dd4 1685 adbf
000007e0: 6b0f f048 6fea b33f 5a1b 78c2 451c c2bf
000007f0: bd00 8719 80a8 ac3f 39e3 1f0f 7b8a bdbf

lstm.bias_hh_l0 f8 [256]
0.0419087694909617 0.02679539500991807 -0.13974225846248678 -0.11197241489675047 0.05959996281786248 -0.08916861093787468 0.09622127372108907 -0.061944751999714574
0.07105665213757682 -0.10082550550500212 -0.015274742758141889 -0.10044028697244521 0.09049057275240878 0.023883544190050038 -0.018112677160462328 -0.0898777632850561
-0.11811514829150789 -0.06347866034944129 0.046785455679693076 0.16829666224202414 -0.057465221770965684 0.1528643286493315 -0.08003780327834077 -0.06825953322510306
-0.06844603652688261 -0.026625541973527414 0.018404327959341302 -0.13827525279765637 -0.004753000570050384 -0.008682918494911554 -0.021411452926886326 -0.012522831082732793
0.06575825193283777 -0.07720184919479083 0.008364080418763244 -0.011724852302236043 0.036942149567080015 -0.02410030070598239 0.02681736776569687 0.0065522830704043645
0.011870079752407862 0.16541055007733863 -0.03875911585383145 0.06942579195134346 0.18897434043411668 -0.02405646034753555 0.06394568698136419 0.08734497737949551
-0.04097063126841886 0.09224549408450078 0.05628610652274236 0.1308037537576263 0.044150966254243945 -0.03104390241240171 0.018679611480407664 -0.13327485053913615
0.04639475364096136 0.034881585047743295 0.04741764292132341 0.14937877626234175 0.008158505097525167 -0.14137866288080764 0.05688311647218687 -0.10144444809576503
-0.07673023864224955 -0.02381936151447151 0.030418795046827346 -0.061022741771764775 -0.07130698819972821 0.05945331339169478 0.024090476890199854 -0.021748802855971142
0.1031528659475038 0.07215167840793936 0.1254786908639582 -0.06345907716384627 0.08527197767345676 -0.005307898676263788 -0.04483690377875065 -0.07222292988939226
0.05718832109985356 -0.08696437770815969 0.06534794014673581 -0.13171925209128413 -0.017278681758059317 0.010696646336377536 -0.07515182485203112 -0.11599593383265966
0.043591075379514094 0.04830063803749564 -0.057652004823564855 0.01211101017178999 0.09484473897763938 -0.016913422102009575 -0.17803483260030553 -0.06537999503740032
0.12470413363967095 -0.03938974496831371 0.07152384278674277 0.14924890730382126 0.09857895526623668 -0.12148667578051821 -0.07498232750020573 0.10561937522248406
-0.08413877920048635 -0.04751177893998839 0.17238801724086047 0.06241890303890099 0.046281341584715224 0.14036731684574988 -0.0815135996374872 0.1765848777641983
2.534102151084889e-05 0.1756319650266773 -0.09724650340340926 0.036284937754851435 0.07517075815004715 -0.01864265482974947 0.0648380370975168 -0.04627867573409217
0.17306439344091734 0.13962518037922597 -0.019615318244406977 0.15549882548387547 -0.07624064530809926 -0.020661848773356004 0.0754625662101999 -0.056446345533903805
-0.047408886210838004 -0.08368622318570743 -0.07933316289440101 -0.10728161090462444 0.053668540451050434 0.05390524856477565 0.08262361164680276 0.051526338037843455
0.1134054126352978 -0.058902959446397334 0.0890861537774298 -0.04198842319557819 0.10997021828444557 0.01576475889065748 -0.06962427135267828 0.06322149910465368
0.05782439424946862 -0.14550026910229172 -0.05552934175862899 -0.027955499049538982 0.08030036576908044 -0.012085062463446905 0.06668472628527691 -0.019789340075232302
-0.1541096976870002 -0.005231841201463159 -0.11705120558858713 -0.06930397744441885 -0.02059236179393266 -0.12082449512099747 0.09459247070835486 0.013922994252362772
-0.03298442718265914 0.015045377604867037 0.07145529179385891 0.05719784264555236 0.019041450570756017 0.08286306770958647 -0.07181207553365618 -0.024860763029133044
-0.03151725588981488 -0.05054732699479176 -0.1467258771160391 0.07696978385160631 0.06512130998443767 -0.06546040258258115 0.025476536592009776 -0.03595591950221926
0.0702054657337385 0.013154733822430823 0.018215497820752095 -0.023766571006954958 0.06209183552011034 -0.03041094670145809 -0.10684158748912685 0.10545362757670367
0.161650450381353 0.12365616803677813 0.02605032116954213 0.13570227016355993 0.07229725164910504 -0.02130330116646635 -0.01045442991563131 0.130083836599392
0.00776976350903751 0.023229708314704646 -0.09458334689050181 -0.07028314032444269 -0.0917906145969632 -0.043870224574289476 0.00021672362368191673 0.04543359089263272
-0.04542783374260472 0.06132701961322688 0.02018645472505856 0.03600902089851585 -0.16167120916011732 -0.05721650870033647 -0.0013605061651187707 0.09742129048170607
-0.03763394949841439 -0.02757783242208287 -0.07879053184535022 0.02282762667964996 0.11047604599417396 0.15813875245026113 -0.043525650523285574 -0.0529002695878615
0.11951433380233425 0.14101369314508286 -0.07781734665543749 -0.04595273120142249 0.04325776153815412 0.043083265910012374 -0.12911979085532752 0.021214796508499823
-0.0709294532939622 -0.026727462284992072 0.043786706830257156 0.1356048765654451 0.20019880284576821 -0.13952427226546008 0.06156958140648875 0.11606745958741792
0.05938627751620592 0.038413158706635475 0.08213963854273813 0.22965984753773522 0.17743292018316947 0.05768303919727499 0.09411763586979471 0.07345210119400472
0.04924991756563091 -0.03379674481615801 0.06558908216504106 0.12510402138652138 -0.007116966704935535 -0.06451969799081624 -0.12157631129342973 -0.106413593761478
0.10722139997755396 0.15700059322403997 -0.06939834006587306 0.12971680372840752 0.09697878568846185 0.0406983185237424 0.15481208562005164 0.049064692313652014
00000000: 6431 c2f4 1075 a53f 1106 0185 4070 9b3f
00000010: 7897 fb06 13e3 c1bf c022 0964 39aa bcbf
00000020: 9c83 4ae6 e283 ae3f d2d3 ce0b c1d3 b6bf
00000030: 34c1 cf17 f5a1 b83f 0bc6 fef7 38b7 afbf
00000040: 9f19 18cd c430 b23f 9724 bf48 b3cf b9bf
00000050: ffe9 ce44 5d48 8fbf 9f5c bf63 74b6 b9bf
00000060: 2f62 91e2 632a b73f 08d9 d584 ed74 983f
00000070: 0f53 3030 218c 92bf 056b f2a5 3a02 b7bf
00000080: ddff 125b cb3c bebf a1da 3132 2340 b0bf
00000090: 133e 2564 43f4 a73f 717f 2dba be8a c53f
000000a0: 7fce 53e0 146c adbf 530e 23ee 0e91 c33f
000000b0: 092f 8683 5b7d b4bf 2290 d7ee 7479 b1bf
000000c0: fe7c 6cf0 ad85 b1bf e4ec 0ee0 b943 9bbf
000000d0: 79cb c28a 95d8 923f 3358 4ee4 00b3 c1bf
000000e0: aa8a 19e0 e177 73bf 087e c197 59c8 81bf
000000f0: 8bc2 5248 e2ec 95bf 891d a1ef 91a5 89bf
00000100: f660 7e65 88d5 b03f 537b 7b19 80c3 b3bf
00000110: 81ab e0de 2f21 813f 2c1e 8209 3303 88bf
00000120: d616 78d8 14ea a23f cc80 6ccd bfad 98bf
00000130: 7eea 1216 0376 9b3f 1b3b 0618 91d6 7a3f
00000140: 0f35 b322 574f 883f d86d 7f43 2c2c c53f
00000150: a635 071e 3cd8 a3bf 400f ee81 e3c5 b13f
00000160: 494e f9a9 4f30 c83f 8efd ccb9 41a2 98bf
00000170: 6222 4e9a be5e b03f 4696 508d 3d5c b63f
00000180: 25e6 c942 1afa a4bf d0d9 4b94 669d b73f
00000190: d1fc 7755 88d1 ac3f 1fa1 4a6a 2dbe c03f
000001a0: 8c2c 4c98 f49a a63f 99ea 6706 f9c9 9fbf
000001b0: 662f a481 bf20 933f c1f1 387a 260f c1bf
000001c0: 7114 309b 0dc1 a73f 9f80 06c6 ffdb a13f
000001d0: 6b73 3313 2047 a83f 78b2 61ff d71e c33f
000001e0: 51fd 9f04 68b5 803f 826f b62e b218 c2bf
000001f0: aa9c e2a9 c81f ad3f d09c ee6a 43f8 b9bf
00000200: 452e 95c9 97a4 b3bf 4272 dd4a 1a64 98bf
00000210: c8af a3c7 1a26 9f3f bba7 7170 5f3e afbf
00000220: 8549 4bbe 2c41 b2bf 3ef5 4f29 aa70 ae3f
00000230: 67c6 8d89 2cab 983f 8164 f973 5145 96bf
00000240: 0db3 bbe9 3968 ba3f 7915 1d4b 8878 b23f
00000250: 1e84 cd8c af0f c03f 5a95 0da5 da3e b0bf
00000260: d26b 5f63 62d4 b53f f2bd 9933 bcbd 75bf
00000270: 876b c4d6 dcf4 a6bf 0770 e5b1 337d b2bf
00000280: 998d aca1 c947 ad3f f16c 2c26 4c43 b6bf
00000290: ce8b ca81 a4ba b03f 9d29 fe2b 2ddc c0bf
000002a0: 5582 46b4 80b1 91bf ed6f 8891 1fe8 853f
000002b0: c264 f965 263d b3bf acbe 47d6 e8b1 bdbf
000002c0: 5c12 4ec6 9151 a63f d273 7e79 dcba a83f
000002d0: 1737 8846 9084 adbf d8f8 df44 a8cd 883f
000002e0: 4b4b 1bac be47 b83f 8f92 2a8b c051 91bf
000002f0: 4598 c86b d8c9 c6bf 0f8f 7f4c bebc b0bf
00000300: ea8c a82f 9cec bf3f 9095 df84 e42a a4bf
00000310: 0b3f a7f5 624f b23f f9b4 ea93 961a c33f
00000320: c53c f16c 783c b93f 6188 6033 c019 bfbf
00000330: 302f 64b4 0a32 b3bf bd8e 6712 df09 bb3f
00000340: eccf fd78 1e8a b5bf 23ae 71c1 7653 a8bf
00000350: afc9 2280 cf10 c63f b496 68d6 5ef5 af3f
00000360: 44ef 0a21 30b2 a73f 5ccf a365 8ef7 c13f
00000370: 724b 9f44 13de b4bf e091 7b51 559a c63f
00000380: 6072 f9bc 6d92 fa3e 5ffd f5b4 1b7b c63f
00000390: 5a9b c497 25e5 b8bf d22c fd79 f093 a23f
000003a0: e0b6 de0b 643e b33f 1fb2 3763 0f17 93bf
000003b0: 31e4 dec0 3999 b03f 306b 8fad d6b1 a7bf
000003c0: 0225 f75a f926 c63f e3a3 b6e7 3cdf c13f
000003d0: 3d02 71b9 0916 94bf 1b84 02b1 62e7 c33f
000003e0: a066 39c6 8184 b3bf e99d 0633 6128 95bf
000003f0: 5aee f1c5 8351 b33f 6efa 1710 89e6 acbf
00000400: 8973 a13f fa45 a8bf c257 b5d7 756c b5bf
00000410: 34a4 1e9c 2d4f b4bf d32c 4cc2 ce76 bbbf
00000420: a464 1f64 717a ab3f b340 56ff 7799 ab3f
00000430: 1882 e62d d226 b53f c0a6 8201 a961 aa3f
00000440: c83e 751a 2308 bd3f cf76 eb58 8728 aebf
00000450: f91f 00a5 59ce b63f 1409 dfb0 817f a5bf
00000460: 13d0 101b 0227 bc3f af73 750f a324 903f
00000470: 83b3 7770 e5d2 b1bf 27ff 0ebf 482f b03f
00000480: f1c9 6cb4 289b ad3f df40 adb8 c09f c2bf
00000490: 4eb8 a485 576e acbf 01ff a4c8 5da0 9cbf
000004a0: 13c5 d594 908e b43f 53ac 67a0 0dc0 88bf
000004b0: cab8 890e 4012 b13f 0eed ba21 a843 94bf
000004c0: 4ff3 c7d7 ddb9 c3bf 17fb baad fb6d 75bf
000004d0: c5d9 f55b 11f7 bdbf a043 9bcc e7bd b1bf
000004e0: 6432 cf01 2a16 95bf 88b3 19a7 5aee bebf
000004f0: 98e5 2350 3637 b83f 4573 cfa7 a883 8c3f
00000500: 9fba 0db8 55e3 a0bf cca7 2666 1cd0 8e3f
00000510: 9179 61dd e44a b23f 3cf9 201f 0949 ad3f
00000520: a112 e11d 9a7f 933f 5de1 db95 8336 b53f
00000530: befb dfb3 4662 b2bf 72a9 a790 1975 99bf
00000540: dce2 9c9e 0723 a0bf d989 afd8 56e1 a9bf
00000550: d75b d8dd e9c7 c2bf 1d3f 6cb0 4ab4 b33f
00000560: 01e5 a748 caab b03f 3272 4650 03c2 b0bf
00000570: 8280 e96d 8516 9a3f c722 b874 d068 a2bf
00000580: cdac 5343 fcf8 b13f c27c 707c def0 8a3f
00000590: ce94 ae5d 15a7 923f 320b da94 4356 98bf
000005a0: e2a1 d045 80ca af3f abb7 1716 0c24 9fbf
000005b0: 7f57 1e64 f859 bbbf dbbe af49 02ff ba3f
000005c0: 32c3 e242 f6b0 c43f 17a9 aa3d eea7 bf3f
000005d0: ecd7 e475 efac 9a3f 9737 2c26 b15e c13f
000005e0: 4770 6c9b 1282 b23f d42c 3a57 88d0 95bf
000005f0: 110c b0d4 2169 85bf 525f f74f 96a6 c03f
00000600: 351a b402 30d3 7f3f 4a73 0756 87c9 973f
00000610: e513 a43d 9d36 b8bf 4656 276d 13fe b1bf
00000620: 0411 c6f7 967f b7bf c226 a177 2876 a6bf
00000630: 7108 81c0 0968 2c3f 8922 0c56 1243 a73f
00000640: 6f56 8128 5142 a7bf f62d 334f 4166 af3f
00000650: 481a 770b c2ab 943f 8c7e 3d3e c66f a23f
00000660: cf13 0666 a4b1 c4bf 8288 5173 7b4b adbf
00000670: a260 0d5f 604a 56bf 4594 8d08 9af0 b83f
00000680: 6448 a1cc c144 a3bf 99c0 6301 5d3d 9cbf
00000690: 279e 82c5 9d2b b4bf 1738 2318 2060 973f
000006a0: 7a4f 897c 2848 bc3f b986 0001 e43d c43f
000006b0: ebbb 117b fe48 a6bf 7bad a87f be15 abbf
000006c0: 9a91 15cb 7d98 be3f e553 2c98 bc0c c23f
000006d0: 5054 f26e d6eb b3bf dd0e 58cb 1d87 a7bf
000006e0: 1586 359e e125 a63f 773f 2d84 020f a63f
000006f0: 0bb8 7e4f ff86 c0bf 2dfd c7e4 54b9 953f
00000700: 9381 38c2 6e28 b2bf 522c ada1 715e 9bbf
00000710: e9c5 ab13 366b a63f 056b 0327 805b c13f
00000720: e9e0 7547 1da0 c93f cd6d 306d eedb c1bf
00000730: 8578 2355 0c86 af3f 77c9 0ed7 98b6 bd3f
00000740: 3bcd 86cf e067 ae3f e819 c3b8 e3aa a33f
00000750: eb0e 3f75 1a07 b53f 6a80 306f 7e65 cd3f
00000760: a8d2 b536 1fb6 c63f acb9 c59d a188 ad3f
00000770: 78a0 09e8 1718 b83f 3a63 73c4 c1cd b23f
00000780: 60d7 8c02 4937 a93f 1fb0 6493 ce4d a1bf
00000790: 3c9e df32 72ca b03f 4202 3a98 6803 c03f
000007a0: e723 e933 ae26 7dbf 8f7f d1e8 5c84 b0bf
000007b0: 993d f908 a01f bfbf 3b2d 0ed9 eb3d bbbf
000007c0: efbd 5596 dc72 bb3f eac7 ac6e 9818 c43f
000007d0: cec7 faf0 16c4 b1bf 1fa9 e06a 8f9a c03f
000007e0: 800f f008 9ad3 b83f 8192 1ff6 68d6 a43f
000007f0: 0fc0 61e6 e1d0 c33f 6839 c0e1 011f a93f
